models/model_epoch40.pth (torch, 957119 bytes, 61 tensors)

cnn.0.weight f4 [16, 3, 3, 3]
000000 56 e9 dd bd b6 d8 bd 3c 1a 60 a3 bd cc 7f 1f be
       -0.10835521 0.023174625 -0.07977314 -0.15576094
000010 48 58 51 bc e9 81 37 3e e9 0f ed bc 26 59 50 3e
       -0.012777396 0.1792065 -0.02893825 0.20346507
000020 00 d2 a8 3c 4c 05 0e be 7a 41 4e be fc 8c 85 3d
       0.020607948 -0.13869208 -0.20142165 0.06521031
000030 56 b7 76 be 17 09 6e bd 9c df 19 3e d6 92 fa bc
       -0.24093375 -0.058114138 0.15026706 -0.030587595
000040 b9 31 3c 3e 11 35 95 3e f1 b6 85 be f6 51 62 be
       0.18378343 0.2914205 -0.26116136 -0.22101578
000050 6b 28 bb 3d 0a 50 8a 3d 85 c4 65 bd 83 79 62 3e
       0.091385685 0.067535475 -0.05609562 0.22116666
000060 57 45 cb bd d9 3b 2c 3d 91 07 5f 3e 5f 08 99 be
       -0.09925335 0.042049263 0.2178023 -0.298892
000070 96 78 fc 3b b6 fe 37 3e a9 6a cc bd 38 fe 29 3e
       0.0077048047 0.17968258 -0.09981281 0.16600883
000080 64 12 e4 3c ff 7c b3 3d 03 cf e6 bc cb b1 aa be
       0.0278408 0.087640755 -0.028174883 -0.3333877
000090 86 15 b8 be ba 20 34 3e 40 c6 11 3e 68 02 fb bc
       -0.3595392 0.17590609 0.14235783 -0.030640796
0000a0 d1 93 cc bd 6a 1e ba bd d3 3a 12 3e 1e 99 fe bd
       -0.09989131 -0.09087832 0.14280252 -0.124315485
0000b0 66 fb 8d be 4d f0 76 be af 60 85 3d 48 26 53 3d
       -0.27730864 -0.24115105 0.065125816 0.05155018
0000c0 d5 74 f9 bd b2 c4 c6 bd 5e d6 68 3d 93 33 87 3e
       -0.12180487 -0.097054854 0.05684506 0.26406536
0000d0 3c 14 94 3d c2 d9 d9 bd 67 be 57 3e b9 7d 79 bd
       0.07230422 -0.10637237 0.21068726 -0.060910914
0000e0 01 32 e3 bd cc a8 8e bd c0 0f 78 3c 9e 90 b7 bd
       -0.11093522 -0.06965789 0.015140474 -0.089631304
0000f0 d4 bf ff 3d 1f 7a 34 3e 3c d2 3f be c5 df 13 3e
       0.1248776 0.1762471 -0.18732542 0.1444083
000100 b3 2c 94 3d ae 14 b6 be 59 28 b7 3d ff 56 c8 3d
       0.07235088 -0.35562652 0.089432426 0.09782218
000110 de fa 38 bd 87 c7 9d 3e 41 ba 4a bd 02 7f 80 be
       -0.04516112 0.3081629 -0.04949403 -0.250969
000120 bd c4 77 3d 40 c8 91 3d d3 42 1f be a7 34 49 3e
       0.06049036 0.07118273 -0.15552835 0.19648992
000130 4b e7 c3 3d 36 f7 89 be 08 61 1f 3e f7 76 13 3d
       0.095656 -0.2694642 0.15564358 0.036002126
000140 23 d9 68 be b0 23 38 3e 54 a3 8a 3e 6a 2e 64 be
       -0.22739081 0.17982364 0.27077734 -0.2228333
000150 a5 a0 a8 3d 8d 5f 93 3d b9 2a a2 bd c0 91 f1 bd
       0.082337655 0.07195959 -0.07918305 -0.11795378
000160 ec 1c 3d 3d 44 0d 48 be 03 c9 00 3e ab ae 5e 3e
       0.04617016 -0.1953631 0.1257668 0.21746318
000170 4f c7 e3 3b 43 ad 5d 3e a4 fb 49 bd c5 e7 5d be
       0.0069512497 0.21648125 -0.04931225 -0.21670444
000180 30 8f cb 3d 15 d8 a3 bc 30 4f ae be 9f 2a c5 bc
       0.0993942 -0.020000497 -0.3404479 -0.024068175
000190 2f a4 8e 3e ae a1 18 bc 78 e6 f4 3d 30 17 05 3e
       0.27859637 -0.009315891 0.11958021 0.12997127
0001a0 9d 2f 62 be de fc aa 3d de 1f ea bd a6 3e 64 be
       -0.22088476 0.08349012 -0.114318594 -0.22289523
0001b0 ba 45 a8 3d ec dd 30 bb 2d 48 cb bd 4b ef 37 3e
       0.08216424 -0.0026987744 -0.09925876 0.17962377
0001c0 8e b2 5a be b4 3b 24 3e 92 6a 0e 3e cc 4b a1 be
       -0.21357176 0.160384 0.13907841 -0.3150314
0001d0 7e 28 ca 3c 82 22 19 3e 79 d6 cf bc 24 20 a3 b9
       0.024677511 0.1495457 -0.025370823 -0.0003111373
0001e0 8f 1d 6b 3e 64 40 88 bd 00 4e 96 bd 39 b0 19 3e
       0.22960494 -0.066529065 -0.07339096 0.1500863
0001f0 c4 0a ae be e2 a6 3a ba e7 29 5e 3e 97 be d5 bd
       -0.3399259 -0.00071202044 0.21695672 -0.10436743
000200 5f d8 a9 bd 14 61 91 3d 32 fc 02 be 5f 6e 6a 3c
       -0.08293223 0.07098594 -0.12791517 0.014308541
000210 d6 b5 10 bc fe f3 35 be f5 5b 36 3e 10 e0 e1 3a
       -0.008832416 -0.17768857 0.17808516 0.0017232914
000220 0d 6f 09 bb 41 57 a0 bd f1 8b d4 3d b7 1c 3b 3e
       -0.0020970732 -0.07829142 0.10378254 0.18272673
000230 00 af 0f 3e 1d 72 4d bc 99 99 26 3e 41 5a be bd
       0.14031601 -0.012539414 0.1626953 -0.09294558
000240 a6 e3 5b be a6 8b ac bd d5 e4 b6 bb 3b 7f ba 3c
       -0.2147356 -0.08425073 -0.005581478 0.022765746
000250 6e d4 62 3d f4 53 76 be 24 b2 f9 be b6 56 b9 bd
       0.05537837 -0.24055463 -0.48768723 -0.09049742
000260 37 f3 10 be 40 38 36 3e 97 33 81 3e 7d d2 08 be
       -0.14155279 0.17794895 0.25234672 -0.13361545
000270 82 ce db 3d 09 d1 19 bd 42 c3 97 bd 6d 92 b5 be
       0.107327476 -0.037552867 -0.07410289 -0.35463277
000280 2b bb 96 3b 62 18 c3 bd 9b da 07 be 41 43 25 bd
       0.004599949 -0.09526135 -0.13266985 -0.04034734
000290 d4 85 cb 3d f5 d3 a8 3b 3d 56 5c bd ef 9a ac 3d
       0.09937635 0.0051522204 -0.05379318 0.08427989
0002a0 28 9c 71 be 18 96 43 3c 41 db 8e 3e 31 69 80 be
       -0.23594725 0.011937641 0.27901652 -0.25080255
0002b0 ab c9 51 3e 71 2c 3b 3e cd a1 a2 be ab 42 02 3e
       0.20487086 0.18278672 -0.3176407 0.12720744
0002c0 64 e5 2a 3d c5 14 7b be fe cf 50 3e c0 b7 87 3d
       0.04172267 -0.24519642 0.20391843 0.066268444
0002d0 1a f5 39 be 0a 58 2a bd ef 3c 4d 3e bd a4 ef bd
       -0.18159905 -0.041587867 0.20042776 -0.11701343
0002e0 55 c7 9d 3d 4c 95 d3 3d 6b bd 2f be 4e f0 3f 3d
       0.07704035 0.103312105 -0.17162101 0.04686003
0002f0 9c 20 b5 3d 16 2e 1b 3e 48 cd 0d 3e 57 89 34 3e
       0.0884411 0.15154299 0.1384784 0.17630516
000300 8e 8e 64 be 47 78 eb bd e6 ed 81 be 68 7d 62 3d
       -0.22320005 -0.114975505 -0.25376815 0.055295378
000310 de 38 e4 bc b0 22 92 3d c9 93 33 3d 03 dc 29 3e
       -0.027859148 0.07135522 0.04384211 0.16587834
000320 f1 71 8e 3e ea 3a 8e bc 29 47 81 be 58 89 41 be
       0.27821305 -0.017362077 -0.25249603 -0.18900049
000330 ac 2e b8 bd e7 a3 04 3e 4f 47 ba bd 70 b8 3c 3e
       -0.08993277 0.12953149 -0.09095632 0.18429732
000340 5b 83 e6 3d 47 34 0a 3e ce 05 51 be 8a dc 3e be
       0.11255523 0.13496505 -0.2041237 -0.18638816
000350 5b c1 e8 bd 24 d5 66 bb 35 74 3f 3d 86 9a 35 3c
       -0.11365005 -0.0035222257 0.046741683 0.011084205
000360 fd d3 e0 bc ec 7f ea bd fd 7d dc 3d 46 0f 59 be
       -0.027444834 -0.114501804 0.10766218 -0.21197233
000370 f7 9e 3f bc a0 2e 76 3e 71 a4 ef 3c 7d 8f a1 3d
       -0.011695615 0.24041224 0.029253216 0.07888696
000380 02 3e 2e bd 0e db 94 3d 95 c3 74 be 26 b8 1c be
       -0.042539604 0.07268344 -0.23902734 -0.15304622
000390 a6 0b 8f be da 61 6e bd 1a 9e 8b 3d 81 fe 13 3c
       -0.27938575 -0.058198787 0.06817265 0.009032846
0003a0 53 df e3 3d b0 a7 b9 3e 10 c4 64 3e 9e bf 14 be
       0.1112658 0.36260748 0.22340417 -0.14526221
0003b0 75 86 34 bc 0a f0 96 be 67 7f f5 bd 86 03 7a 3d
       -0.011018385 -0.2948001 -0.11987191 0.061038516
0003c0 6a 4a 82 bd 25 27 50 3e 44 2d 70 3d bc e4 a2 3d
       -0.063618496 0.20327432 0.05863692 0.07953784
0003d0 da be 0e 3e 49 90 39 be 86 10 e9 3d 76 58 85 be
       0.13939992 -0.18121447 0.11380105 -0.26044053
0003e0 b3 6c dd 3c 9c c9 9b bd 4c 5a 40 bd d6 bf 83 3e
       0.02702937 -0.07606813 -0.046961114 0.25732297
0003f0 3e dc a1 3e 8d 84 95 bb cb 37 44 be db 45 79 bd
       0.31613344 -0.0045629204 -0.19161908 -0.060857635

cnn.0.bias f4 [16]
000000 63 d4 4d 3d 78 07 b8 bb 64 46 4c be b2 90 30 bc
       0.050251376 -0.0056161247 -0.19948727 -0.010776686
000010 db e3 6e 3e 60 59 c1 3d cd 2e cc 3c 40 2a 98 bd
       0.23329107 0.09440875 0.02492466 -0.074299335
000020 b2 ce 62 be 01 34 b1 be f6 cc eb bc 52 6d 20 be
       -0.2214916 -0.34609988 -0.028784256 -0.15666702
000030 c2 b6 63 be 57 6a 1c 3e a3 1b 68 bd fc ae d3 bd
       -0.22237685 0.1527494 -0.05666698 -0.1033611

cnn.1.weight f4 [16]
000000 17 c6 94 3f 14 56 1c 3f 91 be 8f 3f 0b c5 7b 3f
       1.1622952 0.61068845 1.1230031 0.9834754
000010 71 7b 27 3f 69 27 18 3f 0c 3f 86 3f fa 4c 8f 3f
       0.6542273 0.59435135 1.048799 1.1195366
000020 90 2d 12 3f 92 9b 25 3f 2c 13 a3 3f 97 60 77 3f
       0.5710077 0.64690506 1.2740226 0.9663176
000030 8c 8c 8c 3f 30 8d 34 3f aa c5 53 3f cf 53 87 3f
       1.0980392 0.70527935 0.82723486 1.0572451

cnn.1.bias f4 [16]
000000 16 2b 09 be ab 88 e7 be 05 95 e6 bc 1f be 89 bc
       -0.13395342 -0.45221457 -0.02814723 -0.01681429
000010 0a 68 dc bd 9c 01 6c 3c 0f e7 39 bd 67 62 54 3b
       -0.107620314 0.014404681 -0.04538637 0.0032407285
000020 a6 50 0c 3f 38 63 31 3e d2 76 fd bd 06 81 51 3a
       0.5481056 0.17323005 -0.12376179 0.0007991943
000030 2f 53 79 bd 90 ec 14 3f f1 77 4d 3f 81 61 4c bd
       -0.060870346 0.58173466 0.8026114 -0.049897674

cnn.1.running_mean f4 [16]
000000 cd 43 16 3d 39 cb 8b 3d ba 73 4a be 7e 28 0b ba
       0.036685754 0.06825871 -0.19770709 -0.0005308463
000010 36 e3 78 3e aa 81 25 3e 44 5d ac 3c 28 86 5c bd
       0.24305424 0.16162744 0.021040566 -0.05383888
000020 6c e8 5a be bd 64 a7 be 0f 44 48 bd da f0 22 be
       -0.21377724 -0.32694045 -0.04889303 -0.1591219
000030 89 e2 63 be 9c 5b 38 3e 5c c0 bf bd 67 25 c1 bd
       -0.22254385 0.18003696 -0.093628615 -0.09430962

cnn.1.running_var f4 [16]
000000 f5 fa 11 3e 3c ae 48 3e b6 55 07 3e 5d 16 14 3e
       0.14255889 0.19597715 0.1321629 0.14461656
000010 45 2e 38 3d f8 d8 84 3e f9 57 03 3e c4 f9 c7 3d
       0.044966 0.25946784 0.12826528 0.09764436
000020 f6 07 8d 3d 61 db 17 3d ef 2a 41 3e 0e 47 cf 3d
       0.06886284 0.03707445 0.18864034 0.101209745
000030 1c 32 9a 3d c8 38 6b 3d bd 79 ce 3d 06 97 ff 3d
       0.07529089 0.057427198 0.100818135 0.12479977

cnn.4.weight f4 [32, 16, 3, 3]
000000 1d 65 fa bd 12 80 67 3a 11 a5 99 bd 90 2c c8 bd
       -0.12226317 0.00088310346 -0.07502187 -0.097741246
000010 17 78 26 3d 9e d4 94 ba 2d 3f fa bd 42 8f f7 bb
       0.04064187 -0.0011354869 -0.12219081 -0.0075549195
000020 c9 c7 02 bd 3c 45 00 3e ec 5a 1d be 70 d7 05 3e
       -0.03192881 0.12526411 -0.15366715 0.13070464
000030 88 11 68 3d fc cb da bd 2b 7e 75 3d bd 45 b5 3d
       0.056657344 -0.10683438 0.059934776 0.08851192
000040 46 0c 44 3c d4 df a2 3d 16 39 8d 3d 94 c7 97 3c
       0.011965817 0.07952848 0.06895654 0.018527783
000050 18 f5 14 3c a9 7a 50 bd af df 32 3d 98 1d 20 3e
       0.009091638 -0.050898228 0.043670353 0.15636289
000060 99 f1 1e 3d 69 66 63 3d 50 07 7a 3d 06 64 ca bd
       0.038804624 0.055517588 0.06104213 -0.09882359
000070 ca df df bc 5b e8 8f bd 16 63 fc bd 4d b9 42 bd
       -0.02732839 -0.0702674 -0.12323587 -0.047539998
000080 8d 7b 8f bd f2 bd f2 bd 33 9c 1d be 78 f5 fa bc
       -0.07005987 -0.118526354 -0.15391617 -0.030634627
000090 14 3b 4e bd 18 a3 a9 b9 ca 0f ed bc 8b eb f6 bc
       -0.05034931 -0.00032355706 -0.028938193 -0.030141613
0000a0 43 80 38 3b c8 92 26 3d 6e aa 67 bd 21 50 55 bd
       0.0028152622 0.040667325 -0.05655902 -0.05207837
0000b0 23 ef 97 3d e9 5b a6 bd 23 cb 88 bd b6 03 a4 bc
       0.074186586 -0.08122999 -0.0667937 -0.0200213
0000c0 ea 18 c8 bc 55 91 01 be b6 e3 1e 3d 64 b6 75 3e
       -0.024425942 -0.12653096 0.03879138 0.23995358
0000d0 9a 40 b9 bc 2d 9f 7c 3d e6 18 26 3d ce c8 25 3e
       -0.022613812 0.06167524 0.04055109 0.16189882
0000e0 0b 66 c2 3d 0d a3 50 bd e7 4a 8a 3d 78 d3 56 3d
       0.094921194 -0.050936747 0.06752568 0.052447766
0000f0 e3 44 50 bd 81 05 26 3d 31 d3 32 3c b5 c2 0f 3d
       -0.050846945 0.040532593 0.01091461 0.035097796
000100 b3 57 eb bd 83 aa 11 3d 20 e2 e1 bc 21 83 02 bf
       -0.11491337 0.035563003 -0.027573645 -0.50981337
000110 1f 49 22 3d 08 77 a1 be 51 fe d0 be 71 bb 12 bc
       0.039620515 -0.31536126 -0.40819028 -0.008955822
000120 08 93 de 3d 19 9f 5f bd f4 86 36 bd 6a ac 21 bd
       0.10867888 -0.054595087 -0.044562295 -0.039471067
000130 d9 d4 4d be cb 8b 8a bd b3 40 ae 3d b7 51 12 be
       -0.20100726 -0.06764945 0.08508434 -0.14288984
000140 75 84 07 3c 17 d9 4f bd cb 2f 02 bd a4 d8 c3 bb
       0.008271326 -0.050744142 -0.03178386 -0.0059767533
000150 ca 67 1a be 30 9a 14 be 7a ad 54 bd 53 36 72 3c
       -0.15078655 -0.14511943 -0.051923253 0.01478346
000160 75 84 37 be a7 8b 8e bd 42 81 87 bd 8c ad ac bd
       -0.17921622 -0.0696023 -0.06616451 -0.08431539
000170 ca 3b a6 3c 9f 54 44 be bc 5a 34 bf fa 80 81 bd
       0.020292182 -0.19172905 -0.7045095 -0.063234285
000180 86 c7 04 be 90 e5 07 bf 31 e8 dd 3c 88 6f ce 3d
       -0.12966737 -0.5308466 0.027088257 0.10079867
000190 bf dc d0 bc 96 05 18 3e e2 eb 18 3d 92 b1 fb bd
       -0.025495885 0.14845881 0.03733433 -0.12289728
0001a0 95 2f d0 3d ee 99 43 bd 95 78 33 3d 68 6f b1 3d
       0.101653256 -0.04775422 0.043816168 0.08663827
0001b0 75 ea 9c bd eb 2e 7e be f3 d5 00 3e df 8a eb bd
       -0.07661907 -0.24822585 0.12581615 -0.11501097
0001c0 54 07 2c bf b6 bc 83 bd 0e a6 3a bd ab 24 87 be
       -0.6719868 -0.06432478 -0.04556852 -0.26395163
0001d0 b8 6d 9f bd 23 7c 03 3e 4a 36 3f 3d e4 06 b6 3d
       -0.07784599 0.12840323 0.046682633 0.08888033
0001e0 fc 20 df 3c 95 93 16 3e 50 9e 40 3e de a9 b9 bc
       0.027237408 0.14704736 0.18810391 -0.022664007
0001f0 06 53 0a 3e 8e 0f df 3d 52 b4 9d bd 40 ff 00 3e
       0.13508233 0.10891639 -0.07700409 0.1259737
000200 72 95 c2 3d b6 8c 20 be a7 98 11 3e 70 2e d1 3d
       0.09501161 -0.15678677 0.14218388 0.102139354
000210 fa f9 dd bc 24 3e 02 3e 4d 45 84 3d fe 13 05 3e
       -0.027096737 0.12719017 0.064585306 0.12995908
000220 07 ad e3 3d 1b 7d 03 3e fb d9 96 3d 1c ac 3a 3d
       0.11116987 0.12840693 0.07365795 0.045574293
000230 03 d9 86 3d a1 0a cd 3c 39 ad 77 bc 69 08 55 3d
       0.065843605 0.025029482 -0.015116983 0.052009974
000240 71 58 e2 bd ae c9 79 3e 31 03 d2 3d 44 1a e2 3c
       -0.11052025 0.24393341 0.10254515 0.027600415
000250 0c 96 25 3e 86 fb 8f 3d 69 1e 38 3d 30 c0 e6 bd
       0.1617052 0.07030396 0.044950876 -0.112671256
000260 50 32 65 bd a2 8e c9 3d 89 50 47 be b5 db 94 bd
       -0.055956185 0.09841658 -0.19464315 -0.07268468
000270 ba 4b 4d 3d c3 d7 9f be 75 3f 8d 3d b2 37 38 bd
       0.050121047 -0.312193 0.06896869 -0.04497499
000280 14 ab b7 bd 6c cb 33 3e 30 b7 c1 3d a6 86 85 be
       -0.089681774 0.17558068 0.09458768 -0.2607929
000290 f3 5d b1 3b 9e be 65 bd 67 91 d7 bc c1 03 87 3d
       0.005412811 -0.05608999 -0.02631445 0.06592513
0002a0 7f c7 51 3d 29 c4 49 3d 59 56 41 3c 2f 49 aa bd
       0.051215645 0.04925934 0.011800372 -0.0831474
0002b0 82 78 25 3c e0 41 7d 3e 40 09 17 be d2 cf 7f 3e
       0.010099532 0.2473216 -0.14749622 0.24981621
0002c0 8b 8a 8b 3d 18 d3 dc bd 31 54 7e 3e c9 68 d5 bc
       0.06813534 -0.107824504 0.24836804 -0.026050942
0002d0 ea 02 1b be c9 cf d0 3d 00 73 0a 3e d8 14 bd 3a
       -0.1513783 0.10195882 0.13520432 0.0014425768
0002e0 27 60 06 3e 32 ac ab 3d 0d d9 5e 3d 60 aa 06 3e
       0.13122617 0.08382453 0.054406215 0.1315093
0002f0 c1 76 63 bd 7b 5d 88 3d 4f a3 e2 bc 77 0b aa bd
       -0.055533174 0.06658455 -0.027665762 -0.08302968
000300 ac ca fd bd a7 8e 57 be fd 9e 4c 3d 8f 75 2c bd
       -0.12392172 -0.21050511 0.04995631 -0.0421043
000310 c3 35 a4 bc 43 00 87 3e a0 26 93 3d 8c 2c 4f 3e
       -0.020045167 0.26367387 0.071851015 0.20231837
000320 84 55 cf 3d 62 77 a4 3c 05 87 f7 3c 0d db 74 be
       0.10123733 0.020076457 0.03021575 -0.23911686
000330 98 0b 8f 39 78 cc 31 be ab aa e3 bc a2 a0 49 3d
       0.00027283723 -0.17363155 -0.027791342 0.049225457
000340 2c 42 14 be 9f 3a a1 bc 84 5b 0c 3d 57 4f d8 3c
       -0.14478368 -0.019681273 0.034266964 0.02640502
000350 1f 18 41 3d 4e 0f 82 bd d2 a8 c4 3d 80 f8 0e be
       0.047142144 -0.063505754 0.096025124 -0.13961983
000360 82 2f 8d bd 51 35 86 3e 69 5f b5 bd 22 29 81 3d
       -0.06893827 0.26212552 -0.08856089 0.063066736
000370 a9 ed 25 3d 4c 79 7f bd 7e 82 2b 3d 27 92 2c be
       0.040509854 -0.062371537 0.041872494 -0.16852628
000380 21 51 fe 3d 8e 18 65 bd 19 2e 56 3e 6f 92 8b 3d
       0.12417818 -0.05593162 0.20916022 0.06815039
000390 96 9e af 3d a8 8a b5 bd ea a3 dd 3d 55 be db bc
       0.0857517 -0.08864337 0.1082228 -0.026824156
0003a0 46 fa f6 bb 9d 0e e3 bd 9b 54 eb bb 71 de d2 3d
       -0.007537159 -0.11086772 -0.0071817166 0.102963336
0003b0 86 77 4e be a4 f3 16 3e 7e db e8 bb fa 3a 9c be
       -0.20162782 0.14741379 -0.0071062436 -0.30513746
0003c0 7b b3 5f 3d f9 0b 97 be 57 44 fd bd 91 d7 97 3d
       0.054614525 -0.29501322 -0.123665504 0.07414163
0003d0 8b cf 36 be f6 ed 24 be c1 e0 29 3d 4a ba df be
       -0.17852609 -0.161064 0.041474108 -0.43696815
0003e0 83 7a 55 bd 59 17 29 bc 26 c8 fe 3b 12 6a d1 3d
       -0.05211879 -0.010320508 0.0077753244 0.102253094
0003f0 f2 ff 23 bd 28 3f fa bd 5b 1f 3c 3d ef 71 30 bc
       -0.04003901 -0.12219077 0.04592834 -0.010769351

cnn.4.bias f4 [32]
000000 4a ab c9 3d e6 20 03 3d f3 32 59 bd 51 40 61 bd
       0.09847124 0.032013796 -0.053027105 -0.054992978
000010 2c 92 ed 3c 5d ce 8e 3d c3 3e d4 bd e5 65 8b bd
       0.029000364 0.069729544 -0.10363533 -0.06806544
000020 b4 e2 ba bc ba 62 e6 3d 41 82 c6 3d 1f 76 46 bd
       -0.022813179 0.11249299 0.09692813 -0.048452493
000030 4d 41 13 3e 5c a1 a0 bd 1b 3f 87 3b 2d 86 64 3d
       0.14380379 -0.07843277 0.004127396 0.055792022
000040 0a 16 2a bb 24 c5 da bc 36 a2 20 be 8c cb f6 bd
       -0.0025953078 -0.026705332 -0.15686879 -0.12050542
000050 07 4d 06 3d d3 fe 7d bc 23 e8 d4 3b 50 fe b7 bd
       0.032788303 -0.015502649 0.0064973994 -0.08984053
000060 cc c4 94 3d 8a 55 9d bd 3a cb e1 3c ab 35 0c bd
       0.072640985 -0.07682331 0.027562726 -0.03423087
000070 60 66 b2 3d b7 63 67 bd ae 20 e4 bd c9 26 75 3d
       0.08710933 -0.05649158 -0.11139046 0.05985144

cnn.5.weight f4 [32]
000000 42 38 7f 3f 0e 96 68 3f 49 45 82 3f a6 5e 82 3f
       0.9969522 0.90853965 1.0177394 1.0185134
000010 28 61 6e 3f d1 f3 4e 3f 6d 30 3a 3f 63 41 7b 3f
       0.93117 0.80840784 0.7273014 0.9814665
000020 89 c0 79 3f be 2b 50 3f 08 40 84 3f 43 cc 69 3f
       0.9755941 0.81316745 1.0332041 0.91327304
000030 3a e6 55 3f b1 8f 73 3f f5 82 77 3f ba 59 81 3f
       0.8355442 0.9514113 0.966842 1.0105507
000040 f9 12 86 3f df 31 8c 3f 38 61 30 3f be 2e 72 3f
       1.047454 1.095272 0.68898344 0.9460257
000050 ea a0 63 3f 2e 47 7f 3f df 0d 5a 3f 09 c4 4e 3f
       0.8891741 0.99717987 0.85177416 0.80767876
000060 73 65 5a 3f 2a 47 81 3f 91 5e 77 3f cf 41 7a 3f
       0.8531105 1.0099843 0.9662867 0.97756666
000070 e9 cb 84 3f 78 31 8a 3f 41 c6 83 3f 05 23 86 3f
       1.0374728 1.0796347 1.0294877 1.0479437

cnn.5.bias f4 [32]
000000 35 5c cf be ae 47 7d be bb 39 ce be 4d 10 97 be
       -0.40500036 -0.24734375 -0.4027842 -0.29504624
000010 55 5d 67 be 73 ea d7 3d 67 71 1b be 3e 7a df be
       -0.22594197 0.105427645 -0.15179978 -0.4364795
000020 1a 32 a1 be 5e 47 11 be d3 ec 27 3c 85 8d b9 be
       -0.31483537 -0.1418738 0.010249334 -0.36240783
000030 c4 ef 8f be 62 fd 95 be 62 3e cd be ed 57 ce 3d
       -0.28112614 -0.29294878 -0.40086657 0.10075364
000040 2c 38 f7 be f7 e8 bf bd c2 a5 22 be e2 0e 9f be
       -0.48285043 -0.093706064 -0.15883544 -0.31066042
000050 f7 e3 ab be 47 da bf be 0c 7d 89 be 52 d6 1a be
       -0.3357236 -0.3747122 -0.26853216 -0.15120819
000060 82 9d 00 3e 42 4b a7 be 11 9c a9 be 77 68 c3 be
       0.12560084 -0.32674605 -0.33126882 -0.38165638
000070 55 df a3 be 91 0b b7 be 50 1a 99 be 4d 98 c2 be
       -0.32006326 -0.35751012 -0.29902887 -0.3800682

cnn.5.running_mean f4 [32]
000000 10 23 c6 bf ae cc 6c bf aa 2f 97 bf 03 31 18 bf
       -1.547945 -0.92499816 -1.1811421 -0.59449786
000010 9f bb c9 bf cf b7 b1 bb cf 7a 99 bf ea e7 12 c0
       -1.5760382 -0.005423523 -1.1990603 -2.295405
000020 88 5c bf bf be d2 b6 be 1c fd 7d 3e a0 1e 0f bf
       -1.4950113 -0.3570766 0.24803585 -0.55906105
000030 1a 00 51 bf 26 cc c5 bf 5d 2c a9 bf 8c ca 52 bf
       -0.8164078 -1.5452926 -1.3216664 -0.8234031
000040 f5 b8 bf bf fe 73 9b 3d 7b e2 11 be 8a f0 97 bf
       -1.497832 0.07590483 -0.14246552 -1.1870282
000050 e7 8b b2 bf 7c 28 0a bf b3 78 ff bf 3a 2f fa bf
       -1.3948945 -0.53968024 -1.995871 -1.9545662
000060 05 55 d3 3e c1 5b 9e bd 64 ad 4c bf 15 01 8a bf
       0.41275802 -0.077323444 -0.79952073 -1.078158
000070 56 9d df bf 3a f4 9f be 88 39 98 bf 11 90 82 bf
       -1.746989 -0.31241018 -1.1892557 -1.0200216

cnn.5.running_var f4 [32]
000000 73 ee b1 40 20 be e5 3f ee 8c 81 40 ef 8e a5 3f
       5.5603576 1.7948647 4.0484533 1.2934245
000010 14 c1 25 40 e0 e1 de 3f 96 c6 77 40 83 e0 c1 40
       2.5899096 1.7412682 3.8714957 6.058656
000020 77 22 49 40 15 4e c5 3f 55 e1 db 3f fb 00 9c 40
       3.1427286 1.5414454 1.7178141 4.8751197
000030 9c 5d 52 40 f8 ce a3 40 f8 48 93 40 ea c7 58 40
       3.2869635 5.1190147 4.6026573 3.3872018
000040 1d 83 7a 40 94 d9 c6 3f 6b 6b c3 3f c4 b4 80 40
       3.9142525 1.553515 1.5267156 4.022066
000050 ee 9a 9e 40 db 4b 7c 40 57 3b b6 40 27 0e 0b 41
       4.9564123 3.9421299 5.6947436 8.690955
000060 0e eb 9d 3f c3 5f 12 40 76 40 26 40 9a 36 44 40
       1.2337358 2.2870948 2.5976844 3.0658326
000070 22 a0 96 40 73 f2 83 40 ee 51 5e 40 a2 cd cb 40
       4.7070475 4.123346 3.4737506 6.3688517

cnn.8.weight f4 [48, 32, 3, 3]
000000 24 d0 83 be 17 34 82 be 46 2c 9d 3e 36 aa f4 3a
       -0.25744736 -0.25430366 0.3069784 0.001866645
000010 4a b6 b9 bd ea 8d f4 3d 68 7c d0 bc bc e7 a7 bd
       -0.09067972 0.119411305 -0.025449947 -0.08198497
000020 20 8b ee 3d 54 b4 29 be b2 8c 25 be 1d cb cb 3c
       0.1164763 -0.16572696 -0.16166952 0.024877125
000030 47 9c 65 bc a5 c6 b6 bd ff 13 97 3d 18 19 56 3d
       -0.01401431 -0.08924607 0.07376861 0.052270025
000040 99 ee 79 bb bc bb 7b bd 28 97 c1 bd 08 2f 26 3e
       -0.00381366 -0.061458334 -0.09452659 0.16228878
000050 20 60 a3 3d 4a 2e 76 bc 74 07 82 3e db cf 26 3e
       0.07977319 -0.015025685 0.2539631 0.16290228
000060 13 09 66 be 23 a2 b1 ba e6 45 36 3e 0f 06 0c be
       -0.22464399 -0.0013552349 0.17800102 -0.13674186
000070 38 3b a4 bc fd cd 55 3e 98 d6 56 bd 92 4c 7a 3d
       -0.020047769 0.2087936 -0.052450746 0.06110818
000080 27 63 11 3e 0e 45 59 bd 03 98 00 3e ad 72 1d 3e
       0.1419798 -0.05304437 0.12557988 0.15375777
000090 6d 7e 28 bc 32 ca 4d bd 7a cf 7f 3e 3d 49 f6 bd
       -0.0102840485 -0.050241657 0.2498149 -0.12025688
0000a0 fd f2 a1 bd bb 2f 80 3e 7c 1b 47 3c bf a3 2e bd
       -0.079076745 0.25036415 0.012152549 -0.04263663
0000b0 26 e2 31 3e 67 53 bc bc 2b f4 25 3d 6a b1 b9 bc
       0.17371425 -0.022988988 0.04051606 -0.022667605
0000c0 a3 d0 45 bd 2f 69 a6 bd 19 9f 3f bd bc 8e 0f 3e
       -0.048294675 -0.08125531 -0.046782587 0.14019293
0000d0 98 e8 a0 3c bc ae d5 bc 16 d7 55 3d 66 50 1d be
       0.01964216 -0.026084296 0.052207075 -0.15362701
0000e0 ab 82 e9 bd cc 9a 53 3c 39 77 41 be df a6 9c bd
       -0.11401876 0.012915324 -0.18893136 -0.07649016
0000f0 f6 a9 25 3e 6c 09 88 be f5 8f ec bb b3 61 a8 3d
       0.16178116 -0.26569688 -0.0072193095 0.0822176
000100 94 d6 33 3d 2a c0 c4 bd 45 23 ed 3d 1a 6e 64 be
       0.04390581 -0.09606965 0.11578993 -0.22307625
000110 f6 c0 a5 be 08 c0 1e 3e 08 c0 92 bd 87 a9 64 bd
       -0.3237378 0.15502942 -0.07165533 -0.055825736
000120 6b 6c 05 be 07 7e 8b be 51 64 68 be a6 a1 40 3c
       -0.1302964 -0.2724459 -0.22694518 0.01175729
000130 1f d4 1d be 43 dc 29 be 05 4a d1 3d b1 12 44 3e
       -0.15412949 -0.1658793 0.10219196 0.19147755
000140 48 ee bf 3d 31 cb 94 bd 4a cd 7a be bb 39 f6 bc
       0.093716204 -0.07265318 -0.24492374 -0.030056825
000150 6f 9d 58 3d 15 ef 35 bd 92 ed 07 3b 92 70 8d 3d
       0.052884515 -0.04441746 0.0020740968 0.06906237
000160 02 cf bd 3d 9f c6 05 bd ff 23 ce bd 04 3c bd 3c
       0.09267999 -0.032660123 -0.100654595 0.023099907
000170 12 44 c0 bc ac ca 55 bd 0b 5d 4a bd 5c 88 28 bd
       -0.023469958 -0.052195236 -0.04940514 -0.041145667
000180 56 ac 2c 3e a8 c2 5b 3d 25 40 81 be 96 a3 48 bc
       0.16862616 0.053652436 -0.2524425 -0.012246033
000190 01 53 df 3d b0 de 11 3e 65 be 11 be c2 8a 29 bc
       0.109045036 0.14245105 -0.14232786 -0.010348024
0001a0 ee 7a ae bc d2 ee 23 bd d5 8f 7c bd 0a fc 29 bd
       -0.021298852 -0.04002268 -0.061660606 -0.04150013
0001b0 84 90 41 3e ac fa 83 3c dd 19 9b be a9 d9 49 be
       0.18902785 0.01611074 -0.3029317 -0.19711937
0001c0 e8 73 0f bd f0 f7 0b 3e 54 a5 80 bd ff 09 c0 bd
       -0.035022646 0.136688 -0.06281534 -0.093769066
0001d0 6a a6 cc 3b 64 8c 00 be a0 db 9c 3d 5b ad 90 3e
       0.006245424 -0.12553555 0.07659078 0.2825726
0001e0 66 30 08 bc ae 48 14 be f4 3f 8c 3d ba 2f 55 bd
       -0.00831232 -0.1448085 0.068481356 -0.05204747
0001f0 29 ce 84 bd ea 2b bb 3d 48 e8 01 be 02 8b 86 bd
       -0.064846344 0.09139235 -0.12686265 -0.065694824
000200 4c f8 e9 3c fb a9 39 be 72 9e df bc e9 19 9f 3d
       0.02856078 -0.18131249 -0.027297232 0.07768614
000210 ca e3 1a be 4b 90 11 3d a3 11 83 bb 26 47 02 be
       -0.15125957 0.035538 -0.003999905 -0.12722453
000220 a6 99 e4 3d 05 b2 2d 3e 44 31 56 be b2 49 77 bd
       0.111621186 0.1696244 -0.20917231 -0.060373016
000230 56 e8 9b 3d f3 e2 56 3c 15 bc 6a bc d0 63 d5 3c
       0.07612674 0.013115632 -0.014327069 0.02604857
000240 ca 1e 67 bd 1f f3 28 3e c8 0f 29 3d 33 6f 03 bd
       -0.056425847 0.16498993 0.041274816 -0.03208847
000250 df d5 94 3c df 2a 56 3d 86 6d 0f be 4d d3 68 3d
       0.018168388 0.05228698 -0.14006624 0.056842137
000260 5d 58 b2 3d 26 b2 eb 3c 78 b2 a7 be fb 54 86 bc
       0.0870826 0.028771471 -0.32753348 -0.016397944
000270 e3 51 2c 3d 42 57 c3 be 0e 52 99 bd 78 da d3 ba
       0.04207028 -0.3815251 -0.07486354 -0.0016163131
000280 33 e7 ad be ba b5 1e bd 2c 96 c9 3a 61 a4 9e bd
       -0.33965454 -0.038747527 0.0015379838 -0.077461965
000290 97 62 49 3e 17 18 2a bc 08 a9 ae bd fe 50 c6 3d
       0.19666515 -0.01038172 -0.08528334 0.09683417
0002a0 cd a7 09 be ca 22 56 3d e7 ca 3e 3e b7 93 95 3d
       -0.13442917 0.05227927 0.18632089 0.07303565
0002b0 82 31 bc 3d 96 24 49 bd 07 77 0e 3e 08 9c a8 3d
       0.0918913 -0.049107157 0.13912593 0.082328856
0002c0 01 44 19 be d3 80 b5 3d 3a e6 4a 3d a5 67 af bd
       -0.14967348 0.08862462 0.049535967 -0.085646905
0002d0 2b 02 07 be 5d 86 e9 bc 39 75 01 3e 2c a9 6e be
       -0.13184421 -0.028506452 0.12642373 -0.23306721
0002e0 90 eb 9d bd e1 cc 69 3e 5f 3e 3f be 7b 8d 31 bd
       -0.077109456 0.22832061 -0.18676136 -0.043347817
0002f0 fe 75 95 3d 57 27 80 be cb b5 18 be 2d bc 05 3e
       0.07297896 -0.25030014 -0.14913099 0.13060065
000300 c3 93 77 bd 15 e5 be 3d fe 96 af 3d 91 74 10 be
       -0.06044365 0.09321038 0.08573721 -0.14106967
000310 19 65 da bc 00 d5 5d 3e 62 4c e7 3d c4 4f 93 3d
       -0.026659535 0.21663284 0.11293866 0.071929485
000320 08 55 af bd 5b 74 c8 bc 64 85 e4 3c 15 3f 19 be
       -0.0856114 -0.024469545 0.027895637 -0.1496547
000330 78 0b 3c 3c a4 cf df 3d ab 4c 46 3d 74 51 74 bd
       0.011477344 0.10928276 0.04841296 -0.059647992
000340 73 90 e1 bd 80 86 6d bc 0d 26 76 be ad 52 81 bd
       -0.110138796 -0.014497399 -0.24037953 -0.06314597
000350 2a 12 16 bd 8f 26 4e 3e 54 84 f4 3b 36 b0 74 bd
       -0.036638416 0.20131896 0.007462064 -0.05973836
000360 d7 3d b8 bd 1e 25 9f 3d 95 21 0a 3e 5c 6e 45 be
       -0.0899617 0.077707514 0.13489373 -0.1928038
000370 e0 72 9c bd 5c 9f a4 3d b9 6e 50 be 96 ab 47 bd
       -0.07639098 0.08038208 -0.20354737 -0.04874762
000380 7f ac b7 3d c6 9d 99 bd 79 51 30 be d9 5d ba be
       0.08968448 -0.07500796 -0.1721858 -0.36399725
000390 35 9c a7 bd 33 00 10 be 3b 3c 81 3d 5e f0 c4 bc
       -0.08184091 -0.14062576 0.06310316 -0.024040397
0003a0 2c 5d 95 be 81 6a 5f bd 53 84 fc bd 6b 2d ba 3d
       -0.29172647 -0.05454493 -0.12329926 0.09090694
0003b0 16 0b dd 3d 5a 0a 53 be a5 95 e8 bd 35 b9 3c 3d
       0.1079313 -0.20609418 -0.113566674 0.046075065
0003c0 1d 75 02 be d6 4b bb bd 49 96 e8 bd 53 f2 51 3e
       -0.12739988 -0.09145324 -0.113567896 0.20502596
0003d0 e0 c4 6d 3d 6c cf 6a 3d dd fd 75 3d 37 1f 9d bd
       0.058049083 0.05732672 0.060056556 -0.076719694
0003e0 27 a3 ec bb 25 34 0c bd 47 3c 4d bd 88 d4 c1 bb
       -0.0072215977 -0.034229416 -0.050106313 -0.0059152283
0003f0 69 a0 80 bc 81 e9 fe bd ce d5 9a bb 65 a5 f5 bd
       -0.01570149 -0.12446881 -0.0047251945 -0.11994437

cnn.8.bias f4 [48]
000000 ab 8b 9b bd 8a 11 36 bd 87 aa ab bd 34 58 02 bc
       -0.07594999 -0.04445032 -0.08382135 -0.0079556
000010 b7 a4 45 3d 76 84 ca 3c 8e db bc 3c 95 8f 00 bd
       0.048252787 0.024721365 0.02305391 -0.03138693
000020 79 a5 d1 bd 53 e9 72 bd 02 54 75 bd 03 5b 53 bd
       -0.102366395 -0.059304547 -0.05989457 -0.051600467
000030 36 db 16 3d 4c 59 e0 bd dd e8 ca 3c aa 15 59 bd
       0.03683015 -0.10954532 0.024769241 -0.052999176
000040 8f 2e 20 be 7e 9a 73 bd c9 d5 61 bc 5e 8b f8 3d
       -0.1564276 -0.059473507 -0.0137838805 0.12135957
000050 f0 c1 ef 3d 17 bd 52 3d 54 ea b9 bd 19 56 5f 3c
       0.117069125 0.05144986 -0.09077898 0.013631367
000060 3b 8b a9 3c 9c ff 06 be 0e f3 98 3d d5 05 73 bd
       0.020696273 -0.13183445 0.07468234 -0.059331734
000070 47 03 eb 3d 84 b9 08 3b c5 01 af 3d 7b 90 0b 3e
       0.114752345 0.002086253 0.085452594 0.13629334
000080 ed 4c 9b bd 56 a4 85 bc e6 c3 16 bc f3 d7 8d bc
       -0.07583032 -0.016313713 -0.009201979 -0.017314887
000090 86 85 0c 3d d1 e1 85 bd 7c b0 0e bd 98 63 e1 bd
       0.034307025 -0.06537212 -0.034836277 -0.11005324
0000a0 a4 6b 1c bd 52 3a 0c 3d db 9e a7 bd 4c 93 9a 3d
       -0.03818859 0.034235306 -0.08184596 0.07547626
0000b0 8d 42 d5 3d fd 9d 0f 3d fe 04 96 bd 29 4b ff bc
       0.10413084 0.03506278 -0.07325171 -0.031163769

cnn.9.weight f4 [48]
000000 87 c9 85 3f b3 22 6a 3f 94 92 60 3f 72 93 6f 3f
       1.0452126 0.91459197 0.8772366 0.9358436
000010 31 c9 51 3f 19 fc 81 3f 0b 15 6b 3f 64 70 68 3f
       0.8194762 1.0155059 0.91828984 0.90796494
000020 21 32 72 3f 01 7a 57 3f ed 35 60 3f 26 3a 60 3f
       0.9460774 0.8417054 0.87582284 0.8758873
000030 16 a6 89 3f 36 13 72 3f 03 84 5c 3f 07 c7 5b 3f
       1.075381 0.94560564 0.86138934 0.85850567
000040 6a a2 90 3f a6 39 80 3f 31 74 4f 3f 4e 48 4e 3f
       1.1299565 1.0017593 0.8103667 0.8057908
000050 d7 ca 4c 3f 9c 7a 7b 3f df 02 7d 3f a8 e8 5b 3f
       0.7999701 0.9823396 0.98832506 0.8590188
000060 b6 77 86 3f 43 fc 7b 3f 05 77 6a 3f bb 0d 64 3f
       1.0505283 0.98431796 0.9158786 0.8908345
000070 0e 23 5c 3f c1 bb 5a 3f 7d 6e 61 3f 2d 1e 8b 3f
       0.8599099 0.8544274 0.88059217 1.0868584
000080 b4 db 67 3f 2c c1 62 3f 8a f0 79 3f cb ea 5a 3f
       0.90569615 0.88576007 0.9763266 0.85514516
000090 23 c0 41 3f d1 4a 76 3f a8 f9 4a 3f 80 46 5c 3f
       0.756838 0.9620791 0.79287195 0.86045074
0000a0 b7 dd 50 3f 56 26 7a 3f d3 2f 69 3f 09 45 4e 3f
       0.8158831 0.97714746 0.910886 0.8057409
0000b0 70 20 70 3f f5 35 50 3f 1d 61 63 3f 09 6c 59 3f
       0.93799496 0.8133233 0.8882006 0.84930474

cnn.9.bias f4 [48]
000000 c9 91 e1 be e0 64 00 bf d0 63 fb be 9f a0 bd be
       -0.44056538 -0.50153923 -0.49099588 -0.37036607
000010 3a 12 ad be 21 bf 71 be 24 db a5 be e8 61 de be
       -0.33802968 -0.23608066 -0.32393754 -0.43434072
000020 36 12 dd be c8 f6 0b bf f2 d9 eb be 9d 9f fa be
       -0.43177956 -0.54673433 -0.46064717 -0.489499
000030 be cb 24 bf ae e1 d7 be 56 7f f1 be 2b b0 da be
       -0.64373386 -0.42164367 -0.47167462 -0.4271253
000040 26 05 db be 68 12 9a be 50 a4 85 be 69 e7 cd be
       -0.42777365 -0.30092168 -0.26101923 -0.40215614
000050 0b e6 b0 be cc b4 a7 be f9 dd 03 bf 1e 04 b5 be
       -0.3455051 -0.32755125 -0.5151058 -0.35354704
000060 2c 64 00 bf 04 92 09 bf 73 c7 09 bf b4 41 d7 be
       -0.5015285 -0.5373843 -0.5381996 -0.42042315
000070 30 94 e2 be 88 8e e4 be 5f db 10 bf 57 8d 2a bf
       -0.44253683 -0.44639993 -0.56584734 -0.6662192
000080 38 8b a4 be ec 54 a3 be a6 e8 00 bf 0e b4 85 be
       -0.32137465 -0.31900728 -0.50354993 -0.26113933
000090 a3 dd 6d be 59 a9 0a bf eb b6 cb be 14 c1 9e be
       -0.23229079 -0.54164654 -0.39787993 -0.31006682
0000a0 96 b3 81 be 06 25 ee be a0 bf f6 be fb 03 d4 be
       -0.25332326 -0.46512622 -0.48193073 -0.41409287
0000b0 e8 7b e6 be 99 71 9b be e4 2f 20 bf dc ab fb be
       -0.45016408 -0.30360106 -0.62573075 -0.49154556

cnn.9.running_mean f4 [48]
000000 00 64 c2 bf 58 e7 e3 bf 6d f7 7a bf b1 c8 71 bf
       -1.5186768 -1.7804976 -0.9803379 -0.94446856
000010 24 02 d8 bf 2c e1 1d bf 2d be 84 bf 74 37 dd bf
       -1.6875653 -0.6167171 -1.0370537 -1.7282548
000020 17 cc d8 bf 0c f0 a5 bf 99 02 06 c0 ac e9 03 c0
       -1.6937283 -1.2963881 -2.0939085 -2.0611372
000030 4c 96 50 bf 30 06 98 bf 69 2e cc bf e2 3b dd bf
       -0.81479335 -1.1876888 -1.5951663 -1.72839
000040 f1 54 b3 bf 1f a3 10 c0 16 90 a2 be 5e 4a 31 bf
       -1.4010297 -2.2599561 -0.31750554 -0.692541
000050 7c 0b 8c bf 2f e8 73 bf 3c a3 90 bf fc 1e c1 bf
       -1.0941005 -0.9527616 -1.1299815 -1.5087581
000060 76 d7 f3 bf 43 61 d7 bf b7 51 93 bf 0e ee 73 bf
       -1.9050128 -1.6826557 -1.1509312 -0.9528512
000070 c2 f1 da be 70 01 53 bf 76 f7 b9 bf ca 06 23 bf
       -0.42762572 -0.8242407 -1.4528644 -0.63682234
000080 9b 46 b8 bf fe d6 ce bf cd 45 ca bf 80 c6 59 bf
       -1.4396547 -1.615936 -1.5802552 -0.8506851
000090 a3 d7 79 3e 33 df f6 bf 6c f6 b8 bf 09 74 ef be
       0.24398665 -1.9286865 -1.4450202 -0.46768215
0000a0 9d 4c 6e bf c2 44 56 bf 5d a5 82 bf f5 3c 8c bf
       -0.9308565 -0.83698666 -1.0206715 -1.0956103
0000b0 d0 9b c6 bf be b4 2e bf 40 4b a5 bf 10 d7 4e bf
       -1.55163 -0.6824454 -1.291359 -0.8079691

cnn.9.running_var f4 [48]
000000 24 a6 31 40 c8 88 e7 3f 26 8e fe 3f 3d 99 04 40
       2.7757654 1.8088617 1.988713 2.071853
000010 88 10 c5 3f 9d 16 15 40 9d f5 ff 3f 27 39 bb 3f
       1.539567 2.3295052 1.999683 1.4626817
000020 78 10 bf 3f f1 bc b3 3f 68 56 ca 3f 67 24 0d 40
       1.4926901 1.4042035 1.5807619 2.2053468
000030 a7 ab a5 3f 44 e2 a9 3f 92 a0 fd 3f cd 9a 00 40
       1.2943009 1.3272176 1.9814627 2.0094483
000040 cb f3 d9 3f e1 99 02 40 76 17 b8 3f 6b 7e ea 3f
       1.7027525 2.040642 1.438216 1.831983
000050 d9 0e d5 3f 9d 21 10 40 1b 81 e1 3f e6 25 ea 3f
       1.6645156 2.2520516 1.7617525 1.8292816
000060 18 5a 3d 40 f0 42 00 40 63 3d f9 3f d4 b6 fd 3f
       2.958624 2.0040855 1.9471859 1.982142
000070 48 56 c0 3f a6 09 b9 3f c5 bb e2 3f d3 47 fc 3f
       1.5026331 1.445607 1.7713553 1.9709419
000080 85 fa ce 3f 8d a7 28 40 b2 84 ce 3f df 0a cb 3f
       1.6170202 2.6352265 1.6134245 1.5862693
000090 06 b4 b6 3f a2 e5 08 40 6f e5 ab 3f 9f 05 b6 3f
       1.4273689 2.1390157 1.3429393 1.4220465
0000a0 82 60 e6 3f 84 ad d7 3f 92 fe b1 3f b9 68 bf 3f
       1.7998202 1.6849828 1.3905814 1.4953834
0000b0 d1 06 07 40 4a 97 a9 3f 90 de e0 3f a8 1d a2 3f
       2.109791 1.3249295 1.7567921 1.26653

cnn.12.weight f4 [64, 48, 3, 3]
000000 4b 51 0c 3e c1 79 76 3d ce 47 28 be 46 c3 6e 3d
       0.13702886 0.060174707 -0.16433641 0.058291696
000010 3b 38 1b bc 0c 5b 16 3e 8e f8 b4 3d 15 b5 37 3e
       -0.009473856 0.14683169 0.088364705 0.17940171
000020 98 d2 5c 3e d0 2f 29 be 1f 9a 80 be 5b 86 a8 3d
       0.2156471 -0.16522145 -0.25117585 0.08228751
000030 cf ca db bc 3a 81 90 bc 91 e8 8a 3e a2 cc 0d be
       -0.026830105 -0.017639745 0.2713056 -0.13847592
000040 1a ba 99 3d 33 eb ae 3e cf 62 10 bc 7e f6 d9 39
       0.07506199 0.34163818 -0.00881262 0.00041573116
000050 a8 ca cc 3d 71 7a df 3d b1 10 b4 bb 09 66 41 3d
       0.09999591 0.10912026 -0.005495154 0.04721645
000060 a8 6f ad 3d 33 cd b0 3d 27 81 b6 bd ec f1 0e 3c
       0.08468562 0.08632889 -0.089113526 0.008724671
000070 9b 10 62 bc 1b d7 4a 3d 7b 17 eb bd b3 e4 8d 3c
       -0.013797904 0.049521547 -0.11479088 0.017320966
000080 ad c5 35 3c 16 51 51 bd bb fd ed 3c 58 f8 9c 3c
       0.011094493 -0.05110272 0.029051652 0.019161388
000090 9f 9a bf 3a e3 a7 7d 3d 97 b0 7d 3d 56 e3 9f bc
       0.0014618224 0.061927687 0.061935987 -0.019517582
0000a0 f1 76 a8 ba 25 0e 01 bc f8 4b 23 3d 77 70 3e bd
       -0.001285283 -0.0078769075 0.03986737 -0.046493974
0000b0 0f ec a9 bd 60 dd 65 3e 62 01 9f 3c 58 4d 90 3a
       -0.08296978 0.22447729 0.019409839 0.0011009378
0000c0 a4 0e 89 3d 7e e0 e4 bb 15 d8 6d 3e 70 2e 23 3d
       0.066922456 -0.0069847694 0.2322696 0.039839208
0000d0 0c e2 03 3d c4 4f 34 bd eb fc 4d 3c 92 39 93 bd
       0.032197997 -0.044021383 0.012572507 -0.07188715
0000e0 d8 84 0d 3e f0 00 89 3e fc 51 ca 3d 60 75 2d bc
       0.13820207 0.26758528 0.098789185 -0.010587066
0000f0 f1 bf d0 bd da 1e c7 3c 29 3b 4c bd 32 c6 3e 3e
       -0.1019286 0.024306703 -0.049861107 0.18630293
000100 47 65 83 3d 77 29 64 be 11 12 9f bd fc 35 47 3e
       0.064158015 -0.22281443 -0.07767118 0.19454187
000110 80 e5 85 3e e1 63 41 bd cb 3b 64 bc d9 80 ed 3d
       0.26151657 -0.047214393 -0.013930271 0.11596841
000120 99 fd cc bc 4c ec 8b bd b2 d8 4d bd a8 bb ee bc
       -0.025023269 -0.068321794 -0.050255485 -0.029142216
000130 b0 fa 0a be 1a 29 09 be 37 f0 df bd 49 39 4e bd
       -0.13572192 -0.13394585 -0.10934489 -0.0503476
000140 96 c7 1f 3e e1 d9 22 3d d2 5b 87 bd 9f 87 60 be
       0.1560348 0.039758567 -0.0660931 -0.21926735
000150 df ce 96 3d 63 f1 04 3e 15 8a 81 3e ac 35 c3 3b
       0.07363676 0.12982707 0.2530066 0.005957326
000160 e1 fb a4 bd 30 5f 28 3e 15 ee 1f bd 5f 8c 60 bd
       -0.080558546 0.16442561 -0.039045412 -0.05482137
000170 20 31 81 3d a8 ef 5d 3e 22 2e 95 bc e6 55 a4 bd
       0.06308198 0.21673453 -0.018210474 -0.08024196
000180 c7 cd 12 be 31 3a 7e bc 04 e6 86 3c 98 31 ab 3d
       -0.1433631 -0.015516804 0.016467102 0.08359069
000190 7e 67 85 bc 8d f0 50 3e 79 2d 8f bd 47 3a 00 be
       -0.0162847 0.20404263 -0.06991095 -0.12522231
0001a0 e4 08 df bd 8d e8 ac 3d a4 b6 97 bd aa 92 a0 3c
       -0.108903676 0.08442793 -0.07407883 0.019601185
0001b0 c3 3a b8 bd f5 59 dd bd 4f 4d 73 be b8 1e 40 bd
       -0.08995583 -0.108081736 -0.2375996 -0.046904296
0001c0 2b 4e de 3d 6d 25 dc 3d fa 7c 04 3e 9d 33 37 3e
       0.10854753 0.10749326 0.129383 0.17890783
0001d0 87 c3 b8 3e 05 c2 17 3d 08 24 ac ba fe d9 59 bd
       0.36086676 0.037050266 -0.0013133297 -0.05318641
0001e0 1b 11 40 be 75 8f ac bd 41 7f 23 3e 73 b5 25 be
       -0.18756525 -0.084258 0.15966512 -0.16182499
0001f0 b0 8b 54 3d b7 70 7a 3e e4 87 e7 bc 1a cc 1c be
       0.05189103 0.2445706 -0.02826304 -0.15312234
000200 69 d1 03 be 2d cb 61 bd cf 06 48 3d 98 b8 18 3e
       -0.12872852 -0.055125404 0.04883462 0.14914167
000210 a3 26 1d 3c 77 bf 3c 3d 87 2f 5e 3b 8b d3 57 be
       0.009591731 0.046081033 0.003390284 -0.21076791
000220 c2 81 bb bd c6 23 19 be d8 49 eb bd f5 70 3e 3d
       -0.09155609 -0.14955053 -0.11488694 0.046494443
000230 b0 f7 b1 3c 93 ec 17 be 5e 37 f7 3c 1b f4 c6 3b
       0.021724552 -0.1483634 0.030177768 0.00607158
000240 8e fc 1e 3d ba e9 7a 3d a0 d5 a6 bd 16 0d c3 3d
       0.038815074 0.061258055 -0.081462145 0.0952398
000250 a1 ab 0f 3e 47 96 83 be a6 3a c1 bd 4a 54 40 3e
       0.14030315 -0.2570059 -0.094350144 0.18782154
000260 d1 23 a2 3d b3 db 0e be cc 00 74 bd 23 9b 4c 3d
       0.07916988 -0.13950996 -0.059571072 0.049952637
000270 46 4f 19 3e 7b af ee 3c 2b c8 07 bd 56 dc b6 3d
       0.14971647 0.02913641 -0.03314988 0.089287445
000280 58 74 ea bd 07 66 20 be ce 60 96 bc a0 31 43 be
       -0.11447972 -0.1566392 -0.018356707 -0.19061899
000290 db ae 57 be b1 6c 29 be b9 b6 26 be ba e1 8d bb
       -0.21062796 -0.16545369 -0.1628064 -0.004329887
0002a0 d2 c8 81 3d be 08 c0 bd 55 77 3c bd a2 2b c7 bd
       0.063371316 -0.093766674 -0.04601224 -0.09725119
0002b0 92 23 e6 bd a8 60 64 bd cd 63 1b bd ea f9 b2 bd
       -0.11237253 -0.05575624 -0.037936974 -0.087390736
0002c0 c9 ed 90 bc 9f 4a 83 bd 6e e9 37 3c e6 a6 19 3e
       -0.01769151 -0.06410717 0.011225088 0.15005073
0002d0 96 e8 8f 3d a7 dc 7e be 1d e0 eb bd 0c c2 1a 3c
       0.07026784 -0.2488886 -0.115173556 0.009445678
0002e0 a1 73 93 3d 20 43 82 bc f0 f5 5f bd 98 df 31 be
       0.07199789 -0.015901148 -0.054677904 -0.1737045
0002f0 20 6a 95 bd 65 f9 19 3d 67 ad bb bd 23 a8 2b bd
       -0.07295632 0.037591357 -0.09163933 -0.041908395
000300 57 79 a3 3d 3a a8 b0 3d a0 50 89 3d 08 6f 06 bd
       0.07982128 0.08625837 0.06704831 -0.03282073
000310 b7 97 03 bc 61 77 2c 3e 80 a6 a1 3d 20 9b 27 3e
       -0.008031777 0.16842414 0.078930855 0.16367769
000320 c2 92 04 3e e1 a4 79 3d 55 9d 0a be 14 1d 7d be
       0.12946609 0.060948256 -0.1353658 -0.24718124
000330 a6 21 d5 bd 52 82 a7 be ae fb dc be 10 10 10 3e
       -0.104068086 -0.32716614 -0.43160766 0.14068627
000340 6e e1 36 3d 0f 06 e1 3c e3 61 c1 ba 16 11 fa 3d
       0.04464858 0.02746871 -0.0014753904 0.1221029
000350 b3 c9 d9 3d 36 22 a5 bd d1 68 c3 bd 6d f5 63 3d
       0.10634174 -0.08063166 -0.095414765 0.05565398
000360 64 ba 83 3c 1c e3 93 3d e6 21 93 3e 42 83 3a be
       0.016080089 0.07221052 0.287368 -0.18214133
000370 89 bf 13 be 36 d5 2a be 3c 4b 8c bd 98 e9 ee 3d
       -0.14428534 -0.16682896 -0.06850287 0.11665648
000380 ea 4c 13 3e e1 4a 10 bd d3 36 90 3d a4 75 c5 3d
       0.14384809 -0.03522766 0.07041707 0.09641579
000390 ba 36 0c 3d d4 0d 04 bd d8 3e 2e bb 20 30 15 3e
       0.03423188 -0.03223975 -0.002658775 0.1456914
0003a0 53 4f 03 3e 2f e7 19 3e f2 8d 4b 3e b4 b6 f0 3d
       0.12823229 0.15029596 0.19878367 0.11753598
0003b0 45 d0 91 3e f9 de 23 3e fa aa bb 3c bb 58 80 bd
       0.2847921 0.16003026 0.022908676 -0.06266924
0003c0 e4 25 a7 bd 98 17 14 be 56 62 0c 3e 3a 03 c9 bc
       -0.08161524 -0.14462125 0.13709387 -0.024537671
0003d0 c8 33 da 3d b0 22 bc 3d 9e 47 ed bd 35 49 32 be
       0.10654408 0.091863036 -0.115859255 -0.17410739
0003e0 f6 69 58 3d c7 df e6 3c f6 8e 0e 3e 13 c4 ce 3d
       0.052835427 0.028182877 0.13921723 0.10095992
0003f0 13 68 60 3d 18 28 27 3d 07 92 9d 3d 47 fb a4 3d
       0.054786753 0.04080972 0.07693868 0.0805574

cnn.12.bias f4 [64]
000000 0d 61 69 3b 76 8e f6 bc ea 57 96 bc 4b 8c d3 3c
       0.0035610825 -0.030097228 -0.018352468 0.025823733
000010 61 59 d7 bd 4d 32 98 3d ce 70 d2 3b f3 08 5d bd
       -0.105150945 0.07431469 0.006422139 -0.053963613
000020 c6 8a be 3a 02 93 b9 bb 9c df da 3c 17 98 b1 3c
       0.0014537207 -0.0056632767 0.026717953 0.021678967
000030 92 9b 2e 3d 47 6d 15 bd 11 37 56 bb 8a 51 a1 3c
       0.042628832 -0.036481168 -0.003268663 0.019692201
000040 08 71 77 bd 3c 92 b9 39 2c 8c f0 bb 55 48 c0 3d
       -0.06041053 0.00035394903 -0.0073409285 0.09388796
000050 78 4b 16 3c 1b 19 b4 3c 9a 00 89 3c 53 2e 21 3d
       0.009173267 0.021984627 0.01672392 0.03935082
000060 fb 2f fd 3a c9 bf 84 bd a4 73 b8 bc 70 37 0c 3d
       0.0019316667 -0.064818926 -0.02251608 0.034232557
000070 7b 77 6d 3d 66 e5 03 bc f2 83 6c bc db d2 a4 3d
       0.057975274 -0.008050298 -0.014435755 0.0804803
000080 35 ed 75 bd 5d f7 25 3c 8a d8 8a bc 9b c5 33 3d
       -0.06004067 0.010129777 -0.016948957 0.043889623
000090 ca 70 05 3d c7 40 27 bd 1b 23 73 bd 1f e3 45 3b
       0.032578267 -0.04083326 -0.05935965 0.003019519
0000a0 e3 a7 84 3c 0f 71 93 bb 52 51 06 3c f4 f9 b9 bc
       0.016193336 -0.0044995616 0.008198099 -0.022702195
0000b0 03 e4 8b bc 40 6c 81 bc 3e d7 b0 3d 8e 80 0c be
       -0.017076498 -0.015798688 0.08634804 -0.13720915
0000c0 98 9a b3 bb 9d 4c 1b bd 42 83 23 bd 7a b5 9c bc
       -0.0054810755 -0.03791486 -0.0399201 -0.019129504
0000d0 d2 16 8a ba 25 5f c8 3c 6c a5 a4 3d 75 d9 7e bd
       -0.0010535365 0.024459431 0.08039364 -0.062219102
0000e0 b8 e6 5b bd e5 30 1f 3d cc b3 5a 3d 99 5a 86 3d
       -0.053686827 0.03886499 0.053394124 0.06560249
0000f0 40 c8 cd 3c dd ee d6 bd ec f5 82 bb dd 71 b6 bc
       0.0251199 -0.10494778 -0.0039966013 -0.022271091

cnn.13.weight f4 [64]
000000 74 d7 53 3f 41 14 71 3f 9b 28 6f 3f 4f 6b 6a 3f
       0.8275063 0.9417153 0.93421334 0.9156999
000010 48 ff 43 3f f1 f1 49 3f d9 78 45 3f 66 40 4a 3f
       0.76561403 0.788848 0.77137524 0.79004514
000020 2a 0e 4a 3f 1a 6e 52 3f 7e ac 6d 3f a6 1a 59 3f
       0.7892786 0.8219925 0.9284133 0.8480629
000030 20 19 58 3f 20 4f 6b 3f 04 2e 7a 3f d6 7e 4a 3f
       0.8441334 0.9191761 0.97726464 0.79099786
000040 08 c9 4a 3f 5b 38 4a 3f c7 ab 63 3f 25 0d 68 3f
       0.79213 0.7899224 0.88933986 0.90645057
000050 2e 57 6b 3f 88 2d 66 3f ee 96 5e 3f 1e 5a 5a 3f
       0.919299 0.89913225 0.8694905 0.8529376
000060 24 dc 56 3f dd e5 80 3f d4 4c 4f 3f 81 6b 64 3f
       0.8392966 1.0070149 0.80976605 0.8922654
000070 c6 ff 70 3f dc 68 61 3f 0f cc 7b 3f db 8a 5a 3f
       0.9414028 0.8805063 0.98358244 0.85368127
000080 a7 28 5f 3f 75 14 48 3f a9 fa 4a 3f f7 9e 5a 3f
       0.87171406 0.78156215 0.7928873 0.8539881
000090 91 79 5e 3f 76 db 65 3f 28 61 5d 3f 3b 50 64 3f
       0.86904246 0.89787996 0.86476374 0.8918492
0000a0 1c fe 64 3f 1b 8e 45 3f 64 a1 58 3f c6 8a 46 3f
       0.8945024 0.7716996 0.8462126 0.775555
0000b0 27 81 5b 3f e7 82 5d 3f ab af 76 3f c6 35 5a 3f
       0.85743946 0.86527866 0.963618 0.852383
0000c0 84 96 66 3f 45 69 52 3f 63 cf 52 3f fd 4a 73 3f
       0.9007342 0.8219188 0.82347697 0.950363
0000d0 2c 06 53 3f 08 3b 61 3f b0 cf 68 3f 8c 2d 71 3f
       0.8243129 0.879807 0.90941906 0.94210124
0000e0 c0 f1 6b 3f 73 4f 64 3f 27 a1 81 3f dc 00 5c 3f
       0.92165756 0.8918373 1.0127305 0.8593881
0000f0 79 da 5b 3f b4 bc 5a 3f 35 5c 5a 3f 35 23 72 3f
       0.8588024 0.8544419 0.85296947 0.9458497

cnn.13.bias f4 [64]
000000 c3 57 5e be ea 71 a8 be fc a5 8e be d2 9d 91 be
       -0.21713166 -0.3289941 -0.2786101 -0.2844072
000010 17 76 94 be f5 fa ca be 1a d9 8a be c3 9a 87 be
       -0.28996345 -0.3964459 -0.2711876 -0.2648526
000020 7a 60 bb be 0e 4b a5 be 85 30 b5 be e1 8f 53 be
       -0.36597043 -0.32283825 -0.3538858 -0.20660354
000030 ea 02 8d be 16 6a 9f be 28 5a 56 be 9a 2f 8a be
       -0.27541286 -0.31135625 -0.2093283 -0.26989442
000040 00 03 69 be 01 ce 93 be fc 14 97 be 76 e2 7d be
       -0.2275505 -0.28868106 -0.29508197 -0.24793419
000050 32 8b 80 be ad 4a 38 be 7c bd 55 be a3 3b 6d be
       -0.25106198 -0.17997237 -0.20873064 -0.23167281
000060 80 e6 a3 be b9 47 81 be 52 c6 44 be fe 44 88 be
       -0.32011795 -0.25250033 -0.19216278 -0.26615137
000070 fe b4 23 be bf 26 51 be 00 77 92 be 33 eb 8d be
       -0.15987012 -0.20424937 -0.28606415 -0.27718505
000080 c5 c9 2a be fa 24 bc be 98 08 b0 be 0e c2 30 be
       -0.16678531 -0.3674696 -0.34381557 -0.17261526
000090 17 ea b0 be d9 57 86 be 99 c2 3d be 5c aa 8b be
       -0.34553596 -0.26238897 -0.18531264 -0.2727841
0000a0 1c 90 a7 be c1 ea a7 be aa 89 92 be 1f da 8e be
       -0.32727134 -0.3279629 -0.28620654 -0.27900788
0000b0 f0 be b6 be be f7 65 be e4 b3 0c be 15 6e 06 be
       -0.3569255 -0.22457787 -0.13740498 -0.1312793
0000c0 a2 04 82 be 23 cd a1 be 42 ba bf be bc 5e 3d be
       -0.2539416 -0.3160182 -0.3744679 -0.1849317
0000d0 5b c6 2b be 95 bc 55 be 62 24 85 be cb 87 45 be
       -0.16774885 -0.2087272 -0.2600432 -0.19290082
0000e0 c9 8a 92 be 9e 5e 86 be 31 be 86 be 28 71 75 be
       -0.2862151 -0.26244062 -0.2631698 -0.23968947
0000f0 27 fe 50 be dd 80 ae be a1 f4 96 be 43 5e bb be
       -0.20409451 -0.3408269 -0.29483512 -0.36595353

cnn.13.running_mean f4 [64]
000000 8e 82 17 bf ec 50 d8 bf 3c ab a1 bf 69 16 6b bf
       -0.59183586 -1.6899695 -1.2630382 -0.9183107
000010 64 49 38 bf bd c8 fc be 15 81 3a bf 3c ea ba bf
       -0.71986985 -0.493719 -0.72853214 -1.4602733
000020 0b c1 a7 bf 7c 67 75 bf b8 43 90 bf 54 56 d6 3e
       -1.3105787 -0.9586103 -1.1270666 0.41862738
000030 36 eb 5e bf 9b 84 59 bf b7 e3 a1 bf dc 0c 39 bf
       -0.87077653 -0.84967965 -1.2647618 -0.72285247
000040 5c 19 d0 bf fc ce 95 bf 5d 8c 65 bf 8e 16 7e bf
       -1.6257739 -1.1703792 -0.896673 -0.99253166
000050 86 a2 66 bf 77 1d 2f bf 43 87 ac bf c0 15 90 bf
       -0.9009174 -0.68404335 -1.3478779 -1.1256638
000060 14 40 8f bf 35 0d cb bf 1e 5e 87 bf 17 af 99 bf
       -1.119143 -1.5863405 -1.0575597 -1.2006558
000070 fb 76 85 bf 2e 96 dc bf 1a d2 a3 bf 1b 89 aa bf
       -1.0426935 -1.7233331 -1.2798493 -1.3323091
000080 61 99 ab bf f5 68 71 bf 11 9f c9 bf dc 93 18 be
       -1.3406183 -0.94300777 -1.5751668 -0.14900154
000090 96 60 7a bf 15 71 d7 bf a6 d4 9d bf a6 ea 2a be
       -0.9780363 -1.6831385 -1.233052 -0.16691074
0000a0 3d 55 11 c0 20 6e 52 bf c7 8a 99 bf 65 00 5b bf
       -2.2708275 -0.8219929 -1.1995476 -0.85547477
0000b0 d5 ea b7 bf d2 2a 8e bf 93 e9 04 c0 fc da 06 c0
       -1.436854 -1.1106818 -2.0767562 -2.1071157
0000c0 fe bc 85 bf 9d 5d 79 bf d9 97 19 be e5 44 cf bf
       -1.0448301 -0.9740847 -0.14999332 -1.61929
0000d0 4f f0 05 c0 f5 69 2d bf 8c 30 3d bf 8f a3 bb bf
       -2.0927923 -0.677398 -0.739022 -1.4659289
0000e0 bd 44 99 bf 16 8b ce bf bd c4 51 bf 04 aa 2a c0
       -1.1974102 -1.6136196 -0.81940824 -2.666627
0000f0 27 4b 97 bf 20 81 cb bf 93 a8 b0 be 60 5b 9b bf
       -1.181981 -1.5898781 -0.34503612 -1.213726

cnn.13.running_var f4 [64]
000000 2a 59 c6 3f b1 db db 3f d5 24 f6 3f d9 fa af 3f
       1.5495961 1.717642 1.922999 1.3748428
000010 be f7 cb 3f 2b 56 99 3f 5c b5 a0 3f 0a 66 bd 3f
       1.593498 1.1979421 1.2555346 1.4796765
000020 92 f2 de 3f d3 49 e5 3f 5e 76 e2 3f 4d 7d a5 3f
       1.7417777 1.7913154 1.7692373 1.2928864
000030 fe 67 96 3f 31 c4 d8 3f d9 ad 13 40 a5 90 d3 3f
       1.1750486 1.6934873 2.3074858 1.6528517
000040 ba 8c 05 40 e4 4a de 3f 36 9a ca 3f fb 4c e5 3f
       2.0867143 1.7366605 1.5828311 1.7914118
000050 d6 af 0a 40 c5 58 05 40 e0 19 21 40 b7 7f d9 3f
       2.1669822 2.083543 2.5172043 1.69921
000060 e0 a9 b5 3f 23 d1 06 40 e4 6b b8 3f 43 66 ff 3f
       1.4192467 2.1065147 1.4407926 1.9953083
000070 46 25 f6 3f 49 1c c4 3f 50 31 f5 3f 27 04 ee 3f
       1.9230125 1.5321132 1.9155674 1.8595017
000080 85 da 08 40 bd 2c e5 3f 93 a5 14 40 13 7f fa 3f
       2.1383374 1.7904278 2.3226058 1.957003
000090 33 fc cb 3f 03 63 1d 40 5e 74 01 40 a4 ab 91 3f
       1.593634 2.4591682 2.0227275 1.1380506
0000a0 71 82 36 40 67 2d c9 3f 0d d2 af 3f bc e3 fc 3f
       2.8517115 1.5716981 1.3735977 1.9756999
0000b0 8d 14 ce 3f 7c 98 a4 3f 85 c1 00 40 6c e9 06 40
       1.6100022 1.2859035 2.0118115 2.107997
0000c0 43 a8 fb 3f 22 13 a5 3f b9 66 8f 3f 9a f1 e5 3f
       1.9660724 1.2896464 1.1203223 1.7964356
0000d0 5d 05 f9 3f 20 4c bb 3f b1 bb d5 3f bf c8 1b 40
       1.9454762 1.4632607 1.6697904 2.4341276
0000e0 c8 03 0f 40 f4 7a d6 3f 4e 78 2b 40 b3 66 04 40
       2.2346058 1.6756272 2.6792178 2.0687683
0000f0 83 1c 00 40 ac 6b b0 3f f6 ab df 3f 1c 71 ca 3f
       2.0017402 1.3782859 1.7474353 1.5815768
