models/model_epoch80.pth (torch, 957119 bytes, 61 tensors)

cnn.0.weight f4 [16, 3, 3, 3]
000000 70 2c f3 bd 8d 19 00 bd 47 85 2f bd df 1d 3c be
       -0.1187371 -0.031274367 -0.042851713 -0.1837077
000010 9c de 2a bd bc bb 56 3e 7a f3 71 bc 9b 76 5a 3e
       -0.041716203 0.20970052 -0.014767522 0.21334307
000020 aa c7 7c 3c b4 4f 54 be be 35 aa be e0 bb b6 3d
       0.015428463 -0.2073353 -0.33244127 0.08922553
000030 b9 8b 92 be dc 32 bb bd 91 32 82 3e d3 2e 9c bc
       -0.28622225 -0.0914056 0.25429204 -0.019065296
000040 4c 98 63 3e 2a 6e c2 3e e6 ee 7e be 17 58 8f be
       0.22226065 0.37974674 -0.2489582 -0.27996895
000050 4a 48 cc 3d 75 83 a7 3c e7 7f cc bd 3b be 7f 3e
       0.099747255 0.020448426 -0.09985333 0.24974911
000060 50 19 b6 bd 37 49 8a 3d 09 42 84 3e 12 23 85 be
       -0.08891547 0.06752246 0.2583163 -0.2600332
000070 b1 af 20 bc d9 88 56 3e 2f e7 91 bc 4a de 42 bd
       -0.009807513 0.2095064 -0.017810432 -0.047575273
000080 07 b5 ad 3d 04 32 59 3e 7f ff 1b 3c 33 7d 94 be
       0.08481794 0.21210486 0.009521364 -0.2900177
000090 12 b0 d6 be a4 a2 6e 3e a7 1d 7a 3e 1a e9 90 bd
       -0.41931206 0.2330423 0.24425374 -0.070757106
0000a0 b8 22 a6 be b1 92 19 bd 06 fd 5b 3e 4b 35 a7 bd
       -0.32448363 -0.03749341 0.2148324 -0.08164462
0000b0 f3 40 90 be b8 57 77 be cb ab db 3d 5e 7a c9 3d
       -0.28174552 -0.24154556 0.10726126 0.09837793
0000c0 83 40 a3 bd 8c bf 5d be d4 31 9a 3d dd 2c 98 3e
       -0.07971289 -0.216551 0.07529035 0.29721728
0000d0 26 21 62 3d a8 5d 4c be 7a a6 4a 3e 84 28 99 bc
       0.055207394 -0.19957602 0.19790068 -0.018696077
0000e0 4f 59 27 be b4 e9 cc bd c8 4c 97 3d c1 59 a0 bd
       -0.16342662 -0.10005513 0.07387692 -0.07829619
0000f0 2c 64 a1 3d d2 7f 61 3e 16 f2 71 be 7c 99 50 3e
       0.078804344 0.22021416 -0.23627505 0.2037105
000100 08 6a 03 3e 19 11 eb be 98 8e c6 3d d9 c3 12 3e
       0.12833416 -0.45911482 0.09695166 0.14332522
000110 a8 fb d3 bd ac 32 ab 3e b2 2f c7 3c 80 7c ae be
       -0.10350734 0.33437097 0.024314735 -0.3407936
000120 c1 bd a5 3d 3e 7a f5 3d 1a dd 6a be 3e be 24 3e
       0.08092833 0.119862065 -0.22935906 0.16088197
000130 c0 89 12 3e 62 4b 8e be 29 8f 1d 3e 60 bd f5 3d
       0.1431036 -0.27791888 0.15386643 0.11999011
000140 fe 9d 88 be 6e 96 ce 3d 34 f1 99 3e 71 ed 5a be
       -0.26683038 0.10087286 0.30066836 -0.21379639
000150 2b fb f4 3d 4e 3f ca 3d 3f 3b 0b be 05 b0 ae bd
       0.11961969 0.09875356 -0.1359682 -0.08529667
000160 bb 31 ea 3c ff 8d 6c be 59 38 db 3d fc da 98 3e
       0.028588166 -0.23101042 0.10704107 0.29854572
000170 81 5c a2 3c d4 b5 9e 3e d6 5d b5 3c 47 db 87 be
       0.0198195 0.309981 0.022139471 -0.26534483
000180 9c 02 ad 3d 79 80 c3 bd 40 48 e0 be 6e 93 89 bd
       0.08447763 -0.095459886 -0.43805122 -0.06717573
000190 a6 a0 9d 3e 8f 17 8a bc 74 1a 46 3e 0c 8a 34 3e
       0.30786628 -0.016856937 0.19346029 0.17630786
0001a0 79 b2 88 be fc e4 b1 3d 02 dc 1b be 2e 13 85 be
       -0.26698664 0.086862534 -0.15220645 -0.25991195
0001b0 c6 ec 95 3d 62 9d bd bc 00 45 81 bd d2 4b 00 3e
       0.073205516 -0.023146335 -0.06311989 0.12528923
0001c0 aa f8 8c be 1c 12 26 3e 40 4c 0c 3e 36 a4 a3 be
       -0.27533466 0.16217846 0.13700962 -0.3196122
0001d0 9d 3c 0d 3e 1e c9 6a 3e e1 84 80 bd c4 0d 82 bc
       0.13792653 0.22928283 -0.06275345 -0.015875705
0001e0 5f be 84 3e 10 5c 16 be 1c 9f be bd 38 f3 1f 3e
       0.25926492 -0.14683557 -0.093076915 0.15620124
0001f0 2a cb d7 be 11 c4 9b 3d d8 54 a3 3e fd 96 14 be
       -0.4214719 0.07605756 0.31900668 -0.14510722
000200 36 d3 a4 bd fb 24 f8 3d d6 8a 56 be ad fa 01 bc
       -0.08048098 0.121164285 -0.20951399 -0.007933301
000210 ec 0b a1 3c cb 82 82 be 48 cd 61 3e 38 aa c9 3d
       0.019659005 -0.25490412 0.22050965 0.0984692
000220 5f 7d de bc 19 0f 97 bd 22 d2 72 3e 69 74 45 3e
       -0.027159391 -0.073759265 0.23712972 0.19282688
000230 81 9c fd 3d 6e 59 bd bc ba d5 05 3e dc 88 45 be
       0.123833664 -0.023113932 0.13069811 -0.19290489
000240 a5 7c 2b be 70 45 0f be 19 fb 85 bd 28 31 0d 3e
       -0.16746767 -0.13991332 -0.06542034 0.13788283
000250 12 0e c0 3d fc ee 95 be 29 46 07 bf cd 41 22 bc
       0.09377684 -0.29283893 -0.5284143 -0.009903383
000260 05 da 54 be 49 32 83 3e 78 5b 8f 3e 14 ad fb bd
       -0.20786293 0.25624302 0.27999473 -0.122888714
000270 bb cd 2b 3e 3b a6 8f bc 3e ff 13 be 35 fb d3 be
       0.16777699 -0.01753532 -0.14452836 -0.41402593
000280 e9 b3 27 3d 96 d6 1f be c3 ea 20 be c2 77 e3 bb
       0.04094306 -0.15609202 -0.15714554 -0.0069417665
000290 81 cc 11 3e e2 73 c2 3c 8b 5a 4c bd 0a 5d cf 3c
       0.14238168 0.023736898 -0.049891036 0.02531292
0002a0 90 c1 8d be 35 dd cf 3c 9c a3 8e 3e 29 81 bb be
       -0.2768674 0.025374034 0.278592 -0.3662198
0002b0 13 38 52 3e e3 35 86 3e 90 28 b2 be e6 ee 0f 3e
       0.20529203 0.26212987 -0.34796572 0.14055976
0002c0 39 1e 77 3d d9 f5 ac be eb 18 75 3e b2 10 1f 3e
       0.060331557 -0.33781317 0.23935287 0.15533713
0002d0 ac 79 69 be 1d cf fc bb 81 85 7b 3e fd b6 0c be
       -0.2280032 -0.0077151195 0.24562646 -0.1374168
0002e0 15 f5 95 3d 82 54 45 3d 1e bc 63 be 87 07 c1 3d
       0.07322136 0.048176296 -0.2223973 0.09425264
0002f0 9f 94 11 3e 16 1e 2d 3e d3 77 fa 3d 7e be 50 3e
       0.1421685 0.16906008 0.12229886 0.20385167
000300 84 e5 83 be c1 11 01 be 73 ce 8b be da 0c eb 3d
       -0.25761044 -0.12604429 -0.27305946 0.114770606
000310 30 f3 a0 bb dd 2b c5 3d 51 c6 f3 3d 9a 53 68 3e
       -0.0049118027 0.09627507 0.1190306 0.22688141
000320 c0 ba bb 3e 1b 61 da bd ac 5a 97 be b1 bb 7d be
       0.36665916 -0.10663053 -0.29561365 -0.2477863
000330 7b 44 9a bd 3e f2 e6 3d f5 55 ef bd ef 8c 68 3e
       -0.07532593 0.11276673 -0.11686317 0.22710012
000340 d1 0d 08 3e 32 32 3c 3e 7e de 8c be 28 df 68 be
       0.1328652 0.18378523 -0.27513498 -0.22741377
000350 f2 4b 37 be c9 df 51 3d 17 35 92 3d c1 78 13 3c
       -0.17900065 0.05123881 0.07139032 0.009000958
000360 21 b4 e6 ba 97 af 5f bd ba a1 9c 3d bd 1e 90 be
       -0.001760129 -0.054610815 0.076480344 -0.2814845
000370 a0 5c 3f bc 3f 9b 5b 3e c6 e2 a6 bc bf 73 cc 3d
       -0.011679798 0.2144594 -0.020371806 0.09983014
000380 fb 79 65 bd 8f 9a 29 3d 0a dc 3e be 7b 4f 5e be
       -0.056024533 0.041407164 -0.18638626 -0.21710007
000390 9f 60 e8 be 0c 49 95 bd 10 61 23 3d 8c 04 97 bd
       -0.45386216 -0.07289323 0.039887488 -0.07373914
0003a0 7e 25 36 3e c7 75 ca 3e 90 09 91 3e b8 ad 05 bd
       0.1778774 0.39542982 0.28327608 -0.032636374
0003b0 d1 33 84 bd 1c a6 e5 be b1 64 18 be 65 f9 9a bb
       -0.06455196 -0.44853294 -0.1488216 -0.004729437
0003c0 a3 2f 1d be 0d 90 7a 3e 9f 70 a0 3d 39 d2 a5 3d
       -0.15350203 0.24469014 0.07833981 0.080967374
0003d0 ef a0 2e 3e 32 8a 09 be 31 b2 ce 3d 11 c3 ae be
       0.17053579 -0.13431624 0.10092581 -0.341332
0003e0 55 2e 3f bc cc 09 a6 bd e0 23 0c bd d8 0c 83 3e
       -0.011668761 -0.08107337 -0.0342139 0.25595737
0003f0 7b 2b c2 3e 2a 59 07 3d ac fe 52 be 4b 9b 8b bd
       0.37923798 0.033044018 -0.20604962 -0.06816729

cnn.0.bias f4 [16]
000000 04 16 c6 3d 3b 36 34 3d f2 aa 51 be 6a e1 1f 3c
       0.09672168 0.04399703 -0.20475367 0.009758333
000010 ff 6c 8e 3c 30 43 7c 3e ad 83 b6 3d bb b3 87 3d
       0.017385958 0.24635005 0.08911834 0.06626078
000020 f4 c0 34 be 92 4b be be d2 8d 30 bd a5 66 8d be
       -0.17651731 -0.3716703 -0.043104 -0.27617374
000030 39 39 ac be 68 c9 a8 3e e8 27 c9 3c b2 b1 58 be
       -0.33637407 0.3296616 0.024555162 -0.21161535

cnn.1.weight f4 [16]
000000 b7 d7 90 3f 3e 54 22 3f f2 56 8e 3f 31 7e 80 3f
       1.1315831 0.63409793 1.1120284 1.003851
000010 56 5b 24 3f f3 7b f5 3e 14 03 89 3f 9c cf 80 3f
       0.6420187 0.47946128 1.0704064 1.0063357
000020 5e d1 e3 3e de e2 1e 3f 51 b2 a5 3f 1f ca 73 3f
       0.44495672 0.6206492 1.2945043 0.9523029
000030 71 df 8a 3f ba 18 31 3f 15 54 6c 3f 5a 9e 82 3f
       1.0849439 0.69178355 0.923158 1.0204575

cnn.1.bias f4 [16]
000000 31 55 0d be b0 7a 96 be 84 fa 60 bd 99 25 be bc
       -0.13802029 -0.29390478 -0.05492641 -0.023211287
000010 48 80 33 bd fc 3c bc 3e 31 b1 3a bd e9 8c 52 3c
       -0.04382351 0.36765277 -0.04557914 0.012850978
000020 50 76 5e 3f 1c 50 a7 3e cf 33 01 be f8 ee 78 bd
       0.8689928 0.32678306 -0.1261742 -0.060774773
000030 f9 d7 2f bd 5b 42 6b 3f d0 10 b9 3f 2b 4b 45 bd
       -0.042930577 0.91898125 1.4458256 -0.04816739

cnn.1.running_mean f4 [16]
000000 f5 83 a3 3d a5 b5 94 3d dc 67 4e be 69 50 ad 3c
       0.07984153 0.072612084 -0.20156807 0.021156507
000010 0f 04 e5 3c 8a 7e 8b 3e c2 ee a4 3d 47 1b b1 3d
       0.027956037 0.2724498 0.08053352 0.08647781
000020 9c e6 27 be d6 2b b7 be 31 6b 84 bd e5 81 8d be
       -0.16396564 -0.35775632 -0.06465758 -0.27638164
000030 02 4a aa be fb a1 b2 3e a1 95 28 bc 48 24 53 be
       -0.33259588 0.34889206 -0.010289581 -0.20619309

cnn.1.running_var f4 [16]
000000 9b 31 77 3e ea 41 2c 3e 49 00 41 3e 60 bd 5e 3e
       0.24140017 0.16822019 0.18847765 0.21751928
000010 60 50 89 3d fc 14 95 3e ba a2 53 3e c4 4d 1d 3e
       0.067047834 0.29117572 0.20667544 0.15361696
000020 cd ec 3c 3e 49 7d 8a 3d d0 ae a5 3e a3 ba 23 3e
       0.18449707 0.067621775 0.32359934 0.15989165
000030 0a b1 03 3e 84 dc 09 3e 8a 37 81 3e 3b a9 57 3e
       0.12860504 0.13463026 0.25237685 0.2106065

cnn.4.weight f4 [32, 16, 3, 3]
000000 74 3d 06 be ae 4f 41 3d 37 ee bf bc b6 94 13 be
       -0.1310938 0.04719513 -0.02342902 -0.14412197
000010 ee c4 7e bc 55 4b 2b bd cf 8e 44 bd 4f d2 0a bd
       -0.015549881 -0.04181989 -0.047987755 -0.033891972
000020 79 59 2f bd 60 7d 20 3d b4 65 89 be ed 36 76 3d
       -0.042809937 0.039182067 -0.26835406 0.060110975
000030 16 20 6b 3e bc 74 e6 bd 96 3d c8 3d 8c be b3 3d
       0.22961459 -0.11252734 0.097773716 0.08776578
000040 5b 0f f6 3c 42 d5 03 3e f3 10 02 3e 37 ae 02 3e
       0.030036619 0.1287432 0.12701778 0.1276177
000050 a8 30 d0 3d a9 23 31 bb b9 1e 22 3e 66 42 43 3e
       0.101655304 -0.0027029312 0.15832032 0.19068298
000060 ff 68 b5 3c ba 97 a6 3d 3d 10 d3 3d 5e 06 65 bc
       0.022144793 0.08134408 0.103058316 -0.013978569
000070 d8 5a 3e b9 4d 9c 81 bd 50 ed 22 be 45 ca d7 bd
       -0.00018153654 -0.0632864 -0.1591084 -0.10536627
000080 61 7e e3 bd 12 31 31 bd 20 6c 81 be 19 a5 ac bd
       -0.11108089 -0.043259688 -0.25277805 -0.084299274
000090 48 49 9f 3c db 30 e6 3d e0 59 09 bd b9 1e 36 bd
       0.019444123 0.11239787 -0.033532977 -0.044462893
0000a0 41 1f 5f 3b 8c 3f d3 3d d4 57 a4 bc 69 b1 97 bd
       0.0034045728 0.10314855 -0.020061411 -0.07406885
0000b0 d3 d1 78 3d 53 83 99 bd 67 b3 14 be 09 cc 38 bd
       0.06074698 -0.07495751 -0.14521562 -0.045116458
0000c0 29 1a ed 3c 00 7b 12 bd 11 e6 84 3c 5f 40 97 3e
       0.028943138 -0.035761833 0.016222985 0.295413
0000d0 71 bf 77 3d 0d 41 54 bd f9 b2 66 3d e1 c6 43 3e
       0.060485307 -0.05181985 0.056323025 0.19118835
0000e0 ff f4 35 3e 55 ec 4e bd 9f 4e 72 3d ac 5c f6 3d
       0.1776924 -0.050518353 0.05915701 0.120293945
0000f0 8c a4 84 bd df 74 0b 3d 4a a3 48 3d fd d5 c9 3c
       -0.06476697 0.034047004 0.04898385 0.02463817
000100 33 e1 ab bd 36 e0 75 3d 89 9f 10 3d 3b de 2a bf
       -0.08392563 0.060028277 0.035308395 -0.66745347
000110 9a 20 88 3d 9f c4 8d be 48 aa 02 bf 43 a0 1c 3c
       0.06646843 -0.27689072 -0.5104108 0.009559694
000120 51 43 8b 3d 2e 73 23 be ee b6 49 bd 88 80 bd 3b
       0.06799949 -0.15961906 -0.04924672 0.0057831444
000130 21 40 6a be db 43 4b bd e0 76 cf 3d c7 b7 5d be
       -0.22876026 -0.04962526 0.101300955 -0.21652137
000140 f9 20 82 3d 5d d5 93 bc c3 8f 15 bb 70 e0 80 bd
       0.06353945 -0.018046075 -0.0022821284 -0.06292808
000150 0a 46 cf bd 5d 3c 86 be bd 3b d1 bd e7 14 a3 3d
       -0.10120781 -0.2621793 -0.10216472 0.07962971
000160 ca 7f 9d be e7 fe dc bd e2 5d 5c bd 18 c7 2f be
       -0.30761558 -0.10790806 -0.05380047 -0.17165792
000170 b4 64 4e 3d 8a df 43 be 03 ad 7d bf 66 97 84 3d
       0.050389007 -0.19128242 -0.9909212 0.064741895
000180 38 b3 ad bc f0 b3 46 bf fe 8d dd 3d aa f2 2d 3d
       -0.021203622 -0.7761831 0.108180985 0.04246775
000190 fd 52 21 be 15 98 d5 3d 72 3f e0 3d c1 73 67 bd
       -0.15754314 0.10429398 0.10949601 -0.056506876
0001a0 eb ce 44 3e 27 63 9b bd b6 1e 70 3d b4 04 a2 3d
       0.19219558 -0.07587271 0.05862304 0.07911053
0001b0 e8 cb 41 be cb 73 c5 be 50 af 9a 3d f6 37 bd bd
       -0.1892544 -0.38564906 0.075529695 -0.09239189
0001c0 15 db 6b bf c4 ad 0f bd cf 8c 3e 3c 7a 1b 00 bf
       -0.9213117 -0.035077825 0.011630251 -0.50041926
0001d0 73 a4 b5 bd e3 12 45 3e 4d 48 d0 3d 34 b6 dd 3d
       -0.08869257 0.19245486 0.1017004 0.10825768
0001e0 d5 4e ff 3b 03 34 83 3e bb 7b 88 3e 4c 53 fe bd
       0.00779138 0.2562562 0.266569 -0.12418231
0001f0 b2 c0 2e 3e 8c ce 93 3d 5a f4 17 bd 83 19 ef 3d
       0.17065695 0.0721713 -0.037098266 0.11674788
000200 46 cb 1d 3e 0b 2d de bd 94 04 7b 3e 31 67 fb 3d
       0.15409574 -0.10848435 0.24513465 0.122755416
000210 d8 f9 28 bd 70 a1 c6 3d dd f0 51 3d 18 45 e7 3d
       -0.041253895 0.096987605 0.051255096 0.112924755
000220 d5 0b b9 3d df 30 b2 3d 80 d3 16 3e a4 e0 f8 3d
       0.0903546 0.08700728 0.14729118 0.12152222
000230 10 d3 da 3d 7e df 5b bd 15 b8 b4 3c 73 54 e7 3d
       0.10684788 -0.053679936 0.022060433 0.11295404
000240 db 88 dc bd 4e fa 84 3e 5f 9a 08 3e 0c 9c 88 3c
       -0.107682906 0.25972217 0.13340138 0.016675971
000250 df ac 9b 3e 48 0b a6 3d 0c fa a8 3d bc f6 99 bd
       0.30405328 0.081076205 0.08250818 -0.07517764
000260 ec da da bd 18 a7 29 3e 2c df 8a be 24 f7 2c be
       -0.10686287 0.16567647 -0.27123392 -0.16891152
000270 5c 32 0b 3e f6 17 97 be 16 17 b4 3c 3b d5 4b bd
       0.1359343 -0.29510468 0.021983664 -0.0497639
000280 1f 90 1d be 3d b5 8a 3e 74 5b dd 3d 3b db 7c be
       -0.15387009 0.270914 0.10808459 -0.24693005
000290 0b d7 98 3c a5 2e 16 bc 04 80 d4 bd 55 21 8e 3d
       0.018657228 -0.009166394 -0.103759795 0.06939951
0002a0 00 46 51 3d c5 37 f5 3d 61 af 1f bd 4f 72 28 be
       0.051092148 0.11973528 -0.038985614 -0.16449855
0002b0 74 8e f4 3c f7 f3 b5 3e 94 4c dd bd 21 22 be 3e
       0.029853083 0.35537693 -0.10805622 0.37135413
0002c0 ac 65 4a 3d ce 2f e2 bc f5 a3 af 3e 86 5b b6 bd
       0.049413368 -0.027610686 0.34304777 -0.089041755
0002d0 50 57 32 be e8 3b 5f 3d 8e c9 8c 3e 05 d7 8b 3d
       -0.1741612 0.05450049 0.27497524 0.06828121
0002e0 de 18 2e 3e 5b 3f e8 3d c6 f4 c2 3d 50 6e 59 3e
       0.17001674 0.11340209 0.09519343 0.21233487
0002f0 f3 21 ea bd 99 e2 e2 3d 03 8e 79 bc 14 95 34 be
       -0.114322565 0.11078376 -0.015231612 -0.17634994
000300 c6 24 86 bd 2d 97 95 be 53 1c 4a 3e 37 94 85 bd
       -0.06549983 -0.292169 0.19737367 -0.0652241
000310 de ad 95 3c 94 a6 a2 3e fa b5 b7 3d 9f 27 95 3e
       0.018271383 0.31767714 0.08970256 0.2913179
000320 9e 4d c9 3d e4 00 cb 3c 4b 5c 22 3d fa 52 73 be
       0.098292574 0.024780698 0.0396388 -0.23762122
000330 f8 0d b5 3c b9 fd 18 be 49 0e a8 3c cc b2 9f 3d
       0.022101387 -0.14940538 0.020514624 0.07797775
000340 c7 7d 56 be ae 04 07 bd b6 ef 91 bc 8b b2 67 bd
       -0.20946418 -0.032963447 -0.017814498 -0.056566756
000350 8f d3 02 3d 25 c2 2b bc ad c8 44 3d 93 ff 4f be
       0.03194004 -0.010483299 0.04804294 -0.20312338
000360 2a 8b fd bd b7 bd a9 3e 6b ed ff bd 0a a4 63 3d
       -0.12380059 0.33152553 -0.12496456 0.05557636
000370 7b 05 49 bd 71 7f 78 bd c6 4e 6f bc 5b c2 1e be
       -0.049077492 -0.060668413 -0.014606183 -0.15503828
000380 ad dd 35 3e 96 d3 23 be 83 41 62 3e 4a 85 97 3d
       0.17760344 -0.15998682 0.22095303 0.0739847
000390 95 b5 e2 3d 58 48 97 bd 99 8d 0a 3e f4 f8 1c bc
       0.1106979 -0.07386845 0.13530578 -0.009580839
0003a0 4c e6 87 bd 7a 27 ff bd 5c ca 52 bd b2 12 59 3e
       -0.066357225 -0.124587014 -0.051462516 0.21198538
0003b0 da c0 3a be 7c 06 aa 3d 95 e1 6d 3d 41 6a 71 be
       -0.1823763 0.08302018 0.05807646 -0.23575689
0003c0 18 f5 dd 3c 04 b8 ef be 1b 1a 24 bd 6b 51 f4 3c
       0.027094409 -0.4682008 -0.04006396 0.02982398
0003d0 d6 b0 5d be 40 7f 40 be ac 87 9e 3b a1 0d 2d bf
       -0.21649489 -0.18798542 0.0048379507 -0.6759892
0003e0 7b 39 b0 bd 63 03 44 bd b4 e0 67 bd a4 d4 34 3e
       -0.086047135 -0.047854792 -0.056610778 0.17659241
0003f0 b4 83 73 3b 15 2c 81 be 6e 42 f1 3d bc 9d 14 bd
       0.0037157359 -0.25228944 0.117802486 -0.03628324

cnn.4.bias f4 [32]
000000 36 ce 30 3e 60 0e 75 bd 6e bf 44 be a4 6c 09 be
       0.17266163 -0.059828162 -0.1921365 -0.1342035
000010 19 52 36 3e 5a 0c 2c bc b3 c6 04 be 53 a6 0d be
       0.17804755 -0.010500992 -0.12966423 -0.13832979
000020 4b a1 54 bd 29 40 cd 3d 2a 21 2b 3e e9 f6 e9 bd
       -0.051911633 0.10022003 0.1671187 -0.114240475
000030 14 aa 33 3e bf 73 18 be 99 a7 0a be 00 01 aa 3d
       0.17545348 -0.14887904 -0.13540496 0.08300972
000040 db 33 68 3d ea 0d d2 bd 10 47 97 3c 90 c4 91 be
       0.05669008 -0.1025656 0.018466502 -0.28470278
000050 8e 0d a1 3d eb 95 8b bd 73 fd a1 3d c3 c1 d8 bd
       0.078639135 -0.06815704 0.0790967 -0.10583832
000060 bc 08 e5 3d 4e 30 87 3d 10 a4 74 3e 86 51 c9 3c
       0.111833066 0.0660101 0.2389071 0.024575006
000070 ad 64 32 3e f6 50 4c 3d c3 ed 6c bc d9 31 f7 3d
       0.17421217 0.049881898 -0.014460984 0.120700546

cnn.5.weight f4 [32]
000000 b2 77 88 3f 88 46 66 3f b6 6b 7a 3f 89 42 82 3f
       1.0661528 0.8995137 0.97820604 1.0176555
000010 ec d7 6a 3f 00 9f 44 3f 34 3c 43 3f a6 f0 8a 3f
       0.9173572 0.76805115 0.7626374 1.085469
000020 a7 41 74 3f 41 7c 40 3f 28 c7 88 3f 05 70 77 3f
       0.9541268 0.75189596 1.0685778 0.96655303
000030 5d fa 5a 3f 9f 00 7b 3f 92 61 73 3f cd fb 77 3f
       0.85538274 0.9804782 0.95070755 0.9686859
000040 0a d7 87 3f ff 42 8f 3f 0d 15 2c 3f ce 5b 62 3f
       1.06125 1.119232 0.6721962 0.8842133
000050 25 86 64 3f 5a e8 87 3f 19 ba 5d 3f 05 24 41 3f
       0.8926719 1.0617783 0.8661209 0.75445586
000060 89 78 4b 3f ca 0b 85 3f 2e 97 65 3f e3 e9 7f 3f
       0.794808 1.0394223 0.89683807 0.9996626
000070 fb 5c 82 3f 3f 7c 8f 3f 51 23 81 3f 8b 2f 8c 3f
       1.0184625 1.1209792 1.0088903 1.0952009

cnn.5.bias f4 [32]
000000 5b f0 ec be b5 0d 57 be f9 88 c3 be bb 5b cc be
       -0.46277127 -0.21001323 -0.3819044 -0.39913735
000010 35 03 58 be 4b 1b b5 3d ce 41 4b be e9 7e 00 bf
       -0.21094973 0.08843096 -0.19849321 -0.5019365
000020 61 de b3 be f2 4d 07 be 18 fb eb bd 76 fa d1 be
       -0.351306 -0.13213328 -0.11522502 -0.410114
000030 c0 1f ad be fc 12 c2 be f2 5a ce be 52 f1 3c bd
       -0.33813286 -0.3790511 -0.4030376 -0.04612858
000040 d9 44 09 bf 19 b5 ff bd a6 86 44 be b0 57 96 be
       -0.5362068 -0.124857135 -0.1919199 -0.29363775
000050 0e a3 b1 be 09 ee e0 be b4 ad 81 be bb 18 0d be
       -0.34694713 -0.43931606 -0.25327837 -0.13778965
000060 a4 e0 b9 3d e9 fb c8 be ab 7b 8e be 87 39 d4 be
       0.0907605 -0.39254692 -0.27828726 -0.4145014
000070 70 fc ab be 78 a6 be be 07 45 87 be c4 66 b7 be
       -0.33591032 -0.3723638 -0.2641985 -0.3582059

cnn.5.running_mean f4 [32]
000000 59 17 46 bf 62 3c d3 bf b1 d1 74 bf 03 7f 79 bf
       -0.77379376 -1.6502802 -0.95632464 -0.9745943
000010 81 d7 00 c0 c3 5a d2 be 12 8e 96 bf b2 0f 50 c0
       -2.0131533 -0.4108487 -1.1762106 -3.250958
000020 0b c3 2d c0 db 8a 91 bf ca 99 82 3f 34 0f 7b be
       -2.7150295 -1.13705 1.0203183 -0.24517518
000030 9f 4b bd bf 40 92 ba bf 0f e8 df bf 91 27 d9 bd
       -1.4788703 -1.4575882 -1.7492694 -0.1060325
000040 81 71 3b c0 68 31 8c 3e 24 f6 ac 3e 82 2f 7a bf
       -2.9288027 0.27381444 0.3378154 -0.9772874
000050 b5 c3 eb bf de 82 b1 be 19 c9 04 c0 11 9e fd bf
       -1.84191 -0.34670156 -2.074774 -1.9813863
000060 b0 66 3e 3f 32 9f 0d 3f a2 42 34 bf a2 89 89 bf
       0.7437544 0.5532104 -0.70414174 -1.0745127
000070 c8 9c 37 c0 2c 41 9f 3d 06 49 80 bf f8 30 b9 bf
       -2.8689442 0.077761024 -1.0022285 -1.4468069

cnn.5.running_var f4 [32]
000000 46 31 f8 40 7a 40 37 40 38 0e af 40 92 9e 03 40
       7.756015 2.8633103 5.4704857 2.0565534
000010 f0 aa 6f 40 52 b9 2e 40 48 9d 0c 41 b5 8c 0c 41
       3.7448082 2.730061 8.788399 8.784352
000020 3e 7c a1 40 e6 59 2a 40 ba d3 39 40 9c 9d e9 40
       5.0464163 2.661737 2.9035478 7.3004894
000030 9b 49 a4 40 21 a9 04 41 cc cd db 40 2f f1 a7 40
       5.133985 8.291291 6.8688717 5.2481914
000040 16 02 da 40 3f 75 2e 40 53 7f 3d 40 75 92 c5 40
       6.8127546 2.7259061 2.9608963 6.174128
000050 15 f1 df 40 22 59 c1 40 a4 df 12 41 8b 18 4b 41
       6.998179 6.0421305 9.1796 12.693492
000060 2f 1f f2 3f f2 8d 81 40 e0 07 83 40 70 a3 97 40
       1.8915766 4.0485773 4.0947113 4.738701
000070 5e 5b f2 40 d8 8a e3 40 16 fb c7 40 fc d5 32 41
       7.573653 7.1106987 6.2494 11.177242

cnn.8.weight f4 [48, 32, 3, 3]
000000 59 a4 be be 90 a1 8b be 85 71 c6 3e 82 95 6f 3b
       -0.37234762 -0.272717 0.38758484 0.003655762
000010 88 67 62 be 71 4e bf 3d 90 f4 06 bd b8 e6 86 be
       -0.22109807 0.093411334 -0.032948077 -0.263479
000020 b6 0b c7 3d ba 07 31 be 50 66 8e be 94 6f fa 3c
       0.097190306 -0.17288104 -0.27812433 0.030570783
000030 ac ea af bd ad f3 31 be be bd 96 3d 47 62 d8 3c
       -0.08589682 -0.17378111 0.07360409 0.02641405
000040 c3 d5 4f 3e 43 a9 08 be 8d 76 b8 bd a8 8a 0a 3e
       0.20296387 -0.13345818 -0.09006987 0.13529456
000050 1b ad 31 3e f3 b4 06 be ae 87 6c 3e 60 ac 27 3e
       0.17351191 -0.13154964 0.23098633 0.1637435
000060 08 c7 1f be 14 4e 81 bd 19 ff 43 3e 15 fc 32 bd
       -0.15603268 -0.0631372 0.19140281 -0.043697435
000070 12 14 bc 3d 14 73 72 3e 06 91 bb 3c 58 09 a5 3d
       0.091835156 0.23676711 0.022896301 0.08058423
000080 bb 7b 74 3e bf 96 ea bd 54 55 bf 3d a5 05 7e 3e
       0.23875324 -0.11454534 0.09342447 0.2480684
000090 13 3b 81 3d 38 69 2c be 9a ec 8a 3e d5 5e 0b be
       0.06310096 -0.16837013 0.27133638 -0.13610394
0000a0 d0 93 35 be eb 93 b1 3e 29 3e 57 3d e2 4d 22 be
       -0.17732167 0.34683165 0.052549515 -0.15850022
0000b0 67 22 94 3e 2b 96 db bd 8a a1 c2 bd 94 6b b7 ba
       0.28932497 -0.10722002 -0.095034674 -0.0013993853
0000c0 3c cc 22 3d 0c 4a 40 bd 13 ea f3 bd 17 b8 46 3e
       0.039745554 -0.046945617 -0.119098805 0.19406162
0000d0 20 e0 a8 bd 5f ae b8 bd f0 1e c5 3d f2 d3 a9 be
       -0.082458735 -0.09017634 0.096250415 -0.33169514
0000e0 bf f4 98 be af 90 07 3e f1 71 b3 be 70 ce aa be
       -0.29874226 0.13238786 -0.35047868 -0.33360624
0000f0 95 94 b4 3e ef 69 b0 be b0 60 91 be a8 3d 61 3e
       0.3526961 -0.3445582 -0.2839408 0.21996176
000100 1e 2e 33 3c 36 c2 88 bd c2 5f 20 3e ce c9 99 be
       0.010936288 -0.06677668 0.15661529 -0.30036777
000110 a3 5d ae be 8a bf 77 3e d4 80 0e bd 37 b1 17 bd
       -0.34055814 0.2419416 -0.03479083 -0.03703424
000120 15 56 a4 bd 81 98 24 be f2 c2 b0 be db 24 96 3d
       -0.08024231 -0.160738 -0.3452373 0.073312484
000130 1b 13 62 be c2 32 36 be 52 83 20 3e 7c 12 e9 3d
       -0.220776 -0.177928 0.15675095 0.11380479
000140 7d 56 7a 3d bf aa cb bd 7d d9 5e be 3e 01 c1 bc
       0.061117638 -0.099446766 -0.21762653 -0.023560163
000150 f3 b9 d8 bc 70 3a b1 bd bc 9d 85 ba 13 ee a0 3d
       -0.026455855 -0.08653724 -0.0010194103 0.07857909
000160 c4 93 c3 3d a5 ea b2 bd d7 4a f4 bd 81 e1 64 3d
       0.095496684 -0.08736161 -0.11928337 0.05587912
000170 3c 8b 85 bd 48 f0 15 bd a0 12 34 bd 77 35 07 be
       -0.065206975 -0.036606103 -0.043963075 -0.13203989
000180 a5 79 6d 3e ef c3 28 3d a2 54 99 be 08 a2 f3 bc
       0.23190935 0.04120248 -0.29947382 -0.029740348
000190 0e 29 02 3e 66 aa c5 3d 6b 33 7f be 6c 0c 3d bd
       0.12710974 0.096516415 -0.24921958 -0.046154425
0001a0 b8 31 16 3c af cc 47 3d 30 21 bc bc 6c 2a c5 3d
       0.009167127 0.048779186 -0.022965044 0.09627232
0001b0 9c 8a 81 3e 42 6c 6b 3c 05 69 01 bf 84 17 4e be
       0.25301063 0.014369072 -0.5055087 -0.20126158
0001c0 a5 94 0a 3d 1a dd 79 3d 10 5a 0b 3d a3 de 9e 3d
       0.033833165 0.061001875 0.034021437 0.07757308
0001d0 dd 5b 6f bd f8 a9 aa be 1d ee 03 3d a6 0d db 3e
       -0.058437217 -0.333328 0.032209504 0.4278385
0001e0 5f 9b 6d bd 39 29 ad bd 8d da 30 3e ae b8 2a bd
       -0.0580095 -0.08455128 0.1727087 -0.04168003
0001f0 3a c9 19 be f0 2f 2e 3e f5 fb a9 bd 5b 05 dd bd
       -0.15018168 0.17010474 -0.0830001 -0.10792037
000200 a9 bf dc 3d a6 93 07 be 82 5b 15 bd dd a1 8f 3e
       0.10778744 -0.13239917 -0.03646422 0.2805318
000210 f2 9f 37 be 4e ba b8 bd 6f a1 86 bd 5e 62 21 bd
       -0.17932108 -0.0901991 -0.0657376 -0.03940045
000220 c1 ee f5 3d ed a9 71 3e 0e 9b 93 be 25 f6 70 bd
       0.12008429 0.23599978 -0.28829235 -0.05882849
000230 4b b0 40 3d b0 87 49 3b e4 c1 06 bd 7c 50 b5 bd
       0.047043126 0.0030751042 -0.032899752 -0.08853242
000240 df 5c 37 be e6 81 13 3e 0e 8c a4 bd 05 56 df 3d
       -0.17906521 0.14405021 -0.08034526 0.10905079
000250 26 18 46 bc ba 6d 92 bb b4 71 b6 bd 30 24 06 bd
       -0.012090718 -0.004468647 -0.08908406 -0.032749355
000260 d3 50 49 3e 40 c1 8f 3d ce 16 d9 be 18 d2 ec bd
       0.19659738 0.070192814 -0.4240021 -0.1156351
000270 ac fe 35 3d ee 9a 07 bf ab 70 ef bd 6a a2 22 be
       0.044432327 -0.5297078 -0.116914116 -0.15882269
000280 26 e4 ae be 4c 61 b2 3c c0 f2 ef 3d 01 44 90 bd
       -0.34158438 0.02177491 0.11716223 -0.07044221
000290 3c c3 17 3e bf 48 00 bd 3c f9 8d bd 3a ad af 3d
       0.1482057 -0.031319376 -0.06932303 0.08577962
0002a0 2b 28 35 be 21 ca 9e 3c 40 eb 1c 3e 3c ae b4 3c
       -0.17691104 0.019383492 0.15324116 0.022055738
0002b0 ab 2c bb 3d 7d 1a a0 bd 7e ef ae bd 94 90 a7 3d
       0.09139379 -0.07817552 -0.08541773 0.08181873
0002c0 16 fb 02 bd dd 24 12 3e f0 d8 82 3d a9 b3 b5 bd
       -0.031977735 0.14271875 0.06389034 -0.08872158
0002d0 29 38 23 be 2c ce f5 bd 9d 55 6f 3e 23 d0 44 be
       -0.15939392 -0.12002215 0.23372503 -0.19220023
0002e0 5a 85 a6 bd 31 67 93 3e 61 af fc bd 15 9a 00 be
       -0.081309035 0.28789666 -0.12338138 -0.12558778
0002f0 80 fc ac 3a 07 19 dc bd 38 b1 9b be 9c 56 22 3e
       0.001319781 -0.10746961 -0.30408645 0.15853351
000300 fa e5 eb bc 2e 5e 10 3e cb 83 18 3e 32 9e 69 be
       -0.028796185 0.14098427 0.14894025 -0.22814253
000310 ef 80 73 bc b9 26 9d 3e d6 97 17 3e f6 76 ba 3d
       -0.014862283 0.30693606 0.14804015 0.09104721
000320 71 72 17 be 04 ad 13 3b 06 e9 d9 3d 55 40 b6 be
       -0.1478975 0.0022533545 0.10640149 -0.35595956
000330 b6 d8 12 bd 0c 31 4e 3e 6a 9b f1 bc ac c5 29 be
       -0.035851203 0.20135897 -0.029493053 -0.16579312
000340 70 10 d3 bd a4 b3 6f 3d cd fd 97 be 96 32 ae bd
       -0.103058696 0.058520928 -0.29685822 -0.08505742
000350 ad 35 2f 3c 1e f8 43 3e 77 a1 63 3d 3e 2d 34 bd
       0.01069395 0.19137618 0.055573907 -0.04398846
000360 26 95 8a bd df 8c db 3d ed cb 2c 3e b7 05 57 be
       -0.06766729 0.107202284 0.16874667 -0.20998274
000370 16 47 3d 3c 05 8e 08 3e 87 cc c1 be 4f d9 ce bc
       0.011552593 0.13335426 -0.37851354 -0.025250105
000380 7b fe 84 3e a2 16 3a be b5 9d 73 be 3f 3a 24 bf
       0.25975403 -0.18172696 -0.23790629 -0.64151376
000390 d0 62 8a 3c 8a 71 af be 2c 22 8b 3d ff 7d a0 3d
       0.01689282 -0.3426631 0.06793627 0.07836532
0003a0 14 34 64 be 41 b5 b8 bb 29 83 7e be 44 a4 4d 3e
       -0.22285491 -0.0056368415 -0.24854721 0.20082194
0003b0 a2 27 ca 3c a4 37 69 be 55 16 62 be e6 fe 81 3d
       0.024677102 -0.22775131 -0.22078831 0.06347446
0003c0 fe 1d 84 be 0a 40 95 bd ce 2e 2c be a8 85 21 3e
       -0.25804132 -0.07287605 -0.1681473 0.15773642
0003d0 f9 97 96 bd 34 5b 37 3d fd 19 6b bc 5c e0 cd bd
       -0.07353205 0.044764712 -0.014349458 -0.10052559
0003e0 4f 55 c7 3d 60 58 ca bb 60 d3 54 3d ed 59 32 3d
       0.09733068 -0.006175086 0.051959395 0.04354279
0003f0 62 7a c3 bd 2d 47 d6 bd c4 42 0f be c4 da 81 be
       -0.09544827 -0.104627945 -0.13990313 -0.25362217

cnn.8.bias f4 [48]
000000 fa 5f 38 bd be 3c 5d 3d 80 51 46 be e6 14 89 3c
       -0.045013405 0.054013006 -0.19367027 0.016733598
000010 b2 8b cc 3d 4b e7 cf 3c ec 40 8f 3c 2e 36 8e bd
       0.09987582 0.025378844 0.017487012 -0.06943928
000020 a1 85 0c be 72 c8 0e be dd 19 be bd 91 e3 b5 bc
       -0.1372285 -0.13943651 -0.09282277 -0.022203239
000030 52 62 33 3d 68 fc ef bc 49 d3 88 3c fe a6 b8 bd
       0.043794937 -0.029295161 0.016702311 -0.09016226
000040 94 1c 26 bd 19 e3 75 be c0 4b 08 bd 1d 54 fb 3d
       -0.040554598 -0.24012412 -0.033275366 0.12271903
000050 e8 0a 0b 3e 92 cb 89 3c 93 58 bf bc f8 e4 bb 3c
       0.13578379 0.016820703 -0.023357665 0.02293633
000060 f9 76 9e bc ec 34 c7 bd 79 48 dd bc 8a fc 12 be
       -0.01934384 -0.09726891 -0.027012097 -0.14354149
000070 62 69 0c 3e be 96 a0 bd f9 7b 2b 3e 7b 44 57 3e
       0.13712075 -0.07841252 0.1674651 0.21022217
000080 5c 81 14 bb 2d d8 18 3c b0 b7 bd 39 8e 67 9a 3b
       -0.0022660112 0.009328884 0.00036185747 0.0047120517
000090 da 7c 68 3c 94 c7 d1 bd 2a 72 7c bd dc 38 c9 bc
       0.014189923 -0.10243145 -0.061632313 -0.024563245
0000a0 b1 8d eb bc 36 f3 87 3d d9 5b f6 bd 7f d8 ad 3d
       -0.028754087 0.06638186 -0.12029237 0.08488559
0000b0 8d 91 2c 3e 7d 55 05 3e 8d d9 b7 bc e7 35 53 bd
       0.16852398 0.13020892 -0.022442603 -0.051565077

cnn.9.weight f4 [48]
000000 8f 88 7f 3f 29 4c 72 3f 35 ca 57 3f dd 2f 6b 3f
       0.99817747 0.9464746 0.8429292 0.9186991
000010 fc 00 47 3f 74 8f 72 3f 33 b4 5e 3f 0d 09 59 3f
       0.7773588 0.9475014 0.8699371 0.84779435
000020 58 dd 61 3f 5b d4 53 3f 8a 51 5f 3f ae fc 4f 3f
       0.8822837 0.82745904 0.87233794 0.81244934
000030 ae c7 8a 3f 5a e2 6c 3f 35 72 49 3f f6 c5 58 3f
       1.0842187 0.92532885 0.7868989 0.84677064
000040 51 85 90 3f aa 92 74 3f dd 06 38 3f 81 36 45 3f
       1.1290685 0.9553629 0.7188547 0.7703629
000050 71 49 4e 3f 61 2c 6b 3f ab c2 81 3f 89 f5 4e 3f
       0.8058081 0.9186459 1.0137533 0.80843407
000060 f9 58 85 3f 18 df 6a 3f 8a 0a 65 3f ff 7b 62 3f
       1.0417777 0.91746664 0.89469206 0.88470453
000070 74 0a 53 3f 5f 3a 59 3f 0a 0e 6d 3f 4c 02 8c 3f
       0.82437825 0.8485469 0.92599547 1.0938201
000080 b8 40 5e 3f ec c9 55 3f 99 50 7c 3f cf ad 54 3f
       0.868175 0.83511233 0.9856048 0.8307771
000090 a7 76 1a 3f fd 9d 7a 3f 24 1e 3c 3f cb be 41 3f
       0.603373 0.9789732 0.7348349 0.7568175
0000a0 b4 7a 45 3f 74 e9 7c 3f da 3b 66 3f 97 38 50 3f
       0.77140355 0.9879372 0.89935076 0.8133635
0000b0 e6 10 69 3f 98 fa 42 3f aa 9b 6b 3f 3a 2d 5a 3f
       0.9104141 0.76163626 0.920344 0.8522526

cnn.9.bias f4 [48]
000000 2e 75 d2 be 08 13 27 bf 0a 03 fc be cd 5f f0 be
       -0.41105026 -0.65263414 -0.4922107 -0.4694809
000010 1a 4f d5 be 09 2c 98 be 68 f1 c9 be 45 18 0f bf
       -0.41661912 -0.29721096 -0.3944199 -0.5589641
000020 2c aa fe be 45 92 29 bf 5d 79 24 bf 12 6f 0d bf
       -0.49739206 -0.66238815 -0.64247686 -0.55247605
000030 1e d1 44 bf 61 51 12 bf 6b 39 04 bf ec 33 c2 be
       -0.7688159 -0.57155424 -0.5165011 -0.37930238
000040 f1 29 0a bf c4 04 a8 be 30 2e ab be 55 f5 c7 be
       -0.5397025 -0.32816136 -0.33433676 -0.3905436
000050 84 5b b0 be 22 6a 3e be 8d b6 1a bf e4 04 d2 be
       -0.3444482 -0.18595174 -0.604348 -0.41019356
000060 13 d4 22 bf 63 96 07 bf da f0 1b bf 9a 88 08 bf
       -0.6360485 -0.52963847 -0.60914385 -0.5333344
000070 d3 92 ff be 31 90 0a bf 8b b4 35 bf 79 14 49 bf
       -0.49916705 -0.5412627 -0.7097861 -0.78546864
000080 74 f7 fa be 4e 54 b7 be 6c 2b 12 bf f7 d6 aa be
       -0.49016917 -0.35806507 -0.57097507 -0.3336713
000090 11 e1 9b bd 0b e7 20 bf cd 1d e1 be 48 55 96 be
       -0.076112874 -0.62852544 -0.4396805 -0.2936194
0000a0 10 f6 86 be e8 47 1b bf 80 12 0d bf cf 68 e8 be
       -0.26359606 -0.60656595 -0.55106354 -0.45392463
0000b0 69 61 02 bf c9 c2 ad be ec 2f 3c bf 0d 9a 18 bf
       -0.50929886 -0.33937672 -0.7351062 -0.5961006

cnn.9.running_mean f4 [48]
000000 58 94 03 c0 7f b1 0d c0 b8 d7 e8 bf 4d d9 d3 bf
       -2.0559292 -2.2139585 -1.8190832 -1.655069
000010 87 bd 0d c0 a9 16 a8 bf 4c 61 99 bf b3 cb 06 c0
       -2.2146928 -1.3131915 -1.1982818 -2.1061828
000020 05 6f 1a c0 84 4a 0a c0 fd c2 28 c0 b0 58 28 c0
       -2.413026 -2.160798 -2.6369011 -2.630413
000030 3c b3 a9 bf fa d2 ce bf d2 c7 01 c0 e9 2b 09 c0
       -1.3257823 -1.6158135 -2.027821 -2.143305
000040 ae ce f7 bf 6c 99 25 c0 df 77 37 bf 5a e9 44 bf
       -1.9359949 -2.5874891 -0.71667284 -0.76918566
000050 be 1c 87 bf c3 5d b1 bf 4b 3c d1 bf 6d c0 13 c0
       -1.0555646 -1.3856739 -1.6346525 -2.3086197
000060 ec 12 1f c0 1d b9 24 c0 a8 eb bf bf e6 69 03 c0
       -2.48553 -2.5737984 -1.4993792 -2.0533385
000070 1d 78 4f bf f3 14 de bf 36 47 00 c0 de 03 88 bf
       -0.81042653 -1.7350143 -2.0043464 -1.062618
000080 fb 3b f9 bf cf fa ab bf d5 66 03 c0 d8 ed a5 bf
       -1.947143 -1.3435916 -2.0531514 -1.2963209
000090 56 47 f4 3e 1e 22 15 c0 63 85 00 c0 a8 ec 13 bf
       0.47710675 -2.3302073 -2.0081413 -0.57782984
0000a0 e3 5f 90 bf ea 8c c4 bf 58 70 f2 bf 00 23 bd bf
       -1.1279262 -1.5355504 -1.8940535 -1.4776306
0000b0 f4 31 04 c0 0f f1 e1 bf cd e2 e5 bf f7 2c cc bf
       -2.065549 -1.765169 -1.7959839 -1.5951222

cnn.9.running_var f4 [48]
000000 a0 a4 94 40 ec 44 3c 40 f9 98 5c 40 e5 d9 78 40
       4.645096 2.9417067 3.4468367 3.8882992
000010 b2 60 1d 40 de bd 80 40 e6 5b 54 40 12 26 11 40
       2.4590268 4.023177 3.318109 2.2679486
000020 63 27 24 40 e7 e2 29 40 78 a4 11 40 ac a1 53 40
       2.564904 2.654474 2.2756634 3.3067427
000030 ba 1a 06 40 ea f8 32 40 6b 68 4c 40 b3 05 44 40
       2.0953813 2.7964425 3.1938732 3.0628479
000040 26 f2 32 40 84 9a 5b 40 e7 0c 11 40 10 66 21 40
       2.7960296 3.431306 2.2664125 2.5218544
000050 f4 7b 50 40 b7 cc 7a 40 ad 98 43 40 ea 3b 48 40
       3.2575655 3.9187448 3.0561936 3.1286569
000060 95 61 a0 40 f8 32 7d 40 b4 d2 30 40 b6 f2 81 40
       5.011912 3.956236 2.7628603 4.060878
000070 69 20 24 40 e9 75 22 40 84 5e 56 40 91 d9 46 40
       2.5644782 2.5384467 3.3495188 3.1070292
000080 f5 20 21 40 ef 48 6f 40 09 71 39 40 5d 3a 4a 40
       2.5176365 3.7388265 2.897524 3.1598122
000090 1c 49 11 40 a7 d4 52 40 69 b3 0d 40 a1 1b 11 40
       2.2700872 3.2942293 2.2140753 2.2673113
0000a0 4a 46 40 40 f1 cd 53 40 3f 73 3a 40 d6 fc 19 40
       3.00429 3.3094447 2.913284 2.406057
0000b0 42 f3 42 40 ab 75 05 40 1f a5 39 40 08 6e 08 40
       3.0460973 2.085307 2.9007032 2.1317158

cnn.12.weight f4 [64, 48, 3, 3]
000000 91 67 86 3e 8b 71 60 bd f6 5e c2 be aa c0 00 3d
       0.2625089 -0.054795783 -0.37963074 0.03143374
000010 71 5f 8d 3b 06 d8 b1 3d 6d d6 c3 bd fe 2b 95 3e
       0.004314356 0.08683781 -0.09562383 0.29135126
000020 a4 3e 99 3e 7c ef 68 bd 03 84 31 bf 44 8f 3c be
       0.29930604 -0.056869015 -0.6934206 -0.18414026
000030 8d 76 62 be ea b0 15 3d 8c 18 ef 3e ee 4a 0e be
       -0.22115536 0.03654567 0.46698415 -0.13895771
000040 ce 70 be 3c f5 08 d3 3e 98 8f b3 bb 7e 12 84 bc
       0.023247149 0.4121777 -0.005479764 -0.016122099
000050 75 1a f2 3d fc 6b 46 3e 62 5b bb 3c 31 fb 8d 3c
       0.118214525 0.1937713 0.022870723 0.017331691
000060 f3 ff 85 3e d8 07 68 3c c6 50 38 bc 9a 28 33 bd
       0.26171836 0.014162026 -0.011249727 -0.043739893
000070 19 3b 9b bd d2 37 82 3d 9a 56 a6 bd 68 45 de 3d
       -0.07579631 0.06358303 -0.08121987 0.10853082
000080 89 69 79 bd dc 73 9a bd 00 31 0b bc 85 47 3d bd
       -0.06089166 -0.0754163 -0.008495569 -0.046210784
000090 45 fb 13 be 78 af 81 3d a7 b8 80 3e 6c c2 be 3d
       -0.1445132 0.06332296 0.2514088 0.09314427
0000a0 c6 c8 16 3d 82 72 5d bc a3 38 a5 3d 08 e1 6c bd
       0.036812566 -0.01351607 0.08067443 -0.057831794
0000b0 24 ed 26 be ad 8a 33 3e 83 ec 6b bd 24 dd 4b be
       -0.163014 0.1753337 -0.057598602 -0.19908577
0000c0 1b e1 8a 3d 37 b7 bd 3d 95 4a 55 3e ff 85 d0 3d
       0.06781217 0.09263461 0.20829232 0.10181808
0000d0 77 a8 40 bd 78 a1 1b be d2 da 26 be e9 5c 44 be
       -0.04703566 -0.15198314 -0.16294411 -0.19176067
0000e0 f9 34 e6 3d 19 4f ae 3e d7 2f 00 3e 85 f1 db 3c
       0.112405725 0.34044722 0.1251825 0.026848564
0000f0 5c ee 23 3e 31 50 a1 3d 4e 2d 1e be a3 78 99 3e
       0.16008896 0.078766234 -0.1544697 0.2997485
000100 c2 9d 3c be f0 1c 2b bf 72 64 4d 3b b4 a6 2e 3e
       -0.18419555 -0.6684103 0.0031340388 0.1705578
000110 3e a8 a0 3e bd 72 9f 3d fe f5 89 3d ee f8 b7 3d
       0.3137836 0.077855565 0.067363724 0.089830264
000120 67 1d 39 bd a6 c7 ab 3d 12 a0 75 3d bc cf 30 be
       -0.045194056 0.08387689 0.059967108 -0.17266744
000130 1f d2 5e be 87 9b b4 bd 70 54 28 be 6c c1 c6 bd
       -0.21759842 -0.08818727 -0.1643846 -0.09704861
000140 22 0c d7 3d ea e5 14 3c 9f 3b ad be 57 74 3b be
       0.10500361 0.009088019 -0.3383455 -0.18306099
000150 cd cf 2b 3e d7 66 57 3d f8 22 98 3e 01 8e 6f 3d
       0.16778488 0.05258831 0.2971418 0.058485035
000160 92 80 36 3d 4b 8f 57 3e ad 1b 05 be 31 bb 86 be
       0.044556208 0.21050756 -0.12998839 -0.2631469
000170 14 9c 0b 3e 31 f5 dc 3d d4 1c 84 3b c2 f9 94 3c
       0.13633758 0.10788954 0.004031757 0.0181855
000180 ad 4d 81 bc f0 8a e5 3d cd db 89 3e 6a 6a 2a 3d
       -0.015784109 0.11208141 0.26925507 0.04160539
000190 0d a1 4e bc 00 4a 15 3e b8 b1 32 bd 94 f7 02 bc
       -0.01261164 0.1457901 -0.043626517 -0.007993598
0001a0 ea 22 11 be 57 7b 33 3d 22 a0 8f bc 6c 0e 6b bd
       -0.14173475 0.043818798 -0.017532412 -0.0573868
0001b0 bc 27 08 be a5 16 46 bd 10 0e 1a bf cb cc 6d be
       -0.13296407 -0.04836144 -0.6017771 -0.23222654
0001c0 02 cd 6e 3d 4a 56 0c 3e f0 75 35 3e 60 ef 85 3e
       0.05830098 0.13704792 0.17720771 0.2615919
0001d0 9b 62 c5 3e 13 4e 51 bb 1c fe a5 3c 2e 02 51 bd
       0.38551793 -0.0031937405 0.02026277 -0.05102747
0001e0 2f 50 61 be ad ae 1a be cb c2 5b 3e b9 62 51 be
       -0.22003244 -0.15105696 0.21461026 -0.20447816
0001f0 5c 46 0b 3d bf 90 8a 3e d7 2c 8b 3c e0 ee 04 be
       0.034002647 0.27063558 0.016989155 -0.12981749
000200 a0 eb ca bd e7 94 db bc 80 56 70 3d 43 dd d5 3d
       -0.09908223 -0.0268044 0.058676243 0.10442593
000210 b4 47 f0 bd d4 99 b4 3c d4 f7 ab bc 81 1b 7e be
       -0.11732426 0.022046007 -0.020992197 -0.2481518
000220 39 1c eb 3c 1e be 61 bd 80 4a 2c be 0f d5 0b 3e
       0.028699981 -0.05511295 -0.16825294 0.13655494
000230 b4 80 26 3e d9 2e cc bd 8e de 69 3c d3 95 90 3d
       0.16260034 -0.09969873 0.014274253 0.07059827
000240 05 2b 2a 3e a8 87 d6 3d 46 5f b1 bc fb 28 63 bc
       0.16617973 0.10475093 -0.021651875 -0.013864751
000250 e9 d8 63 3d 13 95 8f be d8 55 04 be 06 50 2f 3e
       0.055626784 -0.28043422 -0.12923372 0.1712037
000260 b7 ec a6 3d 79 94 8c be ce 31 80 3d f1 51 6f 3d
       0.081506185 -0.27457026 0.062594995 0.058427755
000270 8b 00 93 3d fb d7 48 3e 3c 24 22 3b d2 e7 45 bc
       0.07177838 0.1961364 0.0024740836 -0.012079196
000280 ac 08 78 bc c8 e7 6f be 97 24 21 bd 38 64 f4 bd
       -0.015138786 -0.23428261 -0.039341535 -0.11933178
000290 1f 78 a5 be 7f 72 32 be 21 9c bd be 5c 32 d2 bd
       -0.32318208 -0.1742649 -0.3703318 -0.102635115
0002a0 a8 4f 22 3d c8 69 54 bd 6b 8b 6e bd fa d6 05 bd
       0.039626747 -0.051858693 -0.058238428 -0.03267572
0002b0 73 e5 93 3b a9 20 03 3d d0 90 20 bd 1d af c8 bd
       0.0045134365 0.03201357 -0.039200604 -0.09799025
0002c0 ad b4 93 bd 93 43 bd bd 29 2d 1c bd aa 39 ea 3d
       -0.072121955 -0.092414044 -0.038129006 0.1143678
0002d0 92 f7 b5 bd 61 b5 de be de cd 46 be 8d 9d ff bb
       -0.08885111 -0.43497756 -0.1941447 -0.007800764
0002e0 65 ea 12 3e ed 87 0e 3e b6 35 05 be 0e 6c 37 be
       0.14347227 0.13919039 -0.1300877 -0.17912313
0002f0 d4 33 a7 bd 5e 65 da bc 5a 06 31 be b7 48 d5 bd
       -0.08164182 -0.026659664 -0.17287579 -0.1041426
000300 b6 5c 04 3d db f2 66 3d 4c 96 e4 bb c4 64 f5 bd
       0.03231498 0.05638395 -0.0069759246 -0.1198211
000310 fd 49 fc bc d6 1e 0f 3e f2 e8 43 3e 40 e1 62 3e
       -0.030797 0.13976607 0.1913183 0.22156239
000320 8a bd c9 3e 9c e9 07 3e 0d 74 0d bc e2 9d 82 be
       0.3940242 0.13272709 -0.008633626 -0.2551108
000330 ec 6d 30 be 7b 82 cb be b0 d2 aa be 7e 24 8c 3e
       -0.17229432 -0.39747986 -0.33363867 0.2737159
000340 ae bb 45 3e 23 ac 35 bd 0d 1c 8b bb cb 74 27 3e
       0.19309875 -0.044353615 -0.0042452873 0.16353147
000350 cb 9e 5d bd 70 fa db bc 19 37 c0 bd 72 bd 80 bd
       -0.054106515 -0.026852816 -0.09385509 -0.06286134
000360 02 36 1f bd 87 28 b3 3d 11 78 d1 3e a2 24 9b be
       -0.038869865 0.08747964 0.40911916 -0.30301386
000370 eb 81 ee bd 28 60 9c bd 5a ec 68 be 83 aa 6e 3c
       -0.11645874 -0.07635528 -0.22746411 0.01456702
000380 9f b0 8a 3d 75 25 f9 bd cf 3f bb 3d f2 ee 8d bc
       0.06771969 -0.121653475 0.0914303 -0.017325852
000390 0b 7a c1 3d 66 7f b3 bd be 14 4b bd ac 21 81 3d
       0.09447106 -0.08764534 -0.04958033 0.063052505
0003a0 61 23 26 3e 1b 22 00 3e 9e 7a 33 3e b2 75 40 bd
       0.16224433 0.1251301 0.17527243 -0.046987243
0003b0 e1 f8 76 3e 11 52 8b 3e ca da db bd 3f 4d 2c be
       0.24118377 0.2721105 -0.1073509 -0.16826342
0003c0 f5 b2 ce 3d 37 53 0a bc 3f fb 38 3d 40 31 ad 3d
       0.10092727 -0.0084426915 0.045161482 0.08456659
0003d0 1b 7e 2c 3e 78 2e 37 3e d4 f4 27 be 91 f4 27 be
       0.1684498 0.1788882 -0.16401988 -0.16401888
0003e0 3d 03 1e 3d 3d 8a 86 3d ff f6 68 3e 86 1b 29 3e
       0.038577307 0.065693356 0.22750472 0.16514406
0003f0 e8 cc e4 3d 85 68 9f 3b 17 81 05 3e 67 47 46 3d
       0.11171895 0.0048647546 0.13037525 0.04840794

cnn.12.bias f4 [64]
000000 28 52 99 3d 88 4c c2 3c b0 ca 14 3d 73 f3 6d 3d
       0.07486373 0.023718134 0.03632611 0.0580935
000010 3c f5 11 be 5e 15 bc 3d 85 75 54 3c 88 94 c6 bc
       -0.14253706 0.09183763 0.012967472 -0.024240747
000020 62 71 16 bd 8a 1b dd 3c c3 41 8b 3d 7b 69 9a 3d
       -0.036729224 0.02699067 0.067996524 0.0753965
000030 43 2f bc 3c d7 ab a2 bd 2a 72 7a 3c 1e ce db 3d
       0.022971755 -0.07942932 0.015286008 0.10732673
000040 a4 65 cc bd 41 f5 70 bd c6 ff de bc 7f a3 e0 3d
       -0.09980324 -0.058827642 -0.027221572 0.109686844
000050 3e 18 9b 3d e5 2a 58 bd 8e a6 e6 3d 72 94 85 3d
       0.07572983 -0.052775282 0.112622365 0.06522454
000060 b1 86 d5 bb 2f 78 48 bc e0 d2 7e 3d ee 8b 8f 3d
       -0.0065163006 -0.012235685 0.062212825 0.07009111
000070 ef fb 8c 3d 2f f5 16 3d 65 78 1a bd 20 b2 34 3d
       0.0688399 0.03685492 -0.037712473 0.044115186
000080 40 fc 36 bd f9 12 12 bc a0 7b 2a bd 46 5f a5 3d
       -0.044674158 -0.008915656 -0.041621804 0.080748126
000090 a0 d0 1b 3d 43 a5 c9 bc 3a db f9 ba af 03 eb 3b
       0.038040757 -0.024614936 -0.0019062527 0.00717207
0000a0 c1 c9 ad 3d c3 7e 06 bd 99 ff a4 bc 4b a7 72 3c
       0.08485747 -0.032835733 -0.02014141 0.014810394
0000b0 d8 5f 50 bc ea 7a 03 bc 31 da bd 3d f2 e1 ec bd
       -0.012718163 -0.00802491 0.09270132 -0.11566533
0000c0 64 21 92 bd fe 76 08 bd 12 c6 9c bd e5 ff 88 3c
       -0.07135275 -0.033316605 -0.076549664 0.016723583
0000d0 07 d9 2d bd 2d c4 cb 3c cb 17 ea 3a 35 52 81 bd
       -0.0424433 0.024873817 0.0017859874 -0.06314508
0000e0 06 8c 3a bc 20 3f b7 3d 85 9b cc 3b 68 63 58 3d
       -0.011385923 0.08947587 0.0062441253 0.052829176
0000f0 c9 f6 00 3d 39 e1 00 be b1 be eb 3c 72 6a 06 bd
       0.031485353 -0.12585916 0.028777452 -0.032816358

cnn.13.weight f4 [64]
000000 fe 07 3c 3f a2 f0 69 3f 57 c0 62 3f e7 2a 5d 3f
       0.73449695 0.913828 0.8857474 0.8639359
000010 dd 58 30 3f 27 78 35 3f 7e 7b 31 3f 4c da 3b 3f
       0.68885595 0.7088646 0.6932906 0.7337997
000020 f7 ef 34 3f 33 68 44 3f d7 6f 5f 3f 36 14 43 3f
       0.7067866 0.76721495 0.8728003 0.76202714
000030 cd 3d 43 3f 4a 9c 54 3f b9 9a 70 3f 96 1d 32 3f
       0.76266176 0.8305098 0.9398609 0.69576395
000040 a2 7c 31 3f 70 03 39 3f 89 ee 4e 3f 45 b3 59 3f
       0.693308 0.7227087 0.80832726 0.8503917
000050 49 31 5a 3f 8d f1 5a 3f 54 20 4f 3f da 1e 48 3f
       0.85231453 0.8552483 0.80908704 0.78172076
000060 c1 f8 3b 3f b4 0f 82 3f 8b b2 3a 3f 5e 52 44 3f
       0.73426443 1.0161042 0.72928685 0.7668818
000070 d4 79 54 3f ff 5b 4c 3f a0 6f 6b 3f de 6f 46 3f
       0.82998395 0.79827875 0.919672 0.77514446
000080 e5 1a 3f 3f a3 08 3c 3f d7 9b 43 3f 68 3a 37 3f
       0.7465041 0.7345068 0.7640967 0.71573496
000090 51 fb 47 3f 0d 87 59 3f 87 c2 3d 3f dc be 42 3f
       0.78117853 0.84971696 0.7412495 0.7607248
0000a0 c4 91 60 3f bb 91 34 3f 3a 33 38 3f 66 ab 34 3f
       0.8772242 0.7053487 0.71953166 0.70574033
0000b0 3a 1c 62 3f 2b ed 4a 3f 33 67 62 3f c8 dd 43 3f
       0.8832432 0.7926814 0.8843872 0.76510286
0000c0 a4 3c 52 3f 89 0d 37 3f 16 df 47 3f f7 76 5f 3f
       0.8212378 0.7150503 0.7807478 0.872909
0000d0 eb f5 3a 3f cd e4 45 3f db d9 4e 3f 53 20 6f 3f
       0.7303149 0.7730225 0.8080117 0.934087
0000e0 09 fc 55 3f 62 c2 4e 3f 26 81 74 3f 33 2b 50 3f
       0.835877 0.80765355 0.95509565 0.81315917
0000f0 64 f2 4f 3f 68 8e 41 3f 12 fa 42 3f 1a 31 58 3f
       0.81229234 0.7560792 0.76162827 0.84449923

cnn.13.bias f4 [64]
000000 94 be 93 be f6 a9 18 bf 70 ae ba be ea 70 de be
       -0.28856337 -0.5963434 -0.3646121 -0.43445522
000010 92 71 b3 be fa dd f4 be 25 ba cf be 2e a3 ab be
       -0.35047585 -0.47825605 -0.40571705 -0.33522934
000020 10 17 a7 be e2 45 c9 be 38 1d e8 be fd 8e b9 be
       -0.32634783 -0.3931113 -0.45334792 -0.36241904
000030 cc e9 b2 be 2e ba d7 be 65 8d 8c be d9 03 bc be
       -0.34943998 -0.4213423 -0.27451625 -0.36721686
000040 a5 1a 9e be 76 17 ba be 90 13 e5 be 16 89 80 be
       -0.30879703 -0.36346024 -0.44741488 -0.25104588
000050 e3 0b a7 be 34 cd 53 be 0b 87 95 be 68 c4 62 be
       -0.32626256 -0.20683748 -0.29204592 -0.22145236
000060 ed 4d a4 be c2 bb c4 be ff 7f 70 be 24 f2 8f be
       -0.32090703 -0.38424498 -0.23486327 -0.28114426
000070 85 ce 69 be da 9b 8f be 38 f1 e9 be 9e 27 c4 be
       -0.22832687 -0.28048593 -0.45691848 -0.38311476
000080 b8 00 8c be cd 36 db be ca 38 ac be 53 ae 7f be
       -0.27344298 -0.42815247 -0.33637077 -0.24968843
000090 7d 2d dc be 0e a9 9d be 94 9a 77 be e9 b1 aa be
       -0.43003455 -0.3079304 -0.2418006 -0.3333886
0000a0 10 dc d5 be 80 e6 d3 be 50 2f c5 be d7 f4 87 be
       -0.41769457 -0.41386795 -0.3851266 -0.26553985
0000b0 1d c1 df be d3 a6 b2 be 7f 6c 59 be f2 5d 55 be
       -0.4370202 -0.34892902 -0.21232794 -0.20836619
0000c0 bc 5a c4 be 69 8e dc be 86 ac e2 be 2d f7 98 be
       -0.38350475 -0.430774 -0.4427225 -0.2987608
0000d0 8d b7 89 be 50 95 cc be d6 f6 bf be 97 be 33 be
       -0.2689785 -0.39957666 -0.37493008 -0.17553173
0000e0 b4 6d f4 be d5 00 df be 10 b7 c1 be 2a e0 87 be
       -0.47739947 -0.43555322 -0.37834978 -0.2653821
0000f0 cd b8 8f be ef 66 08 bf a2 47 b2 be 5f 25 1c bf
       -0.2807068 -0.53282064 -0.34820276 -0.60994524

cnn.13.running_mean f4 [64]
000000 15 80 80 bf 86 53 eb bf f0 9a 84 bf 38 d7 99 bf
       -1.0039088 -1.8384864 -1.0359783 -1.2018805
000010 d9 08 a9 bf 4a 95 90 bf 37 d9 a1 bf 19 9a e1 bf
       -1.3205825 -1.129556 -1.2644414 -1.7625152
000020 ab 52 ec bf 96 dd 8e bf d4 44 a0 bf af 7c 46 bf
       -1.8462728 -1.1161373 -1.2521005 -0.77534
000030 57 f5 c0 bf 10 44 a8 bf ba 2e b6 bf f0 05 70 bf
       -1.5074872 -1.3145771 -1.423301 -0.9375906
000040 13 6d f3 bf 14 bf bd bf 17 ae b7 bf 43 57 cb bf
       -1.9017662 -1.4823937 -1.4350003 -1.5886005
000050 a5 70 dd bf 2c 86 9c bf 13 10 bd bf 2b 7f 9a bf
       -1.7300001 -1.2228446 -1.477053 -1.2070059
000060 ea 3a ae bf 42 79 be bf 05 92 a8 bf 7b 82 c9 bf
       -1.3611729 -1.4880755 -1.3169562 -1.5742944
000070 6d b1 b6 bf 38 70 dc bf 5d dc f1 bf d1 a6 f2 bf
       -1.4272896 -1.7221746 -1.8895375 -1.8957158
000080 fa 7d bf bf 75 df 7e bf c6 56 00 c0 b8 0a 4a bf
       -1.496032 -0.9955972 -2.0052962 -0.78922606
000090 0c e9 a0 bf 69 54 00 c0 ed ef ae bf 70 ac 60 bf
       -1.257112 -2.005152 -1.366697 -0.8776312
0000a0 85 62 34 c0 9d 80 6f bf 7e 71 9a bf 12 68 a2 bf
       -2.8185132 -0.93555623 -1.2065885 -1.268801
0000b0 2c 44 b3 bf f1 14 80 bf 8f 78 fb bf 0c c0 1a c0
       -1.400518 -1.0006391 -1.9646167 -2.4179716
0000c0 03 dc c0 bf 51 c5 9e bf 2a b1 82 bf c5 1b a9 bf
       -1.5067142 -1.2403966 -1.0210316 -1.32116
0000d0 7a 8f 29 c0 aa 17 4e bf 8b 37 a8 bf 9e 99 f9 bf
       -2.649382 -0.8050486 -1.314195 -1.9500005
0000e0 58 3a ff bf 81 e1 af bf f9 78 b5 bf c8 0e 13 c0
       -1.993968 -1.3740693 -1.4177543 -2.2977772
0000f0 d4 ca d7 bf 29 b5 cc bf 7e 25 4e bf 62 64 ec bf
       -1.6858773 -1.5992786 -0.8052596 -1.8468134

cnn.13.running_var f4 [64]
000000 f2 48 0f 40 11 44 21 40 1f 4c 13 40 0e 55 03 40
       2.2388272 2.5197794 2.301521 2.0520663
000010 3a 3c 23 40 89 c2 fc 3f 0d 55 da 3f f9 e8 f8 3f
       2.550551 1.9746867 1.7057205 1.9446098
000020 88 89 27 40 46 f4 0e 40 e0 ae 07 40 13 47 9b 3f
       2.6177692 2.2336593 2.1200485 1.2131065
000030 7e 25 d9 3f d3 24 16 40 2e ec 75 40 3b 1e d3 3f
       1.6964567 2.3459976 3.8425403 1.6493601
000040 c4 71 d6 3f f5 31 0e 40 a3 2b 05 40 03 08 59 40
       1.6753469 2.2217991 2.0807884 3.391114
000050 db 53 20 40 10 ca 1e 40 c2 50 4a 40 da 56 12 40
       2.5051181 2.481083 3.161179 2.286551
000060 c9 e2 20 40 1d 14 40 40 d6 dc 09 40 ad 47 12 40
       2.5138419 3.0012276 2.1541038 2.2856247
000070 c3 76 3f 40 81 da 16 40 db 78 2a 40 44 f8 14 40
       2.9916236 2.3570864 2.6636264 2.327653
000080 39 31 19 40 c1 06 17 40 85 9c 41 40 47 77 0d 40
       2.3936293 2.3597872 3.0251782 2.210405
000090 65 2f fa 3f 39 f2 7f 40 bf b4 2f 40 66 00 c4 3f
       1.9545714 3.999159 2.7454069 1.5312622
0000a0 f7 cc 74 40 94 d9 0d 40 2e 61 e4 3f 2a c6 2e 40
       3.82501 2.216405 1.7842157 2.730845
0000b0 4d 37 17 40 7f 7c fe 3f a6 3c 1f 40 3c 73 7e 40
       2.3627503 1.9881743 2.4880767 3.9757833
0000c0 8d 39 2b 40 45 4f e2 3f 4b 07 f3 3f 54 f9 08 40
       2.6753876 1.7680441 1.8986601 2.1402178
0000d0 e1 93 17 40 a1 eb c5 3f 47 fe 01 40 a1 e5 8d 40
       2.3684008 1.5462533 2.0311449 4.434281
0000e0 3d 52 22 40 e6 02 06 40 13 5a 4f 40 fb 50 2e 40
       2.5362694 2.093927 3.2398727 2.7236927
0000f0 d6 7b 47 40 62 43 ce 3f d3 22 24 40 72 a5 17 40
       3.1169333 1.6114314 2.5646255 2.369473
