models/model_epoch90.pth (torch, 957119 bytes, 61 tensors)

cnn.0.weight f4 [16, 3, 3, 3]
00000000: c58d e4bd bbd4 3fbd 4948 59bd d844 44be
00000010: 51a8 51bd f014 573e 1c0f 6cbc fb8d 5f3e
00000020: ab3d 103c c1a4 5abe a97e b9be 08a0 a93d
00000030: 9d1b 97be 5cf8 c8bd 7f82 8e3e 8200 8dbc
00000040: b9c0 6e3e 8b5d cb3e bd85 77be ff00 96be
00000050: c4e5 b83d 5ff5 483c 20a1 d3bd 1344 863e
00000060: 2552 b3bd b11e 9f3d 1e22 893e f1af 7cbe
00000070: 6cb1 23bc c69d 633e 4fc3 b2bc b24f ebbd
00000080: 32c5 b33d 46ef 6e3e eb30 7a3c 1ac9 86be
00000090: 7fa1 cfbe 9cf3 793e 4a82 853e a594 94bd
000000a0: 7503 c6be ba61 1cbd 01c3 813e 6a47 4abd
000000b0: c230 7ebe fe6a 77be b1d8 dc3d 3824 de3d
000000c0: 2225 bebd 4576 8bbe 9497 843d 7851 973e
000000d0: 6cec 4f3d 5e02 53be 46b2 513e 6eed 84ba
000000e0: ddce 2cbe abfc d1bd ca5f af3d 31c0 a0bd
000000f0: 37be 963d 14e0 6b3e befc 7cbe 7f68 593e
00000100: fdd3 0b3e e4bd f7be 830f ba3d 513b 0f3e
00000110: 8837 03be 0729 ac3e 9fe2 fb3c 6e86 bcbe
00000120: 3d2f a63d bc73 043e ccd7 74be f897 173e
00000130: d5bf 163e d516 8fbe c949 1e3e c25e 0d3e
00000140: 1fb6 8abe 81f8 d03d 5c24 a03e 4f0f 53be
00000150: a0b6 fb3d 1f6b c83d 51b6 0ebe 1721 acbd
00000160: 18a1 4c3c 2736 74be f92d fb3d d1a4 a73e
00000170: 813d 203d 12e7 a23e 6661 bf3c 8c0b 8bbe
00000180: 6892 963d 32cd 00be 8005 ebbe cfda 74bd
00000190: 4512 a13e b732 fdbb 0f8a 483e 05ff 283e
000001a0: c551 8dbe e606 9e3d a634 38be ba7a 8abe
000001b0: 3bb9 b63d 6959 a4bc 9142 61bd 6628 073e
000001c0: 053b 8dbe 348d 2e3e d7d9 173e 6181 a1be
000001d0: 6727 1d3e 63d8 813e 92be 8fbd 1bc3 81bc
000001e0: 1db6 8a3e 6844 22be 3abf aebd 8151 273e
000001f0: 9e59 ddbe 3074 c23d 3c20 a83e 1cc3 27be
00000200: d7d3 acbd c037 003e 1dd2 6abe 6515 8bbb
00000210: 65e1 de3c 0f26 89be 2cbb 6b3e 9f45 dd3d
00000220: 76ac 2bbd 109e b7bd bec0 793e 997d 403e
00000230: d6f0 f83d 89d9 c3bc f613 0b3e f07c 50be
00000240: e11e 16be eab9 1fbe d4c3 bdbd ad5b 113e
00000250: 2470 ad3d a953 a0be 98d1 0abf 59ab f6bb
00000260: ade6 77be a868 8d3e 97cf 8e3e 856e 0abe
00000270: a098 313e 1323 7abc 8f57 18be 94e0 dbbe
00000280: 0aaa 543d 9d8e 28be 1612 2fbe cc92 a0b9
00000290: cb5e 0c3e 31e0 d13c 266f 2ebd bc0c 613c
000002a0: 780f 94be 2792 f73c e7da 8d3e 4c95 c7be
000002b0: 5d30 583e 4caa 8a3e 1515 b7be 197b 153e
000002c0: 2ef1 7f3d 7ec5 babe 43f9 7b3e 92f3 2f3e
000002d0: b542 78be 13f0 e9bb 2267 733e a404 11be
000002e0: e0ef 903d 7fc0 053d bed0 6bbe 338e d93d
000002f0: 54c4 1f3e 27a9 293e 1dc5 e03d e888 4c3e
00000300: 46a1 8bbe 22a0 06be 7ed7 93be 8145 f43d
00000310: 2a2a d0bb 8a2d c93d 38e2 053e fdcf 763e
00000320: 3ca7 c63e 8d3c 08be 395f 9abe 67b8 85be
00000330: 551c acbd 7fab dc3d 32a9 e2bd 9729 6c3e
00000340: 8cc4 103e 3a39 443e 93a9 96be ccf8 67be
00000350: 7438 47be 6e52 5e3d 6b45 ae3d d4f5 913c
00000360: c1e9 e8bc eee6 89bd f414 633d 7bd6 91be
00000370: c03f ad38 6b04 603e 7836 30bc f657 f13d
00000380: cf47 80bd d1f1 aa3c d9d5 33be fc2c 69be
00000390: a526 f0be 4375 3ebd 8650 5e3d 349a 76bd
000003a0: d9db 5e3e 3790 d03e 9cfe 903e 32ea 91bb
000003b0: 47bc 86bd d85f f7be 884f 0dbe 2db0 10bc
000003c0: 5a54 3dbe c0e5 803e 6bb9 833d 3449 aa3d
000003d0: 304c 393e c36d 10be 69c2 eb3d 2fba b4be
000003e0: 56ea dfbc 7be5 85bd 70c3 ecbc 08f1 813e
000003f0: 4e74 c33e 8fbb 5e3d d31d 56be e987 a7bd
-0.11159853 -0.046833735 -0.053047452 -0.19166887 -0.05118591 0.21004081 -0.014407899 0.21831505
0.008803765 -0.21351911 -0.36229447 0.08282477 -0.29513255 -0.09812996 0.27833936 -0.017212156
0.23315705 0.39719805 -0.24172111 -0.29297635 0.09028199 0.012265532 -0.103334665 0.26223812
-0.08755902 0.07769526 0.26783842 -0.24676491 -0.009991031 0.22228155 -0.021821646 -0.1148981
0.087778464 0.23333463 0.015270452 -0.26325303 -0.405529 0.24409336 0.26075965 -0.07254914
-0.38674513 -0.038179137 0.2534409 -0.049384512 -0.24823287 -0.24161908 0.10783518 0.10846752
-0.09284426 -0.2723867 0.06474224 0.29554343 0.05076258 -0.20606372 0.20478162 -0.001014156
-0.16875787 -0.10253271 0.08563192 -0.078491576 0.07360499 0.23034698 -0.24705788 0.21231268
0.13655086 -0.48387063 0.0908499 0.13987471 -0.12814152 0.3362505 0.03074771 -0.36821312
0.08114479 0.12934774 -0.23910445 0.14804065 0.14721616 -0.27947107 0.15457834 0.13805678
-0.27092072 0.10203648 0.3127774 -0.20611309 0.12290692 0.09786057 -0.13936736 -0.08404749
0.01248958 -0.23848782 0.12264628 0.32742932 0.039121155 0.31816918 0.023361873 -0.27157247
0.073521435 -0.12578276 -0.45902634 -0.059778985 0.3145925 -0.007726993 0.19583915 0.16503532
-0.27601448 0.077161595 -0.17988834 -0.27046758 0.08922049 -0.020062165 -0.054995123 0.13199005
-0.2758409 0.17046052 0.14829193 -0.3154402 0.15347062 0.25360402 -0.0701877 -0.015840104
0.27092066 -0.15846407 -0.08532567 0.16339685 -0.43232435 0.09494817 0.32837093 -0.16383022
-0.08438843 0.12521267 -0.22931714 -0.004244494 0.027207086 -0.2678685 0.23020619 0.10804295
-0.04191252 -0.08965695 0.24389932 0.18797912 0.12155311 -0.02390744 0.13581833 -0.2036016
-0.14660217 -0.15598264 -0.09265867 0.14195128 0.08468655 -0.31313828 -0.54226065 -0.0075277505
-0.2420909 0.2761891 0.27892753 -0.13518722 0.17343378 -0.015267151 -0.14877151 -0.42944777
0.051919974 -0.16460653 -0.17096743 -0.0003062695 0.13708036 0.025619598 -0.04258647 0.013735946
-0.28918052 0.030221058 0.27706072 -0.38981092 0.21112199 0.2708305 -0.35758272 0.1459774
0.062485866 -0.364788 0.24606805 0.17182758 -0.24244197 -0.007139215 0.23769811 -0.14161927
0.070770025 0.03265428 -0.23028848 0.106228255 0.15602237 0.16568433 0.109750964 0.199741
-0.2727148 -0.13147023 -0.28875345 0.11927319 -0.0063526826 0.09823139 0.13074577 0.24102779
0.38799465 -0.13304348 -0.30150774 -0.2611725 -0.084038414 0.10774898 -0.11067428 0.2306274
0.14137477 0.19162455 -0.2942625 -0.22653502 -0.19455129 0.05427783 0.08509334 0.017817415
-0.028431775 -0.067334995 0.055439904 -0.28483948 8.261157e-05 0.21876685 -0.010755174 0.11784355
-0.062636964 0.02086726 -0.17562045 -0.22771066 -0.46904483 -0.04649855 0.054276012 -0.060205653
0.21763553 0.40735027 0.28319252 -0.004452967 -0.0657888 -0.4831531 -0.1379987 -0.008831066
-0.18489209 0.25175285 0.0643185 0.08314744 0.1809547 -0.14104371 0.1151169 -0.35298297
-0.02733342 -0.065379106 -0.028901786 0.25379205 0.3817467 0.05437809 -0.20909815 -0.0818022

cnn.0.bias f4 [16]
00000000: 58d9 ce3c 22f4 b53d 82ec 73be 99aa 96bd
00000010: e1ac b83c 324f 713e 61cd 413e 5504 843d
00000020: cc88 f0bd 317d cfbe 05f7 3bbc f381 afbe
00000030: 575d adbe 1fde ba3e b9ca cb3d df7e 54be
0.025250122 0.08884455 -0.2382069 -0.07356758 0.022543373 0.23565367 0.18926002 0.06446139
-0.11744842 -0.405252 -0.011472468 -0.3427883 -0.33860275 0.3649759 0.09950776 -0.20751522

cnn.1.weight f4 [16]
00000000: fcfd 8e3f 12b6 1b3f 3ed8 8d3f 9331 7e3f
00000010: a99b 223f d341 f33e e3b7 893f f073 7e3f
00000020: 77ac ef3e c476 203f fcf0 a43f 3200 743f
00000030: 592b 893f 2864 333f 9700 6f3f d36d 823f
1.117126 0.6082469 1.1081617 0.99294394 0.6351877 0.47511157 1.0759243 0.99395657
0.46811268 0.6268122 1.2886043 0.953128 1.0716354 0.700747 0.93360275 1.0189766

cnn.1.bias f4 [16]
00000000: f931 09be ff35 92be 975f 33bd 5f6f 38bc
00000010: dae3 18bd 1391 ea3e 8d3a f6bc 3774 5b3c
00000020: a1dc 6d3f ad42 ad3e 1230 01be a429 a2bd
00000030: 323d 21bd 323d 7c3f a0d1 cb3f 1a60 19bd
-0.1339797 -0.2855682 -0.043792333 -0.011257022 -0.03732667 0.45813808 -0.030057216 0.013394407
0.9291478 0.33839932 -0.12615994 -0.079180986 -0.039365 0.98530877 1.5923347 -0.037445165

cnn.1.running_mean f4 [16]
00000000: 0973 1e3c 156e 033e afdd 71be b122 86bd
00000010: 01b0 f73c 4465 933e a48f 383e 2a60 af3d
00000020: 874c c5bd 5e07 c1be 4eb9 fabc 7f08 b1be
00000030: 4948 aabe 1d7d cc3e 2fbc 383d 37eb 50be
0.009670981 0.12834962 -0.23619722 -0.065495856 0.030235292 0.28788197 0.18023545 0.08563264
-0.09633737 -0.37700933 -0.030605938 -0.34576795 -0.33258274 0.39939204 0.04510134 -0.20402227

cnn.1.running_var f4 [16]
00000000: 2642 7b3e 5428 193e cc85 443e 4b6c 6e3e
00000010: b10a 833d 9dfc 953e 52ff 573e 9ae9 243e
00000020: 33dd 233e f81d b43d 3b7d ab3e 0f26 293e
00000030: fe9d 083e 9ecc 203e d3e9 8d3e 5e6f 643e
0.24536952 0.1495679 0.19191664 0.23283498 0.063985236 0.2929429 0.2109349 0.16104737
0.1600235 0.087947786 0.3349398 0.16518424 0.13341519 0.15703055 0.27717456 0.22308108

cnn.4.weight f4 [32, 16, 3, 3]
00000000: f321 cebd 052d 123d 28a0 4cbd 4d54 07be
00000010: 6a0f 7bbd 4749 b6bd f7c4 80bd c9ed 72bd
00000020: 100f 80bd 2c14 8cbb 63b5 9bbe 348b b13c
00000030: 39c3 763e 5f81 11be fb52 cf3d d424 203d
00000040: ee90 05bb a826 123e 45ac 103e 157e 283e
00000050: e132 0b3e 92c7 e9bb be32 1d3e 5536 473e
00000060: 8977 a7bb 087f a03d 6720 093e 4e76 f1ba
00000070: 0997 e43c cdfe 21bd ce02 3cbe 038d 1fbe
00000080: 9dfc 05be b1ae afbd 4d39 94be aeaa b1bd
00000090: 5db9 2d3d 3d11 fe3d 4cf5 4e3c 68eb a1bd
000000a0: 3697 833b c3f3 013e 9470 7cbd a261 c5bd
000000b0: becf 5a3d 4cd2 bebd b622 37be 1a27 38bd
000000c0: 6ebe a1bb ec6a 29bd 46be 31bc 6ed3 9d3e
000000d0: 706f d33d 3ddf 51bd 2932 dc3d 3d00 4e3e
000000e0: 78ae 103e 4d14 93bd 241d 943d a3f8 e03d
000000f0: 80ca 86bd 820f 793d dbf2 a43d 2090 1e3c
00000100: a242 a0bd c4f0 ac3b d24a 793d 269c 23bf
00000110: d542 bd3d aef4 8cbe d3ab 10bf 48d5 4d3c
00000120: 5549 823d f38b 39be 64b4 83bd 2cc2 9cba
00000130: 7687 7dbe c285 89bd e548 063e 3302 51be
00000140: 8f98 ff3d d40d bbbc 364f b4bc bd47 79bd
00000150: 2655 02be 9627 99be 3f13 febd d898 8d3d
00000160: 3b39 babe 212a c2bd a1e6 b7bc 4405 26be
00000170: abfb a43d 3a3c 24be 3263 88bf 823d 9d3d
00000180: bdf0 00bd 87b3 54bf 5485 b53d a610 f73c
00000190: a0cd 22be 1989 e43d c716 bc3d 746b 89bd
000001a0: 5ced 513e e16d dabd 737d 963d 132f c23d
000001b0: 2381 32be 17d9 bcbe 874c 063e 2514 eabd
000001c0: 684c 6abf 0561 493b 16ad e33c 5f3e e3be
000001d0: 4644 4ebd c20a 533e c64c df3d 66f3 903d
000001e0: ce8d 073c d6ae 8b3e c148 9d3e dde8 01be
000001f0: 86ba 593e de23 a43d 452b 77bd 9530 fc3d
00000200: a018 133e e483 08be 2a56 7b3e 2cd7 e43d
00000210: 0fd1 1bbd 5b08 f93d edfc b73d 8058 103e
00000220: 5152 9c3d 7316 153d 5926 073e 9f20 2b3e
00000230: bc90 c03d 76c5 d1bc 5772 473d 31c0 063e
00000240: c2eb f1bd f652 833e d053 0c3e d0c9 073d
00000250: b0ce b13e 00c4 be3d bf33 523d e35c a6bd
00000260: e224 f0bd 9c75 6d3e 23ad 82be 6ae6 cfbd
00000270: ee75 f23d 77ed 93be 481e 03bc c896 67bd
00000280: b0e1 2bbe 1298 943e e0cc c73d 08bb 95be
00000290: 86ae 123c dd5c f33b 9ca2 ccbd 3dff 9a3d
000002a0: 7b41 083d c487 db3d 1444 00bd 7445 44be
000002b0: 3926 c43c 79fd c93e af8a bcbd d70d d43e
000002c0: 2977 583d b88d 8cbb f188 aa3e 055b cabd
000002d0: 3d0f 28be 54e4 3e3d ac01 973e 3b60 7d3d
000002e0: 4f88 373e 7dbc be3d 1795 c03d 1344 553e
000002f0: 5cb2 ebbd f059 033e 8150 babc a1b4 32be
00000300: 4346 97bd e661 afbe 5a17 4c3e e1d9 9dbd
00000310: a6ab 803a 390b a93e 6d4c c63d f583 8f3e
00000320: ee1d d53d b9ff 003d 8318 7d3d d54a 59be
00000330: 24ca 063c 3f05 0bbe 2c24 c83c a76a db3d
00000340: 6bc7 43be 74d9 35bc 812d 14bc a492 54bd
00000350: 2b43 543d 25ac 083d 0222 8e3d 65fc 5dbe
00000360: bdc9 f5bd fad0 b13e e417 f4bd 33e3 103d
00000370: 81ad 88bd 3c75 80bd 6b64 36bd 6417 21be
00000380: 0dce 353e e040 0dbe ac11 783e 3b12 013e
00000390: 276b 023e 3e5d 49bd 0b16 123e a284 d0bc
000003a0: bacf b1bd eece 0ebe 7435 99bd 48e6 563e
000003b0: a9af 33be 564c d93d 7f2a 903d 25e1 80be
000003c0: 399a 0cbc 2220 05bf df2b 55bd cb98 f83c
000003d0: 9064 86be 70ab 4ebe e0c4 9b3c 6ecb 35bf
000003e0: 137b ddbd 63f4 2bbd 39d5 b4bd ba75 223e
000003f0: 4ea3 bb3c 8713 7cbe 9570 0b3e a73c 0bbd
-0.10065069 0.035687465 -0.049957424 -0.13215752 -0.061293997 -0.08900695 -0.06287568 -0.0593088
-0.06252873 -0.0042748656 -0.30411825 0.021672823 0.24097909 -0.14209507 0.10123249 0.039097622
-0.0020380574 0.14272559 0.14128216 0.16454346 0.13593628 -0.0071343863 0.15351388 0.1945432
-0.0051106852 0.07836729 0.13391267 -0.0018422098 0.02790405 -0.039549638 -0.18360445 -0.15581135
-0.13084646 -0.085782416 -0.28949967 -0.08675133 0.042413104 0.12405632 0.0126317255 -0.07906228
0.0040158285 0.12690644 -0.0616308 -0.096377626 0.053420775 -0.09317455 -0.17884335 -0.044959165
-0.004936031 -0.041361734 -0.010848587 0.3082537 0.103239894 -0.051238287 0.10751755 0.20117278
0.14129055 -0.071816064 0.07232121 0.10984924 -0.065815926 0.060805805 0.080541335 0.009677917
-0.07825209 0.005277725 0.06086237 -0.6391014 0.09241263 -0.27530426 -0.5651218 0.012563057
0.06361643 -0.18119793 -0.06430891 -0.0011959723 -0.24758705 -0.067149654 0.13113745 -0.20410995
0.1248027 -0.022833742 -0.022010427 -0.06085943 -0.12727794 -0.29913014 -0.12406015 0.06913918
-0.36371788 -0.09480692 -0.02244884 -0.16212946 0.08055814 -0.160386 -1.0655272 0.07677747
-0.031479586 -0.83086437 0.08863321 0.030159306 -0.15898752 0.11158962 0.09184032 -0.06709948
0.20500702 -0.10665489 0.07348146 0.09481635 -0.17432074 -0.36884376 0.1311513 -0.114296235
-0.91522837 0.0030727994 0.027792495 -0.44383523 -0.05035808 0.20609573 0.10903315 0.070776746
0.008273555 0.27281827 0.3071957 -0.12686487 0.2126256 0.080146536 -0.060344 0.12313954
0.14364862 -0.13331562 0.24544588 0.11173853 -0.03804117 0.12159797 0.08983789 0.1409626
0.07632888 0.036398362 0.13198222 0.16711663 0.09402606 -0.025606852 0.048693027 0.13159253
-0.11812545 0.25649232 0.13703847 0.033151448 0.34728003 0.09314728 0.05131888 -0.081231855
-0.11725785 0.23189396 -0.25522718 -0.1015137 0.118388996 -0.2889211 -0.008002825 -0.05654028
-0.16785312 0.2902227 0.09755874 -0.29244256 0.008952742 0.0074268417 -0.09991953 0.07568214
0.033265572 0.107192546 -0.031314924 -0.1916712 0.023944007 0.39451197 -0.09206139 0.4141681
0.052848015 -0.004289355 0.33307603 -0.09880642 -0.16412063 0.04660447 0.29493463 0.06185935
0.17923091 0.09313295 0.09403437 0.2082675 -0.11508629 0.12827277 -0.022743465 -0.17451717
-0.07386448 -0.34254378 0.19930783 -0.07707573 0.000981678 0.33016375 0.09682546 0.28030363
0.10406099 0.031493876 0.061790954 -0.21219952 0.008226905 -0.1357622 0.02443131 0.10713702
-0.1911904 -0.011099208 -0.009044052 -0.05189766 0.05182187 0.033367295 0.0694008 -0.21678312
-0.12001369 0.3472975 -0.11918619 0.035372924 -0.06673718 -0.06272361 -0.04452936 -0.15731579
0.17754383 -0.13794279 0.24225491 0.1260461 0.12736188 -0.04916119 0.14266221 -0.02545387
-0.08682199 -0.13946125 -0.074808985 0.20986283 -0.17547478 0.10610263 0.070393555 -0.25171772
-0.008581691 -0.52002156 -0.05204379 0.030346295 -0.26248598 -0.20182586 0.019014776 -0.71013534
-0.1081449 -0.041981112 -0.088297315 0.15865222 0.022905018 -0.24616824 0.13617165 -0.03399339

cnn.4.bias f4 [32]
00000000: 20ed 343e 17d5 c9bd a207 6bbe 4d1d 23be
00000010: e563 143e 58f8 cabd 3fad dabd 46eb 2ebe
00000020: 92d0 51bd f3bd 0f3e 2d9d 963d b2d9 0dbe
00000030: cc75 203e 2d1c 01be a7f0 0abe 66e7 d63d
00000040: 70bd 583d 72aa cdbd 2b56 15bd fa40 a8be
00000050: 73bb e13d 99cb 8fbd e4f5 fc3d 3a66 aebd
00000060: 1817 9c3d 46c5 663d 8c35 6e3e 6620 cb3c
00000070: d9c4 6a3e 400f 823d 0050 c1bd 03c1 213e
0.17668581 -0.09855097 -0.2295213 -0.15929146 0.14491232 -0.09910649 -0.10677575 -0.17081937
-0.0512243 0.14037304 0.07354198 -0.13852575 0.15669936 -0.12608404 -0.13568364 0.104933545
0.052915037 -0.100422755 -0.03645913 -0.32862073 0.11022081 -0.07021255 0.123515874 -0.08515592
0.07621592 0.05634048 0.23262614 0.024795722 0.22926654 0.06350565 -0.09439087 0.15796284

cnn.5.weight f4 [32]
00000000: 966a 8b3f 20b2 5f3f 5fbc 7b3f 5487 843f
00000010: 5b6f 6f3f ff9d 423f f27b 463f 50b5 8a3f
00000020: 1305 703f 724e 3e3f 00c8 883f 20d8 793f
00000030: 6f54 5a3f 1cd1 783f 06a8 753f b507 7c3f
00000040: 0ecb 863f f2ce 8e3f 939a 2e3f 3071 603f
00000050: 63c8 693f e768 8b3f 155f 5f3f 2e2c 423f
00000060: 9bf7 463f 2721 843f d435 643f 51e7 803f
00000070: 0de7 823f d646 933f 8b68 813f 5f08 8a3f
1.0891902 0.8738117 0.98334306 1.0353799 0.9352929 0.7602233 0.77532876 1.0836582
0.9375774 0.7433845 1.0686035 0.97595406 0.85285085 0.97194076 0.9595951 0.9844926
1.0530717 1.1156905 0.6820461 0.8767271 0.9132139 1.0891389 0.8725446 0.7584866
0.77721566 1.0322617 0.89144635 1.0070592 1.0226761 1.1505992 1.0110029 1.0783805

cnn.5.bias f4 [32]
00000000: 4b9a e6be ab63 78be 1cd5 b8be d033 ccbe
00000010: 38ed 57be c994 e53d afe6 52be 0da5 00bf
00000020: 5e83 aebe d8e0 36be 1fb2 09be 3d2b d1be
00000030: 903e aabe 9405 d0be 06a5 d4be 0a1d 25bd
00000040: 1bf1 0dbf 02df 20be ec9c 4ebe ab19 8fbe
00000050: 2ec6 adbe 7a34 dabe 4a45 80be 996b 0bbe
00000060: e909 c93d 5914 c8be e57a 84be 059b e0be
00000070: bb51 a3be af90 a8be 462c 67be 66fa bcbe
-0.4503959 -0.2425677 -0.3610009 -0.3988328 -0.21086586 0.11210019 -0.20595811 -0.5025185
-0.340846 -0.17859209 -0.13446854 -0.408533 -0.33250856 -0.40629256 -0.41532153 -0.040310897
-0.5544602 -0.1571007 -0.20177048 -0.2794927 -0.33940262 -0.4261816 -0.25052863 -0.13615264
0.09816343 -0.39078024 -0.2587501 -0.4386827 -0.31898293 -0.32922885 -0.22575483 -0.3690979

cnn.5.running_mean f4 [32]
00000000: 5d51 4bbf b453 ecbf 0358 0fbf 61af 59bf
00000010: 52a7 20c0 36ad a3be e20e 9bbf a15a 63c0
00000020: 496b 2cc0 16a2 6cbf f96b ad3f 8839 6c3d
00000030: 1084 b0bf 7d13 a3bf 5c5e f6bf c350 2f3c
00000040: 4a03 54c0 05e2 363e cfbe 4e3e 4e21 48bf
00000050: ab91 c8bf 6cbe 0ebe a23f 24c0 6f6e 11c0
00000060: 8252 2f3f 9820 343f c8a7 8fbf 854b 9cbf
00000070: 5f92 55c0 0ee8 953d 1aca 9bbf 4b64 85bf
-0.79421026 -1.8463044 -0.5599367 -0.8503323 -2.5102124 -0.31968087 -1.2113917 -3.5524065
-2.6940482 -0.92434824 1.3548576 0.057672054 -1.3790302 -1.2740322 -1.9247546 0.010700407
-3.3127007 0.17859657 0.20189975 -0.7817582 -1.5669454 -0.13939828 -2.5663838 -2.2723653
0.6848527 0.70362234 -1.1223078 -1.2210547 -3.3370588 0.073196515 -1.2171052 -1.0421232

cnn.5.running_var f4 [32]
00000000: 9e37 0441 3711 4140 3c7f b440 5a79 0f40
00000010: b020 7c40 0cce 3e40 041e 2541 693d 0d41
00000020: ca09 9940 225d 2640 c09e 4e40 0640 0b41
00000030: 29b0 a640 2d63 1141 c5b5 e840 e59f ae40
00000040: 8f44 0041 1e07 3c40 ba11 5340 a8cb c940
00000050: 2c00 f440 bae1 c640 b3f4 2341 4bae 6041
00000060: 39af f33f 0d35 8940 72b3 a240 0758 a840
00000070: 8239 1041 8eb1 f040 f37b dc40 1d09 4541
8.263578 3.0166757 5.6405315 2.2417817 3.939495 2.981326 10.319828 8.827493
4.782445 2.5994344 3.2284393 8.703131 5.209004 9.086713 7.2721887 5.4570184
8.016738 2.9379344 3.297957 6.3061104 7.625021 6.2150545 10.247241 14.042552
1.9037849 4.287726 5.084405 5.2607455 9.01404 7.521674 6.8901305 12.314725

cnn.8.weight f4 [48, 32, 3, 3]
00000000: ef0b a4be f743 8bbe fbed cf3e d6ea b63c
00000010: 7a36 96be dfba c23d b828 3bbc 8c99 9cbe
00000020: 44af d93d e049 13be 17e9 8cbe 30e6 d73d
00000030: 02ea c7bd 22eb 12be d3ae ed3d ca61 e63c
00000040: 605c 3e3e 31dc a2bd e220 bfbd d55c f93d
00000050: d858 573e 1fbd 09be 6e9e 743e 0067 263e
00000060: 040b 37be 6972 6abd 763a 573e fcca 14bc
00000070: 3f14 113e 2686 923e b45f d23d 8f32 e23d
00000080: 4020 9b3e 15dc d6bd 4bca 1e3e 0085 983e
00000090: 1ce1 f53d 4439 36be f48b 983e ea53 01be
000000a0: 199b 4ebe 7e61 b33e b54f 623d c657 24be
000000b0: e0a6 ac3e 7161 bcbd d117 00be f29f 1fbd
000000c0: 19a6 c23d 6264 33ba b514 15be a734 563e
000000d0: f8cc b1bd e496 c5bd cda6 c53d 5cff c9be
000000e0: 4397 cbbe d4d7 2a3e b698 abbe 828f aabe
000000f0: e0be c33e 292c a6be 74c5 94be bdd0 6f3e
00000100: d11f 533d daaa 213d 410c d43d fdfb 92be
00000110: 6be8 b1be 572e 843e 0121 a4bc d93a 68bd
00000120: 94ae 5ebd 4e6c 1dbe 322a b3be b9bf 103e
00000130: aa6a 5dbe 32e8 52be aabe 443e 4dd4 d03d
00000140: cd4b d43d 3309 c7bd 7695 82be c632 8dbd
00000150: 5c47 9ebd 95ec ecbd b182 9b3c dc34 cd3d
00000160: 87d1 e83d 4817 a9bd 1837 afbd b6cc 2e3d
00000170: 3db5 56bd 6b0e f2bc 37cd a5bd 90d7 22be
00000180: c48a 7f3e 0338 733c cc9a a8be 5802 74bd
00000190: 7478 c83d 6c58 923d a5d6 85be c815 07bd
000001a0: 659b 843c 9027 2a3d 1480 33bc 67c9 d83d
000001b0: 9823 473e e2e5 debc 47a2 0bbf d8e0 45be
000001c0: b01a 973d a94e 603c 5461 6a3d bf96 783d
000001d0: eee4 b0bd 8027 9abe 0673 c13c d36a e53e
000001e0: 0e95 34bd 6c91 8ebd fbc4 753e 8e51 453c
000001f0: b9b3 40be 6399 213e 71fd cebd d10b e7bd
00000200: d8d5 f33d 0a45 19be 520d 81bd 4fc9 a03e
00000210: 43ac 41be a321 a7bd df50 aebc dd99 52bc
00000220: a7fe e33d 8406 8c3e 4eb4 91be 6d84 82bd
00000230: b1aa 1d3d d465 32ba 1535 71bd 1bc0 edbd
00000240: c5bc 33be 87dd 343e 0412 66bd 4fa0 183e
00000250: 063e 71bc 10d2 88bc f518 abbd 5416 0bbe
00000260: 0e8f 263e f0ad 983d 18d5 b2be 1465 12be
00000270: 6e16 5c3d 983e 02bf f475 24be 9b3e 11be
00000280: 407f b8be 3c47 803c 1560 2d3e 6860 83bd
00000290: f7a8 cb3d d40b 23bc 3165 f4bc 7436 a63d
000002a0: bfd8 46be d862 10bc 64c6 013e a948 0c3d
000002b0: 95c9 473d dfd3 16be bba1 b9bd 1e7a cc3d
000002c0: c1e6 efbc 56fa 043e dd5d a53d 8a7e b3bd
000002d0: b1b8 32be 68be f1bd 24bb 6d3e 0fc0 5bbe
000002e0: 1a74 4fbd 5662 9a3e f84f e7bd ab52 0ebe
000002f0: 839b 1b3c 99fb a1bd 8873 b2be eba1 533e
00000300: 25ea 6fbc 1398 f13d 9639 493e 904e 79be
00000310: 5036 c33c 6bfe 9b3e 5c59 223e 9e6b 723d
00000320: a648 3fbe f877 d43c 8feb 943d 724a ccbe
00000330: f52d 7bbd 6b96 493e d517 9dbd f49f 2bbe
00000340: 2f30 05be 9d5a f13d f3fc 98be e98e 0cbe
00000350: a40f d33c 7139 143e cc9a 433d b558 fdbc
00000360: fa75 45bd a3a9 1e3e e967 2e3e 3fda 68be
00000370: bdf6 b93c 2db4 0c3e e0b1 a9be c6f1 52bc
00000380: 919d 8c3e 9066 80be 9c06 60be ef09 2dbf
00000390: 4f91 213d b5be c2be 41a5 603d 8f6a 013e
000003a0: 6bbb 84be 95d7 4bbb f1e7 7bbe 7b44 793e
000003b0: e81a 5a3b 1ea4 7cbe b071 7cbe 60a0 863d
000003c0: 856d 4bbe 7113 afbd c195 25be 6b7a 5d3e
000003d0: d2fc 70bd 058d 1c3c dfec 913c b6d9 e7bd
000003e0: 7e6f a73d 34be 963c a99c 013e a68c 953d
000003f0: ac1b cbbd 8513 3ebd 16ed 24be 7179 9cbe
-0.32040355 -0.2720029 0.40611252 0.022328775 -0.29338437 0.09508299 -0.011423282 -0.30585897
0.106291324 -0.1438365 -0.27521583 0.10541952 -0.0976143 -0.14347509 0.11605611 0.028122801
0.18589926 -0.079521544 -0.09332444 0.121759094 0.21029985 -0.1345105 0.23888561 0.16250229
-0.17875296 -0.057238016 0.21018395 -0.009081598 0.1416788 0.28617972 0.1027216 0.110447995
0.30298042 -0.10491196 0.15506856 0.2978897 0.12005827 -0.17795283 0.29794276 -0.12629667
-0.20176353 0.35035318 0.055251796 -0.16049108 0.33721066 -0.09198273 -0.12509085 -0.038970895
0.09504337 -0.00068432663 -0.1455868 0.20918523 -0.08681673 -0.09647921 0.09650955 -0.39452636
-0.3976384 0.16683894 -0.33514947 -0.33312613 0.38231564 -0.32455567 -0.29056895 0.23419471
0.051544014 0.039469577 0.103539 -0.28707877 -0.34747633 0.25816604 -0.020035269 -0.056696746
-0.05436571 -0.15373346 -0.3499313 0.14135636 -0.2162272 -0.20596388 0.19213358 0.10196743
0.1036602 -0.097185515 -0.25504655 -0.0689445 -0.077284545 -0.11568562 0.018983217 0.10019848
0.11368089 -0.08256394 -0.0855543 0.042675696 -0.052418936 -0.02954789 -0.08095782 -0.15902543
0.24955279 0.014844897 -0.329306 -0.059572548 0.097885996 0.071457714 -0.26140323 -0.032979757
0.01618738 0.041541636 -0.010955829 0.105852894 0.19447172 -0.027209226 -0.5454449 -0.19324052
0.07378137 0.013690629 0.057221726 0.060690638 -0.08637415 -0.3010826 0.023614418 0.44808063
-0.044087462 -0.06961331 0.24000923 0.01204337 -0.18818559 0.15781169 -0.10106934 -0.11281551
0.11906022 -0.14967743 -0.06301369 0.31403586 -0.18913369 -0.081607126 -0.021278797 -0.012854067
0.111325555 0.2734872 -0.28457874 -0.063729145 0.038492862 -0.00068053347 -0.058888514 -0.11608907
-0.17552479 0.17662631 -0.056169525 0.14904903 -0.01472426 -0.016701728 -0.083543696 -0.13582736
0.16265509 0.07455051 -0.34928203 -0.1429637 0.053732328 -0.5087676 -0.1606062 -0.14184038
-0.36034584 0.015658967 0.16931184 -0.064148724 0.09944337 -0.0099515505 -0.029833408 0.08115855
-0.1941862 -0.008812629 0.12673336 0.03424898 0.048776228 -0.1472926 -0.09064051 0.099842295
-0.029284837 0.1298612 0.080745436 -0.0876437 -0.17453267 -0.11803895 0.2321592 -0.21459983
-0.050647832 0.3015315 -0.1129455 -0.13898723 0.009497526 -0.079093166 -0.34853768 0.20667236
-0.014643227 0.11796584 0.19650874 -0.24346375 0.02382961 0.30467543 0.158544 0.059184663
-0.18680057 0.025936112 0.07271492 -0.39900547 -0.061323125 0.19686286 -0.07670561 -0.16760236
-0.13006662 0.11784861 -0.29880485 -0.13726391 0.025764294 0.14475037 0.047755048 -0.030926088
-0.048208214 0.15494399 0.17031826 -0.22739504 0.022700662 0.13740607 -0.3314352 -0.012875026
0.27463964 -0.2507825 -0.21877521 -0.6759328 0.039445218 -0.38036123 0.0548451 0.12638305
-0.2592424 -0.0031103839 -0.24600197 0.2434253 0.0033280198 -0.2467198 -0.24652743 0.06573558
-0.19865997 -0.0854863 -0.16170408 0.2162873 -0.05883486 0.009555106 0.017813144 -0.11320822
0.08175562 0.018401243 0.12657417 0.07302217 -0.09917387 -0.046405334 -0.16106066 -0.30561402

cnn.8.bias f4 [48]
00000000: 58a5 e4bd 9ad5 6c3d 3e90 52be 18e4 f83c
00000010: a049 d53d 387a a53b 8115 3e3d 06ae b5bd
00000020: 56f8 8abd 324d 18be 3273 9fbd 6aae 00bd
00000030: a072 b2bc c9c7 a6bd 289c 1abd 0324 e9bd
00000040: 9da7 e6bc 129b 9bbe 6798 b8bc d4d8 193e
00000050: 3bc6 fd3d 5743 0d3d 6815 90bc 8008 893b
00000060: b402 2bbd 188f 80bd 1fea 8ebc 06ae 00be
00000070: 9fa4 383e eb1d 30bd 68f4 303e bcd1 6c3e
00000080: 40d1 383c 586f 2a3c 27b9 0c3d 30fd 0ebd
00000090: 1686 c638 7d5e f3bd 9a7e 87bd 7d2a 62bd
000000a0: 1b0b e6bc 0e98 9e3d 8dce e3bd 4a4e 303d
000000b0: 11cc 243e a1a3 133e 0135 5d3c c7c1 7ebd
-0.11164349 0.057820894 -0.20562837 0.030382201 0.104144335 0.00504997 0.046407226 -0.08871083
-0.067856476 -0.14873198 -0.07785644 -0.031416334 -0.021783173 -0.08143575 -0.03774658 -0.11383822
-0.028156096 -0.30391747 -0.022533609 0.1502412 0.12391325 0.03448805 -0.017588332 0.0041819215
-0.041750625 -0.06277293 -0.017445622 -0.12566385 0.18031548 -0.042997282 0.17280734 0.23126882
0.011280358 0.010402523 0.034356263 -0.034909427 9.466351e-05 -0.118832566 -0.06615944 -0.0552163
-0.028081467 0.07743846 -0.11123381 0.043043412 0.1609347 0.14417888 0.013501407 -0.06219652

cnn.9.weight f4 [48]
00000000: 6f4d 803f a4ff 723f 3867 523f c752 6b3f
00000010: 968d 453f 71a4 6c3f 852d 5e3f 0d74 583f
00000020: 6426 603f 8ff7 533f 709b 5c3f 5bf1 533f
00000030: d0ee 893f e648 733f 44dd 453f afe3 563f
00000040: 04ed 903f 8e6c 713f aa8d 343f 5eaf 433f
00000050: c268 4a3f 30be 643f d4f6 803f 41cc 4b3f
00000060: 1e60 843f a9cd 683f 50a0 653f 1b07 623f
00000070: 09a9 553f 4721 603f 8104 753f b297 8a3f
00000080: 33c6 613f be00 573f 7617 783f 678a 4f3f
00000090: a14d 0f3f 6062 803f 8c66 3e3f fbcb 3e3f
000000a0: 4cad 423f c9dc 7f3f 652d 663f 6740 543f
000000b0: 937d 693f 0ac6 433f c128 6f3f 4b8a 5b3f
1.0023631 0.94921327 0.8218875 0.91923183 0.7716917 0.9243842 0.8678821 0.8455208
0.8755858 0.8279962 0.8617468 0.82790154 1.0776005 0.9503311 0.7729075 0.8394117
1.1322331 0.94306266 0.7052866 0.76439464 0.790661 0.89352703 1.0075326 0.7960854
1.0341833 0.9093881 0.8969774 0.8829209 0.8346105 0.8755078 0.9571 1.0827544
0.88193053 0.8398551 0.969108 0.8107056 0.5597783 1.0030022 0.74375224 0.7453
0.7604568 0.99946266 0.89913017 0.8291077 0.91207236 0.7647406 0.9342156 0.85757893

cnn.9.bias f4 [48]
00000000: faaf cbbe e6e7 2cbf 7b8e 03bf 7348 f0be
00000010: 15bd d7be 4952 92be f98a d5be 6bf1 0fbf
00000020: 38cf 00bf 35d8 26bf 3880 2dbf aea7 0bbf
00000030: 1773 49bf 81e2 15bf d121 07bf 4a82 c7be
00000040: efd4 0dbf 0151 a5be 4f05 bcbe ecc5 bcbe
00000050: 6e31 acbe 6c58 1cbe 456d 20bf 1065 d5be
00000060: 569a 29bf a441 04bf 36d7 15bf af97 0bbf
00000070: 4b7f 01bf 7856 0ebf 4f58 37bf 2c1a 4fbf
00000080: b3cd 02bf b1be bbbe abf9 17bf fb6a acbe
00000090: f373 c3bd 4a49 1fbf e844 cfbe a28f 97be
000000a0: b793 8bbe fad1 22bf ed50 0cbf 23ad edbe
000000b0: d795 05bf ff3d b1be ec98 3ebf 90a5 1cbf
-0.39782697 -0.6754135 -0.5138928 -0.46930274 -0.42136446 -0.28578404 -0.4170759 -0.5622775
-0.5031619 -0.65173656 -0.6777377 -0.54552734 -0.7869124 -0.5854874 -0.52785975 -0.3896659
-0.55403036 -0.32288364 -0.367228 -0.36869752 -0.33631462 -0.15268105 -0.6266673 -0.41678667
-0.6625112 -0.5166266 -0.5853151 -0.54528326 -0.5058486 -0.5560069 -0.71619123 -0.8089931
-0.5109512 -0.36668923 -0.5936534 -0.3367537 -0.095436 -0.62221205 -0.4048226 -0.2960177
-0.27261135 -0.6360165 -0.5481098 -0.46421155 -0.5218176 -0.34617612 -0.7445209 -0.6119013

cnn.9.running_mean f4 [48]
00000000: 6c27 d4bf f295 0fc0 43ae e7bf 3ccd dabf
00000010: c6b1 23c0 8a80 80bf d408 afbf 9743 19c0
00000020: 9dbf 01c0 e863 0ec0 7355 38c0 0e3e 20c0
00000030: 29ec a9bf da71 edbf e1bf 0ec0 6640 0cc0
00000040: 7e69 02c0 bfce 34c0 d084 79bf 8727 88bf
00000050: f224 90bf e531 9dbf 3b2e cdbf 1c9a 1ac0
00000060: a83d 29c0 7282 14c0 6dfd d6bf 23fe 02c0
00000070: fdf3 44bf 929a ecbf 3fdc 04c0 3c0f b0bf
00000080: 9b98 f4bf 1830 bbbf 2169 05c0 0db9 89bf
00000090: 73fb cf3e 0465 0ec0 c646 ffbf 64d2 3ebf
000000a0: 2037 a8bf 378d cbbf ca33 f8bf 87bc c6bf
000000b0: ed75 0ec0 e285 e9bf b98b dfbf e8e6 c7bf
-1.6574531 -2.243527 -1.8100055 -1.7093883 -2.5577254 -1.0039227 -1.3674569 -2.3947504
-2.0273201 -2.2248478 -2.8802154 -2.5037875 -1.3275195 -1.855037 -2.2304614 -2.1914306
-2.0376887 -2.8251188 -0.9746828 -1.0637063 -1.1261275 -1.2280852 -1.6029733 -2.415656
-2.6443882 -2.3204618 -1.679609 -2.0467613 -0.76934797 -1.8484671 -2.0759428 -1.3754649
-1.9109071 -1.4624052 -2.0845416 -1.0759598 0.40621528 -2.2249155 -1.9943473 -0.7453978
-1.3141823 -1.590247 -1.9390805 -1.5526284 -2.2259476 -1.8243983 -1.7464515 -1.5617342

cnn.9.running_var f4 [48]
00000000: 3b85 a040 4e05 4540 3219 6140 5aa2 8740
00000010: d45a 3340 a6c4 8540 25d6 5d40 66ad 1d40
00000020: cc01 3040 8846 3340 5ae1 1e40 4849 4f40
00000030: 0392 0c40 c527 5340 9ab1 5640 42f9 6040
00000040: c5d5 4a40 9f27 7040 2600 2d40 971f 3840
00000050: 5d53 7240 bf6c 8540 5222 5140 da85 6640
00000060: 28b8 b840 ee34 8040 1c80 4240 7028 9440
00000070: 910b 3940 e1ce 3240 416b 6f40 d8d7 6840
00000080: 0332 2340 47bd 8840 aa43 4a40 3549 5440
00000090: d91c 2740 8966 5e40 cca4 1740 749d 1340
000000a0: cc63 5b40 f0fd 5840 5768 4840 faec 2a40
000000b0: 634e 6940 c49b 1340 69be 5940 3136 0b40
5.0162635 3.0784488 3.5171628 4.2385683 2.8024187 4.180255 3.4661953 2.4637084
2.7501097 2.80118 2.4825044 3.2388477 2.1964118 3.2993023 3.35459 3.5152135
3.1692975 3.7524183 2.703134 2.876928 3.786338 4.1695247 3.2677197 3.6019197
5.77248 4.006461 3.0390692 4.629936 2.891331 2.793877 3.7409213 3.638174
2.5499275 4.273105 3.16038 3.3169682 2.6111357 3.4750082 2.3694334 2.3064852
3.427966 3.390499 3.1313684 2.670714 3.6454093 2.3063822 3.4022467 2.1751826

cnn.12.weight f4 [64, 48, 3, 3]
00000000: 12c5 853e 874f 87bd 20e5 b1be fca8 3e3d
00000010: 7de6 9dbb 26f6 a83d f373 febd ba81 963e
00000020: e0fa 8e3e f0e9 543b 9a81 43bf db83 83be
00000030: 9dca 83be 40cc 123b 9535 063f 868b dbbd
00000040: 78a4 2c3c d4cc cf3e 1d7c a5bd bd62 28bd
00000050: 9571 063e c4cf 1a3e 9bba 96bc d0af 113d
00000060: 339c 853e 382c b73c 754b 51bd ee8b ecbc
00000070: c306 afbd 9c58 fb3c 0905 efbd 3f5a 113e
00000080: 0b9e 97bd 0f2d ffbd 63bb 8fbd 3cce edbd
00000090: b0a4 45be b455 363d aa5d 853e 4f73 0a3e
000000a0: ef69 573d e44b 583d 4e60 7c3d b827 8cbd
000000b0: fc95 51be cca0 3d3e af7e 9bbd ffcf 6abe
000000c0: a7b8 a53d bf5a dc3d e5a6 543e 643b bd3d
000000d0: e0e1 04bd 02e1 26be 393f d3bd 4587 65be
000000e0: 38db 8b3d 2e52 b13e 81f3 3d3e bd43 7a3d
000000f0: 1e07 073e fab7 543d 1fdb 5bbe b531 ad3e
00000100: d83f 39be 4a1a 23bf f8b9 4e3c ee85 443e
00000110: 9d5d a73e e623 023e 1004 df3d 78ee 003e
00000120: e4d0 67bd e264 a73d 8519 d33d 550b fabd
00000130: a4b3 64be 8a1b bdbd a8f8 22be 464c 1bbe
00000140: e7a0 b63d 1fac 193d 286d b3be 3b9f 49be
00000150: 3044 133e cee2 413d 067e ab3e f582 8e3d
00000160: 5a5d c43c acf1 603e 8711 4ebe 0ed5 8cbe
00000170: d643 e73d fee0 183e a948 213d 5241 643b
00000180: 9fc3 183d cbe5 c93d 19fc 913e 2f08 903d
00000190: 8452 dbbc 3c7b 26bb 6322 1cbc 2ae7 083d
000001a0: 58eb 35be 179c 753d 2367 37bd e9b0 e0bd
000001b0: 3fa2 f6bd beee b43b d809 0dbf 6f8d 82be
000001c0: 5e40 233d 34a5 aa3d 253f 6a3e 2166 883e
000001d0: 00d7 cf3e 01f9 73bd 2c90 263d 147e 06bc
000001e0: e311 5fbe 9376 44be 4217 783e 17d4 87be
000001f0: d927 e63c c99b 963e 9d09 57bc 18c7 d7bd
00000200: 2498 e4bd 1cf7 abbd 19cd 783d 83cd bd3d
00000210: 403b 11be 2826 e7bc 38c5 9ebd 70d5 8fbe
00000220: 50f2 233d 8b43 ac3b 75dc 2bbe 4d08 0a3e
00000230: e635 5a3e 3ba6 e6bd a0be aabc 26dd 123e
00000240: 6c42 053e 6824 203e 0162 20bd 9fe3 acbc
00000250: 3057 a63d c536 45be 7ae6 29be edd8 133e
00000260: 330b 823d b604 8abe 2841 dd3c a78c a23d
00000270: 6f92 183d 1a32 873e a1c4 703d ef3e 07bd
00000280: c5de d73c 471b 6fbe 26df f2bd a60d 0ebe
00000290: f3ab b2be eb2e c3bd 1eff bfbe 91e1 2cbe
000002a0: 5601 c5bb fdf0 69bd 9980 b8bd b8e3 dbbc
000002b0: 481d d93c 8ffd 283d 1323 e7bb 3aff 0bbe
000002c0: 4b5f ddbd 5bec cdbd 5365 debd 6a67 9e3d
000002d0: c2ce 65bd a6cb b7be 7466 d5bd 931b 71bc
000002e0: a2ae de3d bc0f 213e 8439 18be 1fef 0bbe
000002f0: b5f6 8dbd a7b4 9c3c 562d 0abe 09a7 10be
00000300: 9ef3 2b3d f228 ba3d 53c2 29bd cc3d 77bd
00000310: 3bb5 6abd 28f0 1c3e 9999 953e c058 a43e
00000320: 880e fc3e 7193 103e 86e2 c9bc ebfc 94be
00000330: 0c67 64be 3802 e6be 3ffb b9be b02c 8e3e
00000340: 786d 5b3e 313e 10bd 2dfd 483d 8183 393e
00000350: e581 7dbd c4d6 8f3c aa0f b6bd 3cd8 2abd
00000360: cc72 1f3b b041 323e f030 ea3e 5c2d 78be
00000370: 83d1 d6bd f40e 54bd d4de 67be a3ff f43b
00000380: 62fb 393d 1561 4cbe 8887 573c 8b94 84bd
00000390: ec52 083e aacc 0abe b263 89bd 7437 5a3d
000003a0: 8f7d 353e a223 193e 8a3d 373e f826 dbbd
000003b0: 54db 4a3e 857f 863e 37b1 e0bd 17e9 2cbe
000003c0: 46f0 123e bff3 cbba a5c0 c23b c42a f73d
000003d0: a95f 2f3e f686 2a3e 7475 2fbe 8aac 3fbe
000003e0: 36f8 ab3d 7d76 863d ba7e 6b3e e916 113e
000003f0: 3638 d43d e0e2 29bc 8c1a f83d 0db3 463c
0.26126915 -0.066069655 -0.3474512 0.046547875 -0.004818736 0.08250074 -0.12424459 0.2939585
0.27925777 0.003248807 -0.7636963 -0.25686535 -0.2574052 0.0022399575 0.5242551 -0.10719971
0.010537259 0.4058596 -0.08080313 -0.04110979 0.13129266 0.15118319 -0.018399527 0.03556806
0.26095733 0.022359952 -0.051097352 -0.028875317 -0.085462116 0.0306819 -0.11670882 0.14194582
-0.07403191 -0.12459766 -0.07018163 -0.11611602 -0.19301105 0.044515327 0.26048023 0.13520549
0.05259126 0.05280675 0.06161528 -0.06843513 -0.20467371 0.1851837 -0.07592522 -0.22930907
0.0809186 0.10759496 0.2076679 0.092398435 -0.032441974 -0.16296771 -0.10314793 -0.22414882
0.06828922 0.3463301 0.1854992 0.061099757 0.13186309 0.051933266 -0.21470307 0.33826986
-0.1809076 -0.6371199 0.012617581 0.19191715 0.3268861 0.12709007 0.10889447 0.12590969
-0.056595698 0.08173539 0.10307602 -0.12209193 -0.22334152 -0.09233768 -0.15915167 -0.15165815
0.089174084 0.037517663 -0.35044217 -0.19689648 0.1438148 0.04733544 0.33494586 0.06958572
0.023970295 0.2196719 -0.20123874 -0.27506298 0.112922356 0.14929578 0.039375935 0.0034828973
0.037295934 0.09858283 0.28512648 0.07032811 -0.026772745 -0.0025403043 -0.009529683 0.03342358
-0.17765558 0.059963312 -0.044776093 -0.10971243 -0.12042665 0.0055216243 -0.55093145 -0.2549853
0.039856307 0.08332291 0.2287565 0.26640418 0.4059372 -0.05956364 0.040664837 -0.00820877
-0.21784167 -0.19185857 0.24227622 -0.26529 0.028095173 0.2941573 -0.013124851 -0.10536021
-0.11161831 -0.08396742 0.06074247 0.09267714 -0.14182758 -0.028216437 -0.0775246 -0.28092527
0.04002601 0.005257075 -0.16783316 0.13479729 0.21309623 -0.11262175 -0.02084285 0.14342174
0.13013619 0.15638888 -0.039155964 -0.021104632 0.081220984 -0.19259174 -0.16591826 0.1443822
0.06349792 -0.2695672 0.027008608 0.079369836 0.037249025 0.26405412 0.05878127 -0.033019003
0.026351342 -0.23350249 -0.118589684 -0.13872394 -0.34896812 -0.09530433 -0.37499326 -0.16882922
-0.006012122 -0.05711459 -0.09008903 -0.026841983 0.02650322 0.041257437 -0.0070537417 -0.1367158
-0.10809191 -0.10054847 -0.1085917 0.077345684 -0.056105383 -0.3589756 -0.10419932 -0.014716047
0.10873152 0.15728658 -0.1486569 -0.13665436 -0.06931821 0.01912911 -0.13493857 -0.14126219
0.04198038 0.09089841 -0.041445088 -0.06036167 -0.05730174 0.15325987 0.29218748 0.3209896
0.49229836 0.14118744 -0.024644148 -0.2909921 -0.22304934 -0.44923568 -0.36324498 0.2776847
0.21428478 -0.03521556 0.049069572 0.18116571 -0.061891455 0.017558463 -0.088897064 -0.041710123
0.00243299 0.1740787 0.4574046 -0.24236053 -0.1048918 -0.051772073 -0.22643596 0.0074767633
0.045405753 -0.19958909 0.013154872 -0.06473645 0.13312882 -0.13554636 -0.067084685 0.05327554
0.17723678 0.14954999 0.17894569 -0.10700792 0.1981023 0.26269165 -0.10971301 -0.16885792
0.1434947 -0.0015560313 0.005943375 0.12068704 0.17126335 0.16653046 -0.17134649 -0.18718162
0.08396952 0.065655686 0.22997561 0.14168896 0.10362284 -0.010369033 0.121144384 0.01212765

cnn.12.bias f4 [64]
00000000: 1637 6a3d 832f 3dbd c31c b03c e1a7 043d
00000010: 875a 30be 3d33 b73d f866 7a3c 83be 8aba
00000020: 85e9 86bd 37ac 3a3d cf63 903d 35dd d63d
00000030: 971e 463d 61a5 98bd c35b dabb e9d1 f93d
00000040: a11b b5bd 3e08 6fbd f648 b3bc 39e5 eb3d
00000050: 0739 543d b90e 9cbc c824 cc3d 06c8 b03c
00000060: 9482 e1ba 53df 29bc a142 653d 126f d23d
00000070: bcd4 a63d 81ad 083b 6545 04bd 2f58 b13d
00000080: 05c8 26bd e566 b6bc 2a1d 15bd b257 8b3d
00000090: b08d f63c b130 09bd 0372 8e3c c9b0 e93c
000000a0: e773 de3d aa81 e7bc edcb 52bc 8221 543c
000000b0: 8b0f 25bc 220a 1d3d d3cc a73d 6276 0ebe
000000c0: bf60 48bd a32e 9bbc d2b2 b8bd 2d5d a73c
000000d0: 9058 e8bc 6606 193c 62bf 7bbc 1614 eebc
000000e0: 7259 b03b 5b58 fd3d b895 083d 63f6 fb3c
000000f0: 4abd fe3b 916e 18be c59a 503c 87a7 40bd
0.05718144 -0.04618789 0.02149809 0.032386664 -0.17222033 0.0894532 0.015283339 -0.0010585341
-0.06587509 0.045574393 0.07050287 0.10491411 0.048369016 -0.074534185 -0.006663771 0.1219824
-0.088431604 -0.05835747 -0.021885376 0.1151833 0.051812198 -0.019049989 0.09967953 0.021579754
-0.0017205053 -0.010368186 0.055971745 0.10275091 0.081460446 0.002085537 -0.032292742 0.08659398
-0.040718097 -0.02226586 -0.036404766 0.06803836 0.030096859 -0.0334937 0.01738835 0.02852668
0.1086195 -0.02826007 -0.0128660025 0.012947442 -0.0100745065 0.03833974 0.08193364 -0.13912347
-0.04892039 -0.018943137 -0.09018482 0.020430172 -0.028362542 0.009339904 -0.015365453 -0.029062312
0.0053817565 0.12370368 0.033345908 0.030757135 0.00777403 -0.14885928 0.012732212 -0.047034767

cnn.13.weight f4 [64]
00000000: e922 3c3f bb11 6d3f 2a78 5f3f 0e16 593f
00000010: 2786 323f 397f 333f 6e01 2d3f caa1 373f
00000020: 4380 2e3f 4039 413f 21fa 5a3f 36b8 3d3f
00000030: 2b1a 3a3f d2c7 503f eba9 6c3f d5d9 2e3f
00000040: ed6a 2d3f 37ed 303f 0201 4b3f 6503 5b3f
00000050: 0d8b 523f eb2f 593f 4abd 4a3f 9f20 463f
00000060: 16aa 323f 8b5a 813f b1a3 373f a1f0 3e3f
00000070: 1cea 4d3f b3f0 453f 37cc 693f e4c0 3f3f
00000080: 1166 3a3f a96c 3b3f 781a 403f 5d8f 303f
00000090: 6c04 433f b1eb 533f f7e1 383f e150 3d3f
000000a0: 6a74 5f3f d2cb 303f 0d45 333f beac 2e3f
000000b0: c557 5f3f bf7c 453f f2a2 5f3f b927 423f
000000c0: 55bb 4c3f a379 323f e098 453f 8259 583f
000000d0: 828b 363f cb7f 3c3f cd52 483f 2fd0 6b3f
000000e0: 1a7b 553f 7689 4a3f 9282 6f3f 3af4 4b3f
000000f0: c4d9 4c3f e062 3f3f 70a1 3e3f 5115 553f
0.7349077 0.9260518 0.8729273 0.8479928 0.6973595 0.70116 0.67580307 0.71731246
0.6816446 0.7547798 0.85537916 0.7410921 0.7269618 0.815549 0.92446774 0.68301135
0.6774128 0.6911196 0.7929841 0.85552055 0.82243425 0.8483874 0.7919508 0.77393526
0.6979078 1.0105757 0.7173415 0.7458592 0.8043535 0.773204 0.9132723 0.749037
0.7281199 0.7321268 0.7504039 0.68968755 0.7617862 0.8278151 0.72219795 0.73951536
0.8728701 0.69061005 0.7002724 0.68232334 0.872433 0.7714347 0.8735801 0.7584186
0.79973346 0.6971685 0.77186394 0.8451158 0.7130662 0.73632497 0.78251344 0.9211454
0.83390963 0.79116 0.9355861 0.79669535 0.80019784 0.74760246 0.74465084 0.8323565

cnn.13.bias f4 [64]
00000000: f5af 97be f538 17bf 9e8d c1be 4684 e9be
00000010: 7f4b adbe d459 f7be 00db debe 1481 bdbe
00000020: d767 aebe 2fc9 c7be 32e6 f3be 9441 cfbe
00000030: 5ecd bebe 562a e0be 0154 95be f5e9 bbbe
00000040: 142d b4be c6fa cbbe 85b1 eabe 6f68 7bbe
00000050: 8a26 b3be 8f74 63be 85ef 97be 4155 4fbe
00000060: 2ed9 acbe e061 cebe 25f4 69be 6b3e 94be
00000070: 270c 86be a503 9cbe d49e efbe 263f d1be
00000080: e345 92be a4bc d9be c77e abbe 0090 8ebe
00000090: 80ac e4be e147 a6be dcfa 67be 279a b1be
000000a0: fd84 dcbe bb3b d4be c086 ccbe 3d4a 84be
000000b0: 2699 e8be 40c4 bfbe d970 54be 24f7 6abe
000000c0: 22bc cfbe b344 e1be 17c9 e6be 883d aabe
000000d0: 59eb 90be ce10 e7be b65d cdbe 758d 35be
000000e0: dc18 fabe 55b7 eebe ac06 d7be 3458 87be
000000f0: 58bf 93be 774a 0dbf d339 b4be c146 1fbf
-0.29626432 -0.59071285 -0.37803358 -0.4560873 -0.3384666 -0.4831072 -0.4352646 -0.3701254
-0.340636 -0.39020678 -0.47636563 -0.4047972 -0.37266058 -0.437823 -0.29165652 -0.36701933
-0.35190642 -0.39839762 -0.45838562 -0.24551557 -0.3499034 -0.22212432 -0.29674926 -0.20247366
-0.33759445 -0.40309048 -0.2284704 -0.2895387 -0.26181147 -0.3047153 -0.46800864 -0.4086849
-0.28568944 -0.42526734 -0.3349516 -0.27844238 -0.44662857 -0.32476714 -0.22654289 -0.3468792
-0.43070212 -0.4145182 -0.39946556 -0.2583789 -0.45429343 -0.37454414 -0.20746173 -0.22945839
-0.4057322 -0.43997726 -0.45075294 -0.3325007 -0.28304556 -0.45130008 -0.40110558 -0.17729743
-0.4884709 -0.46624246 -0.41997278 -0.2643448 -0.2885692 -0.5519175 -0.35200366 -0.62217337

cnn.13.running_mean f4 [64]
00000000: f15e 7cbf 58df 03c0 7fb7 a1bf 0c07 adbf
00000010: 26b0 cfbf 5c32 9ebf 2f08 afbf 8171 f9bf
00000020: 4cb2 f8bf 3cb9 92bf 23c3 b6bf 9c3d fbbe
00000030: ba3b d6bf 439d a2bf 9f55 c5bf 2039 8ebf
00000040: 618b eabf 5f10 c6bf 82c9 acbf 153d bcbf
00000050: 9778 ddbf 0732 a9bf 1f59 dfbf 86d9 aabf
00000060: cb93 ccbf f700 c0bf 32bc b2bf 008f b3bf
00000070: 64ca b6bf 5810 07c0 6520 e1bf 24a2 09c0
00000080: 3411 b6bf 2016 83bf d16f 05c0 4d79 7dbf
00000090: 91d4 c1bf e21a 09c0 babb bfbf eac0 53bf
000000a0: 155f 3dc0 3da2 b8bf c451 b2bf b881 b0bf
000000b0: 61f9 d4bf be59 87bf 4b48 17c0 3d79 02c0
000000c0: 9d44 d2bf 9716 90bf 61e4 89bf e27e d9bf
000000d0: d4ae 30c0 ab1f 8cbf 312e b1bf 709f e7bf
000000e0: 0805 fbbf ae72 c0bf 9545 debf d4f7 05c0
000000f0: 13a7 e7bf aa27 f7bf 6ca0 44bf 310f 06c0
-0.9858237 -2.0605068 -1.2634124 -1.3517776 -1.6225631 -1.2359118 -1.3674372 -1.9487764
-1.9429412 -1.1462779 -1.4278301 -0.49070442 -1.6736977 -1.2704242 -1.5416754 -1.1111183
-1.8323785 -1.5473746 -1.3498995 -1.4706141 -1.7302426 -1.3218392 -1.7449073 -1.3347633
-1.5982603 -1.5000294 -1.3963683 -1.4028015 -1.4280515 -2.1103725 -1.7588011 -2.1505213
-1.4224 -1.0241127 -2.0849497 -0.99013215 -1.5142995 -2.1422658 -1.4979165 -0.8271624
-2.9589283 -1.4424511 -1.3931203 -1.3789587 -1.6638604 -1.0574262 -2.3637874 -2.0386498
-1.6427189 -1.1256894 -1.0772821 -1.6991847 -2.7606707 -1.0947164 -1.3842221 -1.8095531
-1.961091 -1.5034997 -1.7364985 -2.0932512 -1.8097862 -1.930898 -0.76807284 -2.0946772

cnn.13.running_var f4 [64]
00000000: 2f03 1f40 0baf 3740 1095 3740 772d 2540
00000010: 0a02 3040 f170 0d40 ae91 f93f a0ec 1240
00000020: 84f7 3840 7878 2440 a47f 2540 dc9c b03f
00000030: 9b30 fb3f 8d53 2640 3b9c 9640 ba1d 0340
00000040: 5948 ee3f 287d 1040 9600 0d40 c112 5d40
00000050: c9c4 2040 d46e 4140 397c 7040 245f 2940
00000060: 354b 3540 332d 6140 4a90 1740 cb88 1b40
00000070: 9ca4 4640 5bda 4340 0e5b 3640 e988 2640
00000080: 1a64 3340 d4a0 1f40 47b3 5e40 0c41 1e40
00000090: 247a 1140 fd5b 9140 d79b 5d40 5017 d73f
000000a0: f41c 8a40 db49 1a40 e485 0440 3b98 3940
000000b0: 1ee0 3640 18a6 0940 588d 3940 0786 6340
000000c0: 6701 2940 d1cc f63f 0350 0340 fe65 1640
000000d0: 4b0b 2540 6ea3 d63f 8fa3 0240 d63e 8e40
000000e0: 6dc5 3540 ec7a 0e40 16ef 8640 db36 3740
000000f0: a766 6340 907d d83f 2de5 3440 7f7c 3440
2.4845693 2.8700588 2.868473 2.5809 2.7501245 2.2100184 1.9497583 2.2956924
2.8901072 2.5698528 2.5859156 1.379787 1.9624208 2.5988495 4.706571 2.0486894
1.8615829 2.257639 2.2031608 3.4542696 2.5120108 3.0223894 3.757582 2.646432
2.8327153 3.5183837 2.3681817 2.4302242 3.103797 3.0602024 2.8493075 2.6021063
2.8029847 2.4941912 3.4796922 2.4727201 2.2730799 4.542479 3.4626367 1.680399
4.3160343 2.4107578 2.070672 2.8999164 2.857429 2.1507626 2.899252 3.5550554
2.6407106 1.9281255 2.0517585 2.349975 2.5788143 1.6768625 2.0412328 4.4451704
2.840175 2.2262526 4.2166853 2.862723 3.5531404 1.6913319 2.8264878 2.8200986

cnn.16.weight f4 [64, 64, 1, 1]
00000000: 54fb 9b3d 0cb8 8e3e e5de ab3d acec 463e
00000010: a47e b43d c779 f23c 78b3 c33d ae5a 333d
00000020: 6cd2 9dbd 97c5 a53c 902b aebd 4236 263d
00000030: 28d1 5f3d c65a 5a3e ba9d f23d a1e2 fdbd
00000040: a35a 09be 0231 153e 73c0 e2bd 58ed 153e
00000050: 92e8 523b 5342 043d 5533 6a3e 9125 8b3e
00000060: 8767 773e 9602 1bbd d5be 20be c2c6 023e
00000070: 048a 48be b04a 1cbd 539d 9abe d591 66bd
00000080: f77a 71be 7413 5d3e c3a2 403e cb53 52bd
00000090: 0102 0c3c 90a7 d6bc e817 353e 16f3 4c3d
000000a0: 233e 70bd 030f 9b3d 9dad 90bc 9f75 663e
000000b0: 1ec1 95be dcbf 0ebe 27ca 18bd 874a 163e
000000c0: ea65 453e a976 6abd 7bd5 eebc 0c84 92be
000000d0: a1a8 66be 79bd 253e 3f40 f1bd 8124 b0bd
000000e0: 1e8f 693c b5c7 893e 35ed 1d3e 14d7 863d
000000f0: 74cb b43e 0b48 673d 0e8b 213e c669 8c3e
00000100: 3673 6a3d c483 84bd a1e6 3d3e e641 b5bb
00000110: 0616 91be 0fc0 883d 8f45 913d a2da 4e3e
00000120: 26a0 3cbe ec35 253e ce8c 63bd ea92 b9bd
00000130: da5a 143d bc94 93be 726a 8c3e 90c3 673c
00000140: e16b 78be 8563 93bd 6ca0 013d aa1f 653d
00000150: 3afd 78bb adbd cabd f66a ef3d 8037 9a3e
00000160: dc2f adbd b61c bf3d 7b69 ec3d 0993 3dbc
00000170: 566d f13d 7c94 863e b3ac 06bc 63f7 cebd
00000180: 81cc 74bd 35b4 3bbd bacf 89be f199 623e
00000190: 9084 e13d 8ca9 77be ebcc 03be 01f9 063e
000001a0: dd7b dcbd 8751 d13d 08a9 ac3d 2d4f efbd
000001b0: a691 b73d 23bd 0abd e9c5 39be 3077 c8bd
000001c0: d192 c9bd 9068 8fbc 0692 a13d abe2 7bbe
000001d0: 1cf6 883e e3e8 393d ede1 1fbc 2054 3dbe
000001e0: 7eb3 933e ec46 9dbd 5dcd aebd d84b 623e
000001f0: 0f71 f4bd 4f57 a03d 368b eebd 9356 053e
00000200: 36ea 21bd e3c1 3abd 8b29 80bd f9cd 663e
00000210: a757 6ebe 788a 133e dbc6 463d 2c33 2d3e
00000220: 5bcf 4abd 7a2b adbd be4f d8bd 38cb 36be
00000230: 5955 803e 8015 65bd 83e3 a1bd 6169 4f3e
00000240: b7b1 dabd 63f9 69bc 4ab4 183e c02c fd3d
00000250: a8e3 0b3c c3ad 87bc 4ad7 9cbe 4e11 babd
00000260: b371 8a3d ddbb 933e ca03 383d c2de 853d
00000270: e131 d8bc e2e5 353e 55e3 63be 06f8 dfbc
00000280: f95c 5b3e ffb1 9dbe c314 82be 552b 4cbd
00000290: 34c6 693c c877 b5be 36b1 e7bc 4934 063e
000002a0: 1483 a53e 5d67 893d adad c93b 5c87 9dbe
000002b0: b40f 4dbe 3cf3 55bd 0ea7 233e 792b 213e
000002c0: 13d5 38be f5c9 b0bd 60f4 59bd 25dd 34bd
000002d0: 819d 973c 5544 34bb bc29 95bd 1fe8 41be
000002e0: 608d 0fbe aa56 98bd 0465 61be a397 913c
000002f0: 735b 6e3e 34be 6ebd f975 febc e216 873e
00000300: 8d7b 9c3d 56cb 06be 874e 773d 597e d0bc
00000310: 466b 58be 9aba 483e 78a4 f93d 57bc dc3d
00000320: 5389 08be f369 23be a919 fcbc bfa5 903b
00000330: 2143 f5bd 31b9 673e 584f a63e 3d8b ba3d
00000340: ae4e 15be 9ec3 243e 2b9e 09bc 7f0e 213d
00000350: 817c a03d 28e8 3b3d 9f88 363e 6266 84bb
00000360: 35cf e03d f42b 7a3d b0ea 523d 6480 c4bd
00000370: d84e 6fbd 84c5 873c 6ac7 263e 1114 293e
00000380: 8c1d 0c3e 23bc f0bd b0a2 a83d fa15 3a3d
00000390: f5cd 7ebe 433d 983e 34a4 003e fb3b a1bd
000003a0: 85be bb3c 1d28 b83d 9df7 3b3d 671b 1d3e
000003b0: 6e3f f93c baa9 32bd 08b1 d1bd 1a06 6ebe
000003c0: b06f 793e cd46 24bb 3707 73bd 0475 2abe
000003d0: 745d 00be e484 cd3d d995 443c 0195 2bbe
000003e0: 71cc 9c3c 25fc 22be b49f 4bbe 22c1 fa3d
000003f0: 0f45 42bc e314 8d3d 5119 c6bc 94b2 163e
0.076162964 0.27874792 0.08392123 0.1942622 0.08813217 0.029599084 0.09555715 0.04378765
-0.077061504 0.02023582 -0.08504403 0.040579088 0.054642826 0.2132369 0.1184649 -0.12396742
-0.13413481 0.14569476 -0.11071863 0.1464132 0.003218208 0.032289814 0.22871144 0.27177098
0.24160586 -0.037844263 -0.15697797 0.12771133 -0.19583899 -0.038157165 -0.30198154 -0.05629142
-0.23582064 0.21589452 0.18812089 -0.051349442 0.0085454 -0.026202947 0.17684901 0.050036512
-0.05865301 0.07571223 -0.01766091 0.22505806 -0.292489 -0.13940376 -0.037302162 0.14676867
0.19277158 -0.05724207 -0.02915453 -0.2861637 -0.22525264 0.1618556 -0.11779832 -0.086007126
0.014255313 0.26910177 0.15422519 0.06583992 0.35311472 0.05646519 0.15775701 0.2742445
0.05723878 -0.06470445 0.18545009 -0.0055315373 -0.28337115 0.06677257 0.070933454 0.2020059
-0.18420467 0.16133851 -0.055554204 -0.09061225 0.036219455 -0.28824413 0.2742496 0.014145747
-0.24259903 -0.07196716 0.03164713 0.0559384 -0.0037992732 -0.09899459 0.11690323 0.30120468
-0.08456394 0.09331648 0.11543556 -0.0115707 0.11788432 0.2628516 -0.008219886 -0.10105779
-0.059765343 -0.045826156 -0.26916295 0.22129036 0.110116124 -0.24185771 -0.12871139 0.13180925
-0.107658125 0.10220628 0.08430678 -0.116850235 0.08963327 -0.03387178 -0.18141903 -0.09788358
-0.09842456 -0.017505914 0.0788918 -0.24598186 0.26750267 0.045388114 -0.009758455 -0.18489122
0.2884788 -0.07679543 -0.08535264 0.22099245 -0.11935627 0.07829153 -0.11647646 0.13021307
-0.03953 -0.04559506 -0.06257924 0.2253951 -0.23275624 0.1440829 0.048529487 0.16914052
-0.049514156 -0.08455558 -0.105620846 -0.1785096 0.25065115 -0.055928707 -0.079047225 0.20255043
-0.10678428 -0.01428065 0.14912525 0.12362051 0.008538164 -0.016562348 -0.30633003 -0.09085332
0.06759968 0.28854266 0.04492549 0.06536628 -0.026390972 0.17763475 -0.22254689 -0.027339946
0.21422185 -0.30799863 -0.25406465 -0.049846012 0.014268447 -0.35442948 -0.028282743 0.13105883
0.32326567 0.06709168 0.006154737 -0.30767334 -0.20025522 -0.05223392 0.15981695 0.1573924
-0.18050031 -0.0863227 -0.05321157 -0.044156212 0.01850772 -0.002750655 -0.07283351 -0.18936203
-0.14018774 -0.07438405 -0.2201119 0.017772501 0.23277073 -0.05828686 -0.031062113 0.26384646
0.07640753 -0.13163504 0.060377624 -0.025450872 -0.21134672 0.19602433 0.12189573 0.107781105
-0.13333635 -0.15958385 -0.030773954 0.0044142897 -0.119756944 0.22629239 0.3248241 0.09108589
-0.14580795 0.16090247 -0.008399527 0.039320465 0.07836247 0.0458757 0.17825554 -0.0040405253
0.109770216 0.061077073 0.051493347 -0.09594801 -0.0584248 0.016573675 0.16287008 0.16511561
0.13683146 -0.11754634 0.08234155 0.045431115 -0.24883254 0.2973424 0.12562639 -0.078727685
0.022917995 0.08992026 0.04589044 0.15342484 0.030425753 -0.043618895 -0.10238844 -0.23244515
0.24359012 -0.0025066615 -0.059333052 -0.166462 -0.1253565 0.100351125 0.011998617 -0.16756059
0.019140454 -0.15916498 -0.1988514 0.122438684 -0.011857285 0.068887495 -0.024181994 0.1471656
