models/model_epoch60.pth (torch, 957119 bytes, 61 tensors)

cnn.0.weight f4 [16, 3, 3, 3]
-0.11624272 -0.008782458 -0.064276166 -0.15985431 -0.018848326 0.19490953 -0.011522362 0.21403262
0.013802738 -0.18497778 -0.28301284 0.07219104 -0.26610216 -0.07709022 0.2024407 -0.02200901
0.2026231 0.33295518 -0.25527444 -0.2585169 0.093655095 0.049258742 -0.073661394 0.23848969
-0.080365516 0.06575029 0.24059486 -0.29137132 -0.01644257 0.20032042 -0.07044986 0.016918397
0.05782481 0.1668099 0.0013872003 -0.2936568 -0.38138 0.21893336 0.22570649 -0.060539667
-0.24630278 -0.054894313 0.19995266 -0.08495972 -0.25992018 -0.23857372 0.088598944 0.08507582
-0.105477914 -0.17598656 0.07073179 0.28249767 0.055746466 -0.15870497 0.2083911 -0.03624654
-0.13974482 -0.083445214 0.053228363 -0.08205136 0.09750973 0.19846933 -0.2188844 0.17009966
0.09655524 -0.4179752 0.088354364 0.12392009 -0.07974007 0.31319368 -0.01326507 -0.30413383
0.06301143 0.0891945 -0.20634149 0.1780416 0.12693793 -0.27498534 0.15525658 0.0861829
-0.2464292 0.13726194 0.2929743 -0.21328759 0.09611523 0.09092144 -0.112870835 -0.10246089
0.042539455 -0.21846825 0.11072159 0.2629359 0.018256295 0.25976905 -0.005392259 -0.24192533
0.08780529 -0.051029004 -0.389825 -0.04244768 0.29812324 -0.0111547895 0.15720361 0.15684149
-0.2539152 0.08321834 -0.13028769 -0.25101906 0.0725089 -0.011712142 -0.075891495 0.15626964
-0.23942633 0.16469708 0.13483626 -0.3129074 0.10263809 0.19477418 -0.034604162 -0.0026398092
0.2520553 -0.103145264 -0.08658978 0.14944513 -0.38161424 0.049949273 0.2800969 -0.12022792
-0.0839936 0.10340662 -0.17566532 -0.011669522 0.006167682 -0.22308846 0.20598608 0.044471588
-0.008064439 -0.06549025 0.18511713 0.20296748 0.13585451 0.0007426581 0.16004701 -0.11046527
-0.21799955 -0.12698527 -0.04091746 0.08138998 0.06692083 -0.28551853 -0.50249785 -0.060094427
-0.14835419 0.22542985 0.28029883 -0.11262601 0.16369739 -0.0075169294 -0.10476909 -0.3652054
0.034268506 -0.10446326 -0.14741984 -0.018703356 0.12941825 0.009799298 -0.055270158 0.04274864
-0.2589892 0.024821958 0.281319 -0.31644264 0.20479813 0.22731319 -0.33786836 0.12787619
0.0375795 -0.2936564 0.22485489 0.11186225 -0.2103628 -0.026165435 0.22213699 -0.12876935
0.068846785 0.060095303 -0.19991924 0.07242695 0.11607348 0.15922512 0.12245968 0.18864182
-0.24129736 -0.1302984 -0.26878136 0.09356015 -0.015782744 0.08360261 0.08147493 0.19293724
0.32001397 -0.06556568 -0.28166693 -0.22569986 -0.07891423 0.12377587 -0.10481212 0.2095687
0.12523633 0.15750538 -0.23979428 -0.2077198 -0.15277252 0.031256694 0.069848135 0.013851718
-0.0068751825 -0.074838266 0.106728554 -0.2617662 -0.014614989 0.22445227 -0.017497787 0.093399554
-0.045895588 0.06827954 -0.21314867 -0.1753633 -0.35721794 -0.062334836 0.061242953 -0.036138322
0.15536246 0.39221847 0.2669687 -0.092785984 -0.03683042 -0.3658264 -0.13802212 0.024541188
-0.110974185 0.22919613 0.07636303 0.07674457 0.15418209 -0.15618446 0.09846749 -0.30639312
-0.005530007 -0.07251711 -0.030284986 0.26099154 0.34697753 0.010251924 -0.19795376 -0.070868455
00000000: aa10 eebd 4ce4 0fbc 39a3 83bd d9b0 23be
00000010: ce67 9abc 5d96 473e 4ac8 3cbc 5e2b 5b3e
00000020: e124 623c d16a 3dbe 0fe7 90be e5d8 933d
00000030: 8b3e 88be 7ae1 9dbd 9d4c 4f3e 3d4c b4bc
00000040: 6e7c 4f3e 1a79 aa3e 55b3 82be 545c 84be
00000050: 3ece bf3d 89c3 493d c9db 96bd a436 743e
00000060: ad96 a4bd 17a8 863d 805e 763e 9f2e 95be
00000070: 92b2 86bc cc20 4d3e 0448 90bd 7398 8a3c
00000080: b5d9 6c3d 37d0 2a3e b8d2 b53a 2f5a 96be
00000090: 3d44 c3be 1130 603e 9a1f 673e 71f8 77bd
000000a0: cc36 7cbe dcd8 60bd 64c0 4c3e 5dff adbd
000000b0: 4214 85be ab4c 74be 5d73 b53d 3b3c ae3d
000000c0: ce04 d8bd d235 34be d4db 903d 89a3 903e
000000d0: 6856 643d 8e83 22be 7a64 553e 4077 14bd
000000e0: 4419 0fbe 53e5 aabd fc05 5a3d 8b0a a8bd
000000f0: 2eb3 c73d 8b3b 4b3e 3b23 60be 9b2e 2e3e
00000100: c1be c53d d800 d6be 22f3 b43d d1c9 fd3d
00000110: c34e a3bd ec5a a03e bc55 59bc 6eb7 9bbe
00000120: 230c 813d 9bab b63d 2f4b 53be 8a50 363e
00000130: 04fc 013e e1ca 8cbe 95fb 1e3e a980 b03d
00000140: f057 7cbe 658e 0c3e ba00 963e 1068 5abe
00000150: 10d8 c43d 0535 ba3d d328 e7bd 04d7 d1bd
00000160: da3d 2e3d 24b6 5fbe 00c2 e23d 899f 863e
00000170: 3a8e 953c 7300 853e 8cb1 b0bb 46bb 77be
00000180: 43d3 b33d ca03 51bd 2497 c7be 9edd 2dbd
00000190: 9ca3 983e 94c2 36bc fcf9 203e 0e9b 203e
000001a0: 2c01 82be 616e aa3d 236a 05be 9285 80be
000001b0: 8c7f 943d 49e4 3fbc 006d 9bbd 2605 203e
000001c0: 2d2c 75be 5aa6 283e 8412 0a3e 6635 a0be
000001d0: eb33 d23d e272 473e 18bd 0dbd a600 2dbb
000001e0: 640d 813e d33d d3bd fc55 b1bd 2508 193e
000001f0: f162 c3be 9c97 4c3d dc68 8f3e 0e3a f6bd
00000200: d604 acbd dac6 d33d 9ce1 33be 8631 3fbc
00000210: 441a ca3b 4d71 64be 04ee 523e d727 363d
00000220: b520 04bc c11f 86bd 588f 3d3e b5d6 4f3e
00000230: 721d 0b3e f1ae 423a 5de3 233e 9e3b e2bd
00000240: 463b 5fbe 6d08 02be 1199 27bd caaf a63d
00000250: ca0d 893d 7c2f 92be b3a3 00bf 9325 76bd
00000260: 29ea 17be 15d7 663e 5483 8f3e 77a8 e6bd
00000270: 4aa0 273e 9350 f6bb 2d91 d6bd 34fc babe
00000280: 225d 0c3d d5f0 d5bd 3af5 16be c837 99bc
00000290: 3886 043e 3c8d 203c f662 62bd 3319 2f3d
000002a0: 3c9a 84be 6b57 cb3c 0b09 903e c504 a2be
000002b0: 9ab6 513e cac4 683e 15fd acbe faf1 023e
000002c0: f6ec 193d 225a 96be 5c40 663e 0918 e53d
000002d0: 5969 57be e558 d6bc e177 633e 1ddc 03be
000002e0: 8bff 8c3d 7e26 763d a1b7 4cbe 9554 943d
000002f0: efb7 ed3d e90b 233e 24cc fa3d 522b 413e
00000300: a816 77be f26c 05be b69d 89be 779c bf3d
00000310: d04a 81bc d837 ab3d 54dc a63d 5791 453e
00000320: dfd8 a33e 4d47 86bd a636 90be dd1d 67be
00000330: c99d a1bd 347e fd3d bda7 d6bd 2d99 563e
00000340: f43d 003e 1749 213e a28c 75be 80b4 54be
00000350: 6670 1cbe 0507 003d 8a0c 8f3d 51f2 623c
00000360: 3649 e1bb ce44 99bd 8094 da3d 3806 86be
00000370: b573 6fbc d1d6 653e 8557 8fbc 4448 bf3d
00000380: 03fd 3bbd 25d6 8b3d a543 5abe 7092 33be
00000390: 45e5 b6be d052 7fbd e4d9 7a3d c705 14bd
000003a0: 5617 1f3e dcd0 c83e 1fb0 883e 9406 bebd
000003b0: 7fdb 16bd 994d bbbe ac55 0dbe 9a0a c93c
000003c0: 6f46 e3bd 64b2 6a3e 3864 9c3d 422c 9d3d
000003d0: e9e1 1d3e d2ee 1fbe 53a9 c93d 8fdf 9cbe
000003e0: 1035 b5bb da83 94bd 3818 f8bc afa0 853e
000003f0: 0aa7 b13e b0f7 273c 64b4 4abe 7b23 91bd

cnn.0.bias f4 [16]
0.007970244 0.0074343574 -0.23241313 -0.0284427 0.11840752 0.12294388 0.09466852 0.05552044
-0.19211793 -0.29141077 0.02739795 -0.18506907 -0.30656096 0.16784607 -0.0007627625 -0.2720852
00000000: a095 023c e99b f33b b5fd 6dbe aa00 e9bc
00000010: a47f f23d 00ca fb3d 92e1 c13d 6769 633d
00000020: 90ba 44be cb33 95be aa71 e03c bf82 3dbe
00000030: 8ff5 9cbe d7df 2b3e 20f4 47ba c04e 8bbe

cnn.1.weight f4 [16]
1.1520962 0.64092064 1.113781 1.007037 0.6332762 0.49467257 1.0607162 1.076948
0.4779823 0.637554 1.2934097 0.95209336 1.0902994 0.6987878 0.87982297 1.0256128
00000000: e377 933f 6013 243f 6090 8e3f 97e6 803f
00000010: 641e 223f b945 fd3e 8cc5 873f 6fd9 893f
00000020: 19ba f43e bd36 233f 738e a53f 64bc 733f
00000030: ee8e 8b3f c2e3 323f 143c 613f 4847 833f

cnn.1.bias f4 [16]
-0.12780394 -0.36138743 -0.03415614 -0.01851009 -0.054685313 0.21162023 -0.051897176 0.015698044
0.74713063 0.26917207 -0.13274746 -0.05475756 -0.060196374 0.7811653 1.1273518 -0.056413945
00000000: 09df 02be c607 b9be 4fe7 0bbd 79a2 97bc
00000010: b5fd 5fbd f9b2 583e 2292 54bd 2f99 803c
00000020: f443 3f3f ecd0 893e f3ee 07be 7749 60bd
00000030: 7990 76bd 73fa 473f 104d 903f 4f12 67bd

cnn.1.running_mean f4 [16]
-0.009963802 0.049014818 -0.23482369 -0.019169666 0.124063715 0.16166525 0.08940474 0.07720396
-0.18489097 -0.2732189 0.0063497694 -0.18924673 -0.3052724 0.1941163 -0.03862865 -0.2678319
00000000: 373f 23bc c3c3 483d 9f75 70be b409 9dbc
00000010: 1e15 fe3d 938b 253e d519 b73d 1c1d 9e3d
00000020: 0f54 3dbe 59e3 8bbe ba11 d03b e5c9 41be
00000030: aa4c 9cbe 6cc6 463e 1339 1ebd 4321 89be

cnn.1.running_var f4 [16]
0.18287703 0.14434272 0.15082222 0.16963825 0.051111247 0.1722045 0.1540993 0.11827299
0.085826546 0.054449 0.24244137 0.121436775 0.09367477 0.09566534 0.1378016 0.16044952
00000000: 1e44 3b3e 94ce 133e 2471 1a3e a6b5 2d3e
00000010: 075a 513d 6056 303e 35cc 1d3e 1c39 f23d
00000020: d4c5 af3d ea05 5f3d 8d42 783e d8b3 f83d
00000030: 8fd8 bf3d 31ec c33d dd1b 0d3e e14c 243e

cnn.4.weight f4 [32, 16, 3, 3]
-0.103662595 0.04994889 -0.047178984 -0.14263137 -0.00043422106 -0.0045894273 -0.07816692 -0.045318674
-0.019689886 0.06826662 -0.28538266 0.081138246 0.10863512 -0.13617009 0.03564982 0.05439319
0.047132157 0.12463036 0.09965695 0.053536214 0.09178087 -0.059408475 0.10169779 0.1788666
0.005690679 0.086881176 0.08702762 -0.059486605 0.014317265 -0.03943372 -0.15446429 -0.066303015
-0.061237834 -0.06933916 -0.18127732 -0.05983241 0.009931268 0.044328775 -0.021599406 -0.02161522
0.011172423 0.08094311 -0.03513525 -0.035882983 0.04792556 -0.0852144 -0.09959646 -0.0024521
0.0028697425 -0.071728826 0.07845473 0.2882 0.03496557 0.023167003 0.058888417 0.16627127
0.1262361 -0.06761456 0.04202229 0.09578246 -0.06341179 0.028689384 0.03518638 -0.0011300019
-0.1256051 0.032259736 0.0386018 -0.6377358 0.05767378 -0.33581254 -0.49779588 -0.055267338
0.1071866 -0.083823316 -0.0368479 -0.006272119 -0.20904344 -0.04892537 0.092374966 -0.19462106
0.03340282 -0.059025392 -0.022852724 -0.04108308 -0.12882172 -0.25821078 -0.04519551 0.03414339
-0.23497887 -0.08778461 -0.060880788 -0.12474987 0.02382574 -0.21568562 -0.8688484 0.023326565
-0.070424974 -0.6852322 0.079291806 0.089396186 -0.099107124 0.15044962 0.06438485 -0.08089757
0.1236409 -0.10242038 0.04377182 0.109895326 -0.18709518 -0.31560904 0.10511161 -0.12013276
-0.8140204 -0.0010122352 0.0059746765 -0.3576363 -0.036695704 0.17033924 0.03971743 0.08453943
-0.0008204265 0.20242485 0.19449362 -0.08770961 0.15401487 0.08019084 -0.078723155 0.09086842
0.118920654 -0.12831306 0.22030015 0.114647426 -0.034973487 0.12348653 0.043787923 0.11642586
0.07707513 0.11925664 0.12303125 0.044257846 0.09025195 -0.02043535 0.0053419555 0.09060945
-0.1004413 0.26214373 0.099271424 0.017455954 0.24548107 0.10597454 0.037494667 -0.11837124
-0.06782474 0.14091773 -0.2759347 -0.14435817 0.13018046 -0.29267892 0.046205673 -0.03459353
-0.15002446 0.2495723 0.094846934 -0.27628744 0.021011787 -0.023213016 -0.02473074 0.043476824
0.05600617 0.09304165 -0.0071017947 -0.14185604 0.013321036 0.3218975 -0.13510355 0.32523483
0.06102277 -0.07153468 0.25941288 -0.037941378 -0.17649257 0.08687415 0.2501794 0.03776638
0.1844097 0.10617669 0.067634635 0.15355887 -0.110102385 0.105264455 -0.007133417 -0.11060013
-0.0717551 -0.24879283 0.13996387 -0.029642498 0.0011876546 0.3023715 0.06972081 0.26496515
0.10363131 0.028508855 0.03867266 -0.23386428 -0.0070370203 -0.14844635 -0.00034623325 0.09255539
-0.1760273 -0.0077920053 -0.017904785 -0.015910113 0.0477214 -0.036620256 0.07403782 -0.1812289
-0.08800211 0.3144727 -0.1194143 0.033210646 -0.030633448 -0.087033376 0.018280324 -0.16944976
0.14298156 -0.12829551 0.20728488 0.12787838 0.07528122 -0.08820784 0.1344687 0.021864628
-0.033353336 -0.1326213 -0.042875864 0.17830394 -0.19777526 0.10001635 0.018105192 -0.26092714
0.029309513 -0.41573268 -0.07346715 0.06390499 -0.17259453 -0.17831026 0.013898353 -0.5338163
-0.09069655 -0.028969241 0.001041539 0.13445699 -0.040289637 -0.19953293 0.078047626 -0.028301429
00000000: 0e4d d4bd 3597 4c3d c03e 41bd f50d 12be
00000010: 2aa8 e3b9 e862 96bb fa15 a0bd 13a0 39bd
00000020: af4c a1bc 5fcf 8b3d ad1d 92be cf2b a63d
00000030: 177c de3d 2c70 0bbe 8c05 123d 65cb 5e3d
00000040: a60d 413d 343e ff3d f118 cc3d ca48 5b3d
00000050: 9cf7 bb3d 4d56 73bd ee46 d03d ce28 373e
00000060: e078 ba3b c2ee b13d 893b b23d 3aa8 73bd
00000070: f692 6a3c 4185 21bd e32b 1ebe e0c9 87bd
00000080: 86d4 7abd b101 8ebd c3a0 39be d412 75bd
00000090: c2b6 223c 1792 353d 3df1 b0bc 6712 b1bc
000000a0: 8a0c 373c 80c5 a53d fbe9 0fbd 09fa 12bd
000000b0: 984d 443d e384 aebd 3bf9 cbbd 69b3 20bb
000000c0: 4a12 3c3b 90e6 92bd e0ac a03d f38e 933e
000000d0: 0f38 0f3d bac8 bd3c fb34 713d 0443 2a3e
000000e0: 0944 013e 8179 8abd 911f 2c3d 9829 c43d
000000f0: 0ade 81bd 0006 eb3c 981f 103d 921c 94ba
00000100: a09e 00be c922 043d ec1c 1e3d a742 23bf
00000110: 573b 6c3d 9fef abbe 1adf febe 0160 62bd
00000120: a684 db3d 8fab abbd d3ed 16bd 5986 cdbb
00000130: 7c0f 56be f865 48bd 162f bd3d be4a 47be
00000140: 65d1 083d 9cc4 71bd a335 bbbc bb46 28bd
00000150: d7e9 03be 3434 84be ed1e 39bd f0d9 0b3d
00000160: 4d9e 70be 6bc8 b3bd 225e 79bd dc7c ffbd
00000170: 332e c33c b1dc 5cbe d96c 5ebf 5a17 bf3c
00000180: f83a 90bd 616b 2fbf be63 a23d 5915 b73d
00000190: adf8 cabd 770f 1a3e 34dc 833d a0ad a5bd
000001a0: 7137 fd3d c7c1 d1bd 144a 333d cd10 e13d
000001b0: e195 3fbe 8297 a1be c144 d73d 2a08 f6bd
000001c0: a463 50bf faac 84ba 38c7 c33b 1b1c b7be
000001d0: 3c4e 16bd 696d 2e3e beae 223d 0223 ad3d
000001e0: e411 57ba 7648 4f3e 5629 473e 19a1 b3bd
000001f0: 13b6 1d3e 183b a43d 9b39 a1bd 3919 ba3d
00000200: ac8c f33d 8064 03be 5d96 613e 45cc ea3d
00000210: 5c40 0fbd 81e6 fc3d f75a 333d ae70 ee3d
00000220: 91d9 9d3d d33c f43d cff7 fb3d b747 353d
00000230: 04d6 b83d 0968 a7bc 920b af3b 7391 b93d
00000240: 2bb4 cdbd b437 863e d14e cb3d caff 8e3c
00000250: 645f 7b3e 2e09 d93d 0294 193d 9f6c f2bd
00000260: b3e7 8abd bd4c 103e 5047 8dbe a1d2 13be
00000270: 074e 053e 03da 95be 2942 3d3d f2b1 0dbd
00000280: 03a0 19be e28f 7f3e 1c3f c23d 8c75 8dbe
00000290: e920 ac3c 3929 bebc 1f98 cabc c114 323d
000002a0: ba66 653d 9f8c be3d 2cb6 e8bb b642 11be
000002b0: 7940 5a3c c0cf a43e 9658 0abe 2e85 a63e
000002c0: 03f3 793d c680 92bd c4d1 843e 6b68 1bbd
000002d0: 78ba 34be 13eb b13d 8417 803e ebb0 1a3d
000002e0: e5d5 3c3e 2a73 d93d 0784 8a3d 893e 1d3e
000002f0: 5c7d e1bd e494 d73d 70bf e9bb 5282 e2bd
00000300: 56f4 92bd 8cc3 7ebe b052 0f3e d3d4 f2bc
00000310: 13ab 9b3a 70d0 9a3e c9c9 8e3d 83a9 873e
00000320: a73c d43d 678b e93c 3967 1e3d 1e7a 6fbe
00000330: ce96 e6bb 5202 18be a486 b5b9 ae8d bd3d
00000340: 8040 34be 1454 ffbb 0ead 92bc ed55 82bc
00000350: 8477 433d 1fff 15bd 24a1 973d 1294 39be
00000360: 733a b4bd 9102 a13e 7c8f f4bd e307 083d
00000370: fff2 fabc 8e3e b2bd 9ec0 953c 3d84 2dbe
00000380: c269 123e e65f 03be 7d42 543e 8df2 023e
00000390: 0a2d 9a3d 50a6 b4bd 2ab2 093e 731d b33c
000003a0: 829d 08bd e1cd 07be 9a9e 2fbd 4f95 363e
000003b0: 9985 4abe 5fd5 cc3d 5751 943c 3e98 85be
000003c0: 811a f03c eada d4be f275 96bd 9fe0 823d
000003d0: 9fbc 30be f796 36be ebb5 633c 2fa8 08bf
000003e0: 1dbf b9bd e750 edbc 4084 883a 18af 093e
000003f0: bf06 25bd 5c52 4cbe 6fd7 9f3d 66d8 e7bc

cnn.4.bias f4 [32]
0.14580917 -0.06208023 -0.17691945 -0.0681748 0.07439095 0.03119914 -0.14098941 -0.066004165
-0.06371651 0.09285519 0.18627152 -0.10189257 0.16631374 -0.073129915 -0.10091629 0.07820499
-0.03060626 -0.06764198 -0.06855641 -0.23513134 0.035575576 -0.08368746 0.044005238 -0.1565894
0.03766866 -0.047808222 0.1065934 0.022153582 0.09377536 -0.068882965 -0.025547141 0.13849041
00000000: 004f 153e d747 7ebd 5f2a 35be 3b9f 8bbd
00000010: 485a 983d 5795 ff3c 875f 10be 312d 87bd
00000020: cd7d 82bd dd2a be3d f6bd 3e3e 0dad d0bd
00000030: 264e 2a3e 23c5 95bd 33ad cebd f029 a03d
00000040: fbb9 fabc e187 8abd 4e67 8cbd 45c6 70be
00000050: b2b7 113d 5564 abbd d63e 343d f958 20be
00000060: 744a 1a3d 8ed2 43bd a44d da3d 6e7b b53c
00000070: 4c0d c03d 8312 8dbd 3d48 d1bc 6ed0 0d3e

cnn.5.weight f4 [32]
1.0408453 0.91188943 0.9844931 1.0473678 0.9412338 0.78230697 0.73918426 1.0527663
0.9676277 0.7795589 1.045205 0.9481112 0.8097365 0.9689681 0.96530956 0.9809292
1.0615278 1.0969577 0.6833553 0.92883295 0.89102405 1.0272251 0.8792092 0.7377217
0.8239212 1.003028 0.92545414 0.98954195 1.021356 1.1197679 1.0178763 1.0584961
00000000: 6b3a 853f 9671 693f bd07 7c3f 2610 863f
00000010: b3f4 703f 4545 483f 2e3b 3d3f 0cc1 863f
00000020: 73b6 773f 2c91 473f 47c9 853f 6ab7 723f
00000030: e44a 4f3f 4b0e 783f 871e 773f 2d1e 7b3f
00000040: 25e0 873f 1c69 8c3f 5ff0 2e3f ffc7 6d3f
00000050: 271a 643f 1d7c 833f db13 613f 54db 3c3f
00000060: 80ec 523f 3963 803f 90ea 6c3f 9f52 7d3f
00000070: cbbb 823f 8e54 8f3f c549 823f cd7c 873f

cnn.5.bias f4 [32]
-0.43403143 -0.22902629 -0.39875627 -0.34287417 -0.2228657 0.12915474 -0.18072139 -0.4678863
-0.36395067 -0.15412678 -0.05631147 -0.39152536 -0.32540154 -0.35342276 -0.4078474 0.035305154
-0.5047739 -0.10720231 -0.16400795 -0.27383605 -0.32645196 -0.3993927 -0.26740715 -0.14858213
0.102422096 -0.36017448 -0.31150267 -0.41797748 -0.30904058 -0.35793522 -0.29108575 -0.37698856
00000000: 5e39 debe de85 6abe c829 ccbe 348d afbe
00000010: e836 64be 2441 043e 070f 39be cb8e efbe
00000020: be57 babe 69d3 1dbe dba6 66bd 0376 c8be
00000030: 089b a6be d4f3 b4be 60d1 d0be 239c 103d
00000040: dd38 01bf e28c dbbd b3f1 27be 3d34 8cbe
00000050: b624 a7be 337d ccbe 97e9 88be ea25 18be
00000060: adc2 d13d ca68 b8be 477d 9fbe 2501 d6be
00000070: 913a 9ebe 4943 b7be 3109 95be a504 c1be

cnn.5.running_mean f4 [32]
-1.4243536 -1.393104 -1.0753174 -0.6556963 -1.8716135 -0.21346402 -1.1350805 -2.8116107
-2.1234941 -0.4973765 0.6615734 -0.41834104 -0.836843 -1.2592107 -1.700827 -0.6035365
-2.2549436 0.17074272 -0.01734892 -1.0376768 -1.7677293 -0.54453516 -2.1254961 -2.5658097
0.28733256 -0.030548207 -1.1059548 -1.14982 -2.3757055 -0.12936626 -1.1649547 -1.014561
00000000: 3851 b6bf 3b51 b2bf 00a4 89bf b6db 27bf
00000010: 0891 efbf 5096 5abe 514a 91bf 6ef1 33c0
00000020: 54e7 07c0 22a8 febe e05c 293f cc30 d6be
00000030: 583b 56bf d12d a1bf b3b4 d9bf 5e81 1abf
00000040: ff50 10c0 2ed7 2e3e 531f 8ebc 98d2 84bf
00000050: f444 e2bf a866 0bbf 2108 08c0 3a36 24c0
00000060: 411d 933e 3c40 fabc ed8f 8dbf 4d2d 93bf
00000070: 8f0b 18c0 9778 04be 3c1d 95bf 23dd 81bf

cnn.5.running_var f4 [32]
7.064075 2.3148158 4.8856826 1.6353909 3.2960517 2.218161 6.212617 7.4300227
4.1979327 2.0238795 2.1184058 6.2336636 3.837435 6.657651 5.869617 4.1741467
5.174564 2.066528 2.359511 4.559147 6.1019564 4.9136777 7.216299 11.728394
1.4862514 3.2920666 3.636713 3.728144 6.5938253 5.8351436 5.044919 8.818458
00000000: e70c e240 f125 1440 8357 9c40 7d54 d13f
00000010: 83f2 5240 5af6 0d40 c2cd c640 bfc2 ed40
00000020: 7755 8640 3e87 0140 f693 0740 2c7a c740
00000030: 8998 7540 7a0b d540 e7d3 bb40 9c92 8540
00000040: 0796 a540 ff41 0440 3a02 1740 88e4 9140
00000050: 3a43 c340 d93c 9d40 eceb e640 80a7 3b41
00000060: 7c3d be3f 38b1 5240 e8bf 6840 e999 6e40
00000070: 9e00 d340 7fb9 ba40 fa6f a140 6718 0d41

cnn.8.weight f4 [48, 32, 3, 3]
-0.27210462 -0.2752233 0.32993725 0.022595558 -0.16604616 0.085615605 0.029815434 -0.08265373
0.15102473 -0.2267704 -0.19030437 0.011923952 -0.027131299 -0.1301675 0.12370078 0.032372527
0.09091053 -0.082980506 -0.073632546 0.13346368 0.10012028 -0.070307225 0.20822424 0.17624843
-0.20391367 -0.0405657 0.21316543 -0.072066724 0.006802674 0.2090748 -0.029964078 0.09059958
0.23148663 -0.083644114 0.10291001 0.19815147 0.0255285 -0.10560619 0.301305 -0.116025895
-0.1179127 0.30529732 0.035317376 -0.13552943 0.24813452 -0.06409091 -0.06248176 0.012322672
0.011793038 -0.047478933 -0.09632227 0.15277398 -0.05054561 -0.04069133 0.09760166 -0.24062333
-0.21793371 0.08551407 -0.31829098 -0.26822174 0.2768925 -0.35238406 -0.15065376 0.17748517
0.05030809 -0.06285541 0.14565046 -0.26148212 -0.30762124 0.2322845 -0.0229234 -0.049366266
-0.10856397 -0.2690334 -0.2846418 0.11199958 -0.19283897 -0.14940672 0.1216851 0.14323878
0.07305284 -0.07214263 -0.2507421 0.010925558 0.011600726 -0.07116847 0.05869157 0.11173934
0.056942083 -0.03569847 -0.10232092 0.028336378 -0.07850424 -0.068314925 -0.054525394 -0.06097275
0.18402767 0.055178076 -0.29000983 -0.007190814 0.11269884 0.15170726 -0.1891715 -0.046294566
-0.017086836 0.02838015 -0.04941262 0.01947767 0.17826633 -0.0053283186 -0.47477496 -0.18458086
0.0088907285 0.13438602 0.015645657 0.00082695455 0.011654821 -0.26009274 0.0754625 0.38225675
-0.047782708 -0.09662457 0.14326458 -0.063153416 -0.09027916 0.15249991 -0.12776074 -0.11174889
0.109756246 -0.19781074 0.0123566855 0.18776909 -0.17951408 -0.07592881 -0.114605725 -0.09145709
0.15857217 0.24226913 -0.22211586 -0.05474793 0.063271016 0.0092445845 -0.016830727 -0.02952782
-0.15457188 0.22052294 -0.049218 0.0039460408 -0.0032461549 0.0007748394 -0.16849293 0.019992452
0.10956088 0.06796464 -0.36216325 -0.10265463 0.059374742 -0.4999554 -0.11002918 -0.114496805
-0.3460648 -0.034393717 0.10856174 -0.08651716 0.224236 0.018857121 -0.07656731 0.089315005
-0.17842226 0.010954209 0.18237162 0.043903887 0.110461235 -0.09073716 -0.004904435 0.041471954
-0.03926538 0.14738132 0.09476812 -0.09167366 -0.17526077 -0.07393859 0.16849175 -0.2726367
-0.059710175 0.22137114 -0.12084585 -0.095558606 0.043139856 -0.16202042 -0.21751235 0.15052609
0.014406735 0.100641795 0.102516346 -0.17391942 -0.015991736 0.2669058 0.1630873 0.11874908
-0.1049104 -0.022109961 0.06530449 -0.23624189 -0.010632964 0.15503033 0.0010315315 -0.10475143
-0.0695934 0.04318663 -0.2552125 -0.08497853 -0.0074210004 0.18351893 0.057549518 -0.07835994
-0.053016387 0.0788519 0.18191484 -0.18612269 -0.008667929 0.09183064 -0.31133553 -0.036620263
0.19932672 -0.06507398 -0.112859495 -0.5012986 -0.028532539 -0.22463211 0.097551115 0.054200243
-0.25586155 0.0076470473 -0.16919518 0.14073543 0.05957873 -0.27670255 -0.17838445 0.017181803
-0.24170938 -0.12021615 -0.16002989 0.23330498 -0.030022427 0.07738211 -0.01819183 -0.091166615
0.03560763 0.0075550675 0.030705035 0.021110581 -0.06341089 -0.08999314 -0.05264754 -0.19240384
00000000: 4c51 8bbe 12ea 8cbe 89ed a83e 521a b93c
00000010: 0108 2abe 3c57 af3d 7f3f f43c 5c46 a9bd
00000020: 3aa6 1a3e 8036 68be 26df 42be ae5c 433c
00000030: 7542 debc a14a 05be d656 fd3d 0e99 043d
00000040: 4d2f ba3d aff1 a9bd a9cc 96bd b4aa 083e
00000050: dd0b cd3d 3cfd 8fbd bc38 553e 787a 343e
00000060: bfce 50be 3828 26bd 0a48 5a3e b897 93bd
00000070: f7e8 de3b b417 563e 3a77 f5bc 468c b93d
00000080: d50a 6d3e 9b4d abbd 7cc2 d23d 38e8 4a3e
00000090: 2521 d13c 0f48 d8bd a644 9a3e fc9e edbd
000000a0: 377c f1bd ee4f 9c3e f4a8 103d 3ac8 0abe
000000b0: fa16 7e3e 1842 83bd e0ec 7fbd 08e5 493c
000000c0: 9637 413c 4579 42bd 9c44 c5bd c870 1c3e
000000d0: ea08 4fbd f4ab 26bd 61e3 c73d f665 76be
000000e0: 042a 5fbe 0022 af3d 09f7 a2be 5c54 89be
000000f0: dbc4 8d3e af6b b4be fb44 1abe acbe 353e
00000100: db0f 4e3d 56ba 80bd 6525 153e fce0 85be
00000110: 8880 9dbe fddb 6d3e dbc9 bbbc 4834 4abd
00000120: c956 debd bfbe 89be 92bc 91be 0960 e53d
00000130: 9477 45be 13fe 18be 0a36 f93d 30ad 123e
00000140: ba9c 953d 84bf 93bd 4561 80be 1d01 333c
00000150: f910 3e3c c6c0 91bd 9266 703d 98d7 e43d
00000160: 1a3c 693d 8f38 12bd a18d d1bd b121 e83c
00000170: d5c6 a0bd b2e8 8bbd 0556 5fbd 90be 79bd
00000180: c071 3c3e 6802 623d 2b7c 94be eba0 ebbb
00000190: a6ce e63d 2659 1b3e 2cb6 41be 5f9f 3dbd
000001a0: b1f9 8bbc 7d7d e83c e364 4abd a28f 9f3c
000001b0: 738b 363e 2d99 aebb b415 f3be c402 3dbe
000001c0: 6baa 113c 7d9c 093e 522b 803c fbc7 583a
000001d0: ddf3 3e3c e02a 85be 158c 9a3d 28b7 c33e
000001e0: cdb7 43bd 1ae3 c5bd f3b3 123e 9456 81bd
000001f0: 48e4 b8bd f028 1c3e b6d3 02be 9adc e4bd
00000200: e2c7 e03d e68e 4abe b273 4a3c 8a46 403e
00000210: 8ad2 37be 9080 9bbd 68b6 eabd db4d bbbd
00000220: be60 223e 6615 783e 5772 63be 5e3f 60bd
00000230: 3c94 813d 9976 173c 98e0 89bc 54e4 f1bc
00000240: 1748 1ebe c4d0 613e d098 49bd ca4d 813b
00000250: 71bd 54bb 981e 4b3a 6989 2cbe 36c7 a33c
00000260: 7461 e03d 0c31 8b3d 766d b9be 973c d2bd
00000270: ee32 733d 27fa ffbe fb56 e1bd 4d7d eabd
00000280: 682f b1be 6de0 0cbd 9e55 de3d e92f b1bd
00000290: 1f9e 653e 407a 9a3c 52cf 9cbd c9ea b63d
000002a0: 53b4 36be 4879 333c a0bf 3a3e 90d4 333d
000002b0: 8039 e23d 67d4 b9bd 62b5 a0bb 7fde 293d
000002c0: bcd4 20bd 21eb 163e ca15 c23d 66bf bbbd
000002d0: 8f77 33be 1e6d 97bd 1a89 2c3e 0a97 8bbe
000002e0: a892 74bd 1eaf 623e 077e f7bd 3bb4 c3bd
000002f0: 6bb3 303d aee8 25be 8fbb 5ebe 8323 1a3e
00000300: 3a0a 6c3c 491d ce3d 17f4 d13d ef17 32be
00000310: 1a01 83bc e1a7 883e 5b00 273e b832 f33d
00000320: 44db d6bd f31f b5bc 5cbe 853d 65e9 71be
00000330: e235 2ebc 45c0 1e3e 7434 873a eb87 d6bd
00000340: fc86 8ebd 77e4 303d 36ab 82be 3909 aebd
00000350: dd2b f3bb 63ec 3b3e 0bb9 6b3d 2d7b a0bd
00000360: b627 59bd 1b7d a13d e247 3a3e f296 3ebe
00000370: ee03 0ebc b411 bc3d 5f67 9fbe 21ff 15bd
00000380: 4e1c 4c3e 8245 85bd e122 e7bd 1b55 00bf
00000390: 12bd e9bc f605 66be e1c8 c73d 1301 5e3d
000003a0: 4900 83be 1594 fa3b 8041 2dbe f31c 103e
000003b0: d408 743d f5ab 8dbe 6aaa 36be dac0 8c3c
000003c0: aa82 77be e333 f6bd e0de 23be 80e7 6e3e
000003d0: 98f1 f5bc 837a 9e3d 0807 95bc 90b5 babd
000003e0: 4ed9 113d 8090 f73b 2089 fb3c 19f0 ac3c
000003f0: 92dd 81bd 534e b8bd f2a4 57bd 8305 45be

cnn.8.bias f4 [48]
-0.077100046 0.0092252 -0.12782855 0.0040983255 0.103741735 0.012381124 0.06760001 -0.03937741
-0.15770523 -0.110635854 -0.07131025 -0.00060410565 0.018320058 -0.04312787 0.039813977 -0.06500796
-0.022929126 -0.12234478 -0.024797844 0.11434792 0.15281107 0.013908134 -0.01715543 -0.012042475
-0.0030741307 -0.12478425 0.07419662 -0.104542226 0.07477022 -0.095141545 0.10292299 0.17729536
0.0050520375 -1.1359538e-05 -0.05592476 -0.03948344 0.017084643 -0.046176206 -0.0754165 -0.060524743
-0.061646614 0.002521255 -0.16494639 0.060797803 0.12908436 0.038924355 -0.055403233 -0.012304373
00000000: a1e6 9dbd 4b25 173c 7de5 02be 3f4b 863b
00000010: 8c76 d43d 33da 4a3c e071 8a3d 354a 21bd
00000020: 7b7d 21be 0d95 e2bd 1c0b 92bd d85c 1eba
00000030: f213 963c d9a6 30bd fb13 233d e522 85bd
00000040: ddd5 bbbc e68f fabd d924 cbbc 3e2f ea3d
00000050: 817a 1c3e f1de 633c 8b89 8cbc cd4d 45bc
00000060: 5b77 49bb e38e ffbd 66f4 973d 3c1a d6bd
00000070: 2121 993d 92d9 c2bd 4ac9 d23d ea8c 353e
00000080: 908b a53b d894 3eb7 5c11 65bd 63b9 21bd
00000090: 18f5 8b3c 4323 3dbd f773 9abd cbe8 77bd
000000a0: 2981 7cbd a43b 253b b5e7 28be 1e07 793d
000000b0: b12e 043e 256f 1f3d 80ee 62bd 4898 49bc

cnn.9.weight f4 [48]
1.0162473 0.9349909 0.86506677 0.908916 0.7813126 0.9757358 0.88197243 0.8533648
0.90603656 0.8201196 0.86427903 0.84440476 1.0845536 0.95372677 0.8185773 0.8477558
1.1228673 0.97283965 0.74686295 0.7786843 0.7835437 0.95003676 0.9943128 0.83519435
1.0309486 0.9457463 0.9054897 0.87871575 0.84749246 0.83003104 0.8951276 1.1027262
0.8851502 0.82349324 0.97606057 0.824278 0.6796407 0.9718784 0.7414733 0.8000817
0.79959613 1.0036157 0.8968653 0.8316488 0.9064659 0.7728676 0.9119384 0.8645075
00000000: 6414 823f 905b 6f3f 0475 5d3f b8ae 683f
00000010: 1a04 483f d2c9 793f f2c8 613f 1e76 5a3f
00000020: 03f2 673f 5cf3 513f 6441 5d3f e92a 583f
00000030: a7d2 8a3f 7027 743f 488e 513f 8606 593f
00000040: 1eba 8f3f 050c 793f 6932 3f3f db57 473f
00000050: 5296 483f 9c35 733f 498b 7e3f 4ccf 553f
00000060: 20f6 833f 6e1c 723f 2cce 673f 84f3 603f
00000070: 44f5 583f ea7c 543f 1527 653f 2226 8d3f
00000080: 3499 623f 74d0 523f 1bdf 793f e203 533f
00000090: effc 2d3f 06cd 783f 32d1 3d3f 27d2 4c3f
000000a0: 55b2 4c3f 7b76 803f f798 653f f0e6 543f
000000b0: 260e 683f a7da 453f cc74 693f 5d50 5d3f

cnn.9.bias f4 [48]
-0.40827549 -0.5988828 -0.4782729 -0.43432766 -0.39213476 -0.26459545 -0.3992706 -0.5315397
-0.48416683 -0.62646633 -0.588339 -0.51319563 -0.7266982 -0.50386053 -0.5074765 -0.4092076
-0.51352644 -0.34007138 -0.32007352 -0.41801444 -0.3900571 -0.26960498 -0.5739995 -0.37765115
-0.61944205 -0.532956 -0.6030327 -0.48403573 -0.48139924 -0.51060987 -0.63555217 -0.71047205
-0.40236542 -0.37016344 -0.5561704 -0.30572346 -0.12844434 -0.58946246 -0.42389405 -0.3160055
-0.2594172 -0.55554265 -0.5210879 -0.41568157 -0.4670235 -0.33752155 -0.6988951 -0.5387731
00000000: 7c09 d1be 6250 19bf 30e0 f4be 3260 debe
00000010: e3c5 c8be 0e79 87be 326d ccbe fc12 08bf
00000020: b7e4 f7be 1960 20bf 629d 16bf ca60 03bf
00000030: e508 3abf 01fd 00bf fbe9 01bf a983 d1be
00000040: 7876 03bf d61d aebe ade0 a3be fd05 d6be
00000050: 90b5 c7be aa09 8abe a2f1 12bf 7e5b c1be
00000060: c193 1ebf ce6f 08bf 5a60 1abf 88d3 f7be
00000070: f679 f6be 54b7 02bf 8cb3 22bf 7fe1 35bf
00000080: d702 cebe 1086 bdbe 2f61 0ebf c987 9cbe
00000090: ea86 03be 03e7 16bf a408 d9be 79cb a1be
000000a0: 55d2 84be 0b38 0ebf 0466 05bf 37d4 d4be
000000b0: b41d efbe a0cf acbe caea 32bf 09ed 09bf

cnn.9.running_mean f4 [48]
-1.519653 -1.998785 -1.3812239 -1.402865 -2.1751912 -0.98913324 -0.92089874 -2.1239884
-2.0635095 -1.6297246 -2.5606573 -2.2793543 -1.034191 -1.234845 -1.6906589 -1.8221493
-1.6435664 -2.384194 -0.49876472 -0.86976963 -0.91984147 -1.1907582 -1.3325496 -1.7585313
-2.097059 -2.210431 -1.3803493 -1.506084 -0.47002223 -1.2886002 -1.8970118 -0.7814473
-1.7245784 -1.4503138 -1.9422735 -1.107962 0.5735897 -1.9073956 -1.5691499 -0.5563222
-0.89952475 -0.9926718 -1.600716 -1.2716262 -1.8815944 -1.3594482 -1.7077425 -1.1498382
00000000: fd83 c2bf 30d8 ffbf f2cb b0bf 1591 b3bf
00000010: 5536 0bc0 d637 7dbf 05c0 6bbf 6def 07c0
00000020: 8a10 04c0 d19a d0bf cfe1 23c0 f1e0 11c0
00000030: 5f60 84bf 670f 9ebf 8367 d8bf 303c e9bf
00000040: 6260 d2bf a296 18c0 175e ffbe 39a9 5ebf
00000050: bb7a 6bbf c46a 98bf fc90 aabf 8e17 e1bf
00000060: 3736 06c0 b477 0dc0 49af b0bf 5cc7 c0bf
00000070: c1a6 f0be daf0 a4bf 48d1 f2bf ee0c 48bf
00000080: fcbe dcbf e2a3 b9bf 6b9c f8bf b3d1 8dbf
00000090: c6d6 123f 8a25 f4bf e7d9 c8bf 226b 0ebf
000000a0: 4147 66bf bd1f 7ebf 43e4 ccbf a6c4 a2bf
000000b0: 16d8 f0bf 6602 aebf 4e97 dabf e62d 93bf

cnn.9.running_var f4 [48]
3.5647836 2.302808 2.814374 2.7568398 2.1366794 3.0928354 2.4210386 1.9309238
1.9423 2.012487 2.0885034 2.8319035 1.6358184 1.9459425 2.386777 2.4718015
2.301175 2.7230508 1.8796623 2.310061 2.5161445 3.0689752 2.3527436 2.5568569
4.0046144 3.4230921 2.3352726 3.0329423 1.9398996 1.9410994 2.741539 2.5471113
2.0862682 3.1394105 2.2949877 2.5176196 1.9835277 2.5383213 1.6437869 1.8722981
2.4257243 2.289382 2.1316035 2.0095873 2.4387634 1.7406396 2.7944303 1.5417639
00000000: 6a25 6440 3561 1340 b41e 3440 1070 3040
00000010: 5bbf 0840 04f1 4540 4cf2 1a40 8328 f73f
00000020: 499d f83f 96cc 0040 0aaa 0540 e83d 3540
00000030: 7f62 d13f a514 f93f f4c0 1840 ff31 1e40
00000040: 7446 1340 7746 2e40 c698 f03f 0ad8 1340
00000050: 8308 2140 176a 4440 5a93 1640 8ba3 2340
00000060: cd25 8040 f113 5b40 1b75 1540 ba1b 4240
00000070: a14e f83f f275 f83f 6075 2f40 df03 2340
00000080: 6b85 0540 1aec 4840 14e1 1240 ae20 2140
00000090: 3ce4 fd3f db73 2240 9c67 d23f 77a7 ef3f
000000a0: 113f 1b40 3c85 1240 316c 0840 149d 0040
000000b0: b314 1c40 47cd de3f f2d7 3240 8558 c53f

cnn.12.weight f4 [64, 48, 3, 3]
0.22502232 0.108930424 -0.28178343 0.02303119 -0.0055409274 0.052773222 -0.019726511 0.19642422
0.2876489 -0.051870663 -0.46684504 -0.01846735 -0.1549326 -0.036774028 0.43787348 -0.16658013
0.053676102 0.3900193 -0.024151165 -0.022421531 0.14282441 0.14780483 0.034512933 0.020948991
0.16165821 0.13555005 0.038830686 -0.01726174 -0.06018495 0.09108119 -0.06261837 0.07811579
-0.008612923 -0.08633065 0.037867554 -7.167051e-06 -0.13193351 0.0060525225 0.13916017 0.088677354
0.021659331 -0.06102179 0.03388329 -0.025801728 -0.10799866 0.17694394 -0.003352106 -0.08904837
0.07097388 0.050586097 0.22264078 0.06914122 0.018338298 -0.064076975 -0.08128576 -0.18818998
0.15663639 0.33907023 0.12077706 0.026924202 0.0007876704 0.05119265 -0.10282195 0.2443437
-0.053161822 -0.42231777 -0.07797945 0.19764772 0.28495467 0.016323114 0.06958542 0.10496162
-0.07004955 0.051438417 -0.046775024 -0.0839294 -0.18755399 -0.13627492 -0.121038206 -0.08731931
0.15425289 0.07727171 -0.21314326 -0.18585634 0.09814564 0.074536614 0.29917142 0.0017557921
-0.047795746 0.19932392 -0.08691341 -0.19736394 0.05628823 0.17063063 0.031642873 0.049474355
-0.09654002 0.049567845 0.19879845 0.015643403 -0.049949963 0.22010821 -0.05313594 -0.082666285
-0.08986082 0.11692258 -0.015468971 0.06257072 -0.12599048 -0.038517 -0.4894514 -0.16167147
0.08692146 0.09749097 0.16992095 0.2336677 0.35384113 0.037886027 0.048977092 -0.08848119
-0.20710935 -0.093835205 0.21052441 -0.21101654 0.065734 0.28453305 -0.012192865 -0.15146498
-0.13026541 -0.008361998 0.10147017 0.1460611 0.004889499 0.016575972 -0.0052695195 -0.27456993
0.041313004 -0.07353034 -0.11260722 0.057204273 0.042612966 -0.16441081 0.03198955 0.048826177
0.13959253 0.08235089 -0.017058043 -0.0036537831 0.082966045 -0.259196 -0.12743013 0.18029642
0.054246113 -0.2639715 0.0048262523 0.05478482 0.02335469 0.08934767 -0.041468482 2.8328144e-05
-0.031850733 -0.22187647 -0.021852922 -0.08462405 -0.2732851 -0.19744958 -0.2998376 -0.03412181
0.08360743 -0.0871447 -0.020336706 -0.052225433 -0.0049380325 0.0656034 -0.028656995 -0.06829065
0.03605815 -0.056168895 -0.04479007 0.052663688 -0.0020309957 -0.27727976 -0.1863692 -0.021250864
0.07105675 0.024177402 -0.04900477 -0.17402694 -0.09497743 -0.04375857 -0.13368914 -0.08312906
0.040143926 0.06057101 0.0124662 -0.10551023 -0.03981329 0.14895377 0.14647476 0.20592639
0.32078463 0.15688369 -0.061673347 -0.20598328 -0.20036303 -0.34142902 -0.34842566 0.18824661
0.11522038 0.02135085 -0.029882515 0.1460222 0.08280631 4.0234416e-05 -0.08904501 -0.046426374
0.007594168 0.06984313 0.42487663 -0.24706234 -0.16782546 -0.106232055 -0.17961724 0.019452546
0.106971465 -0.027073566 0.15969983 0.07376615 0.1260909 -0.046586316 -0.03703479 0.06958359
0.16616286 0.15689178 0.20777905 0.01202866 0.31589165 0.26086128 -0.012743552 -0.12730254
0.019520901 -0.07556133 0.09339742 0.06339456 0.16251327 0.18703087 -0.19280694 -0.19258307
0.09126135 0.09079873 0.2171528 0.12514621 0.15101002 0.012972243 0.13173155 0.08332833
00000000: 406c 663e ea16 df3d eb45 90be e8ab bc3c
00000010: ab90 b5bb bc28 583d 7e99 a1bc 6e23 493e
00000020: b746 933e 5576 54bd 5006 efbe d748 97bc
00000030: a7a6 1ebe 5da0 16bd f430 e03e fb93 2abe
00000040: 79db 5b3d 9cb0 c73e aad8 c5bc 5cad b7bc
00000050: 9040 123e 265a 173e 6f5d 0d3d 389d ab3c
00000060: bb89 253e a2cd 0a3e ed0c 1f3d 7e68 8dbc
00000070: 7e84 76bd c688 ba3d 0f3e 80bd 2cfb 9f3d
00000080: 381d 0dbc 20ce b0bd 021b 1b3d 807c f0b6
00000090: 9419 07be 3d54 c63b 0180 0e3e 799c b53d
000000a0: e96e b13c fcf1 79bd 34c9 0a3d 255e d3bc
000000b0: 672e ddbd cb30 353e 02af 5bbb fe5e b6bd
000000c0: c15a 913d 5e33 4f3d f2fb 633e e999 8d3d
000000d0: 333a 963c ca3a 83bd 2679 a6bd e0b4 40be
000000e0: 4a65 203e 9d9a ad3e f759 f73d 2590 dc3c
000000f0: aa7b 4e3a 62af 513d 5194 d2bd 3c35 7a3e
00000100: 36c0 59bd 093a d8be b1b3 9fbd 2a64 4a3e
00000110: 94e5 913e 0db8 853c cd82 8e3d 1ef6 d63d
00000120: 2376 8fbd 17b1 523d 2b97 3fbd 2de3 abbd
00000130: 270e 40be a78b 0bbe e1e2 f7bd 77d4 b2bd
00000140: 78f4 1d3e a140 9e3d 3a42 5abe 2051 3ebe
00000150: 9500 c93d a7a6 983d ff2c 993e 9b22 e63a
00000160: 79c5 43bd 921b 4c3e a8ff b1bd c619 4abe
00000170: 7d8e 663d ccb9 2e3e f59b 013d 9fa5 4a3d
00000180: c6b6 c5bd a707 4b3d d291 4b3e 9826 803c
00000190: 5598 4cbd 0c64 613e 12a5 59bd f14c a9bd
000001a0: f308 b8bd 1b75 ef3d 9171 7dbc 1425 803d
000001b0: a603 01be 00c4 1dbd 6099 fabe 358d 25be
000001c0: e103 b23d 58a9 c73d c2ff 2d3e 9646 6f3e
000001d0: aa2a b53e 612e 1b3d 349c 483d a035 b5bd
000001e0: 7914 54be ac2c c0bd b693 573e b814 58be
000001f0: 8c9f 863d 51ae 913e 95c4 47bc a319 1bbe
00000200: 4c64 05be c300 09bc 98cf cf3d 0a91 153e
00000210: 1738 a03b 55ca 873c efab acbb 6e94 8cbe
00000220: d337 293d 1397 96bd 9d9e e6bd 074f 6a3d
00000230: ef8a 2e3d 4f5b 28be 7907 033d f5fd 473d
00000240: 58f1 0e3e 95a7 a83d 4fbd 8bbc 4f74 6fbb
00000250: 1aea a93d 57b5 84be 0b7d 02be a09f 383e
00000260: 2c31 5e3d 4627 87be 8a25 9e3b 0c66 603d
00000270: 5652 bf3c e9fb b63d dbda 29bd 3aa2 ed37
00000280: ea75 02bd 9633 63be e604 b3bc 604f adbd
00000290: 06ec 8bbe 3930 4abe 5084 99be 50c3 0bbd
000002a0: 5f3a ab3d ec78 b2bd 2a99 a6bc 56ea 55bd
000002b0: 38cf a1bb 135b 863d 13c2 eabc f8db 8bbd
000002c0: b6b1 133d 5b11 66bd cb75 37bd e1b5 573d
000002d0: 741a 05bb 9df7 8dbe 91d7 3ebe 4b16 aebc
000002e0: 3486 913d b00f c63c 3ab9 48bd 1e34 32be
000002f0: 8783 c2bd 303c 33bd cee5 08be 923f aabd
00000300: f56d 243d 4f19 783d 083f 4c3c bf15 d8bd
00000310: 4313 23bd 5687 183e 7bfd 153e 5ede 523e
00000320: e23d a43e 1ea6 203e 319d 7cbd 48ed 52be
00000330: f72b 4dbe c9cf aebe d964 b2be b8c3 403e
00000340: aaf8 eb3d fae7 ae3c 2dcc f4bc d886 153e
00000350: 5b96 a93d 60c1 2838 3b5d b6bd 9529 3ebd
00000360: 80d8 f83b ea09 8f3d 6e89 d93e e9fd 7cbe
00000370: 70da 2bbe 3190 d9bd 95ed 37be f25a 9f3c
00000380: db13 db3d 62c9 ddbc 5a88 233e b512 973d
00000390: f91d 013e 4bd1 3ebd cbb1 17bd d781 8e3d
000003a0: 9926 2a3e 3da8 203e 08c4 543e db13 453c
000003b0: 8dbc a13e 9c8f 853e 55ca 50bc 995b 02be
000003c0: 4cea 9f3c e6bf 9abd 2647 bf3d 02d5 813d
000003d0: e169 263e 0585 3f3e 2f6f 45be 7f34 45be
000003e0: 3be7 ba3d aff4 b93d 4e5d 5e3e 5426 003e
000003f0: 5fa2 1a3e 8889 543c a3e4 063e 0ba8 aa3d

cnn.12.bias f4 [64]
0.056119695 -0.016331032 -0.0022636927 0.039587725 -0.15449707 0.089283235 0.035176948 -0.07983734
-0.0017035485 0.010134724 0.0860833 0.039780855 -0.0067898906 -0.041045263 0.035406053 0.05741986
-0.068996124 -0.052380476 -0.043854725 0.11304149 0.022121567 -0.0054976563 0.09765792 0.027173175
0.0115006715 -0.0154318055 0.018686464 0.06925332 0.049083684 -0.01305825 -0.085446 0.087188
-0.013667679 -0.024299402 -0.0639987 0.09366834 0.07560794 -0.046601295 -0.023570154 -0.022951385
0.024409452 -0.034150235 -0.009839309 -0.019366568 0.033545304 0.016940419 0.08331243 -0.16636789
-0.042657122 -0.020336675 -0.08146095 0.011077333 -0.028548738 0.017420162 0.0408541 -0.04672078
-0.022582814 0.061207663 0.024190318 0.07031339 0.035483994 -0.13197589 0.007589619 -0.014731055
00000000: c4dd 653d a8c8 85bc 765a 14bb bd26 223d
00000010: 7b34 1ebe 21da b63d b415 103d c281 a3bd
00000020: 9a49 dfba 1d0c 263c 714c b03d 40f1 223d
00000030: bb7d debb 141f 28bd f005 113d 1631 6b3d
00000040: d74d 8dbd e98c 56bd 03a1 33bd 4c82 e73d
00000050: 4a38 b53c af25 b4bb e000 c83d 479a de3c
00000060: 506d 3c3c afd5 7cbc 5b14 993c afd4 8d3d
00000070: f90b 493d 45f2 55bc 50fe aebd 9f8f b23d
00000080: 67ee 5fbc 8a0f c7bc c011 83bd 30d5 bf3d
00000090: 56d8 9a3d 00e1 3ebd 3216 c1bc 8b04 bcbc
000000a0: 55f6 c73c 1ee1 0bbd 0e35 21bc a3a6 9ebc
000000b0: cd66 093d a2c6 8a3c b59f aa3d 585c 2abe
000000c0: 3cb9 2ebd 1999 a6bc 00d5 a6bd b47d 353c
000000d0: 0bdf e9bc bab4 8e3c a156 273d 4a5e 3fbd
000000e0: 98ff b8bc e3b4 7a3d c62a c63c 7700 903d
000000f0: aa57 113d b024 07be 57b2 f83b 865a 71bc

cnn.13.weight f4 [64]
0.77172846 0.93223315 0.90170485 0.8826405 0.7242539 0.7466951 0.7156593 0.7603542
0.73933923 0.7893724 0.9019585 0.79376835 0.8005989 0.87758183 0.9682551 0.7279061
0.7207576 0.7447034 0.85049164 0.8821742 0.8985601 0.8795056 0.83873355 0.8009721
0.7863078 1.0147703 0.7659397 0.82282454 0.89249647 0.8346528 0.95029837 0.8135323
0.801804 0.74073565 0.7784926 0.7752496 0.8240426 0.86316633 0.7992586 0.8105003
0.8936126 0.72352725 0.76962686 0.726411 0.86318845 0.814586 0.9297479 0.790441
0.8660575 0.7591628 0.81138337 0.91029125 0.78543043 0.8203391 0.8332107 0.93020636
0.87828404 0.84298176 0.98925364 0.8326224 0.8399502 0.79973733 0.79720956 0.88892347
00000000: ff8f 453f d5a6 6e3f 21d6 663f baf4 613f
00000010: b468 393f 6927 3f3f 7335 373f 93a6 423f
00000020: 5645 3d3f 4f14 4a3f c1e6 663f 6734 4b3f
00000030: 0df4 4c3f 34a9 603f 91df 773f 0e58 3a3f
00000040: 9283 383f e2a4 3e3f d2b9 593f 2bd6 613f
00000050: 0908 663f 4727 613f 3eb7 563f 820c 4d3f
00000060: 784b 493f fee3 813f a014 443f a1a4 523f
00000070: a67a 643f ceab 553f c146 733f a743 503f
00000080: 0743 4d3f daa0 3d3f 4b4b 473f c276 463f
00000090: 75f4 523f 78f8 5c3f 369c 4c3f f37c 4f3f
000000a0: ccc3 643f 1539 393f 4406 453f 12f6 393f
000000b0: ebf9 5c3f b588 503f f503 6e3f 575a 4a3f
000000c0: f2b5 5d3f 7e58 423f d2b6 4f3f d908 693f
000000d0: f811 493f be01 523f 4c4d 553f 0122 6e3f
000000e0: 39d7 603f a7cd 573f ba3f 7d3f be26 553f
000000f0: fa06 573f 96bb 4c3f ed15 4c3f 7d90 633f

cnn.13.bias f4 [64]
-0.26990965 -0.48451927 -0.35015827 -0.3798623 -0.32381174 -0.44896775 -0.36930364 -0.3254894
-0.36254272 -0.37373382 -0.41233626 -0.29984793 -0.32110155 -0.38198045 -0.2350715 -0.3436787
-0.2763335 -0.36743695 -0.3789379 -0.24070051 -0.29677993 -0.20344248 -0.27530074 -0.2519623
-0.32878518 -0.33275592 -0.23065434 -0.29579088 -0.18205349 -0.25618738 -0.40641424 -0.3207706
-0.22857565 -0.4358746 -0.35819125 -0.21081638 -0.40343848 -0.2976 -0.22875701 -0.33649147
-0.36671397 -0.39993536 -0.35588464 -0.29890603 -0.4065009 -0.31376195 -0.17746837 -0.16171333
-0.32576343 -0.3804521 -0.42102063 -0.23602559 -0.21353936 -0.28386593 -0.34917858 -0.16873366
-0.3943026 -0.36271304 -0.32757497 -0.27122965 -0.23736173 -0.4412699 -0.326045 -0.5202366
00000000: 9931 8abe e912 f8be f247 b3be 507d c2be
00000010: a7ca a5be 1adf e5be 5e15 bdbe 8ca6 a6be
00000020: 339f b9be 0a5a bfbe bd1d d3be ab85 99be
00000030: 6c67 a4be f192 c3be 95b6 70be a8f6 afbe
00000040: 967b 8dbe b220 bcbe 2604 c2be 327a 76be
00000050: 8af3 97be 3a53 50be 38f4 8cbe 3401 81be
00000060: 8856 a8be fc5e aabe a730 6cbe e771 97be
00000070: 3b6c 3abe fe2a 83be 8715 d0be 0b3c a4be
00000080: bc0f 6abe f52a dfbe d864 b7be 40e0 57be
00000090: 7d8f cebe 075f 98be 473f 6abe 9c48 acbe
000000a0: efc1 bbbe 54c4 ccbe 8336 b6be 360a 99be
000000b0: e320 d0be 68a5 a0be 45ba 35be 2e98 25be
000000c0: 77ca a6be 9eca c2be 0490 d7be b1b0 71be
000000d0: 10aa 5abe e056 91be 89c7 b2be 84c8 2cbe
000000e0: 08e2 c9be 86b5 b9be e8b7 a7be 9dde 8abe
000000f0: f40e 73be 21ee e1be 5fef a6be 3a2e 05bf

cnn.13.running_mean f4 [64]
-0.7913311 -1.9406633 -0.969226 -1.0773944 -1.160936 -0.8423457 -0.9481579 -1.8582879
-1.560851 -0.93279326 -1.1642212 -0.20861906 -1.1549721 -0.9837197 -1.2955598 -0.85334206
-1.8786025 -1.1680996 -1.1873038 -1.3550105 -1.6673287 -0.9568943 -1.4740057 -1.1498749
-1.134679 -1.4158441 -1.1840162 -1.4415487 -1.1179161 -1.7116263 -1.713222 -1.5246425
-1.3930787 -1.0214587 -1.9489151 -0.5328408 -1.0802847 -1.9586188 -1.1134462 -0.60508454
-2.498494 -0.94636965 -1.1027836 -1.1270108 -1.3851017 -0.79471767 -2.07965 -2.2507968
-1.3827211 -0.8371372 -0.6382527 -1.602901 -2.4735677 -0.7226929 -1.0004646 -1.718288
-1.6924287 -1.2712357 -1.1170528 -2.2756088 -1.691836 -1.5988393 -0.53614724 -1.4596609
00000000: ad94 4abf a867 f8bf 321f 78bf 0fe8 89bf
00000010: 8d99 94bf f8a3 57bf 7aba 72bf 61dc edbf
00000020: f7c9 c7bf 8acb 6ebf 3305 95bf 3ca0 55be
00000030: 20d6 93bf 0ed5 7bbf e7d4 a5bf a074 5abf
00000040: 0c76 f0bf 4a84 95bf 92f9 97bf fc70 adbf
00000050: 076b d5bf 06f7 74bf 38ac bcbf 1a2f 93bf
00000060: 293d 91bf 613a b5bf d88d 97bf ab84 b8bf
00000070: e017 8fbf 9216 dbbf dc4a dbbf 7c27 c3bf
00000080: 6750 b2bf 29bf 82bf 0d76 f9bf 4168 08bf
00000090: c546 8abf 05b4 fabf 6885 8ebf d2e6 1abf
000000a0: 53e7 1fc0 4845 72bf 0328 8dbf e441 90bf
000000b0: 034b b1bf 9e72 4bbf fc18 05c0 0e0d 10c0
000000c0: 01fd b0bf a04e 56bf 8764 23bf dc2b cdbf
000000d0: ef4e 1ec0 6702 39bf 390f 80bf dcf0 dbbf
000000e0: 81a1 d8bf dab7 a2bf 96fb 8ebf 93a3 11c0
000000f0: 158e d8bf c4a6 ccbf f240 09bf 2bd6 babf

cnn.13.running_var f4 [64]
1.9011859 2.1933796 2.0135624 1.7667898 2.2105505 1.6679746 1.4939007 1.7701538
2.0243022 1.9288105 1.9314654 1.2063451 1.4642813 2.0695138 3.243679 1.4949349
1.7676258 2.058151 1.850664 2.9266257 2.5493886 2.1281998 2.938086 1.8076564
2.1451151 2.900424 1.786692 2.090947 2.4688578 2.0890577 2.515947 2.0619857
2.4182572 1.8652405 2.7659044 2.3869417 1.9082001 3.184034 2.5409062 1.3102419
3.227391 1.9016523 1.7061548 2.2391255 2.3609576 1.3752803 2.4041693 2.8210485
2.5328918 1.4053435 1.5307004 2.106811 1.979806 1.4767375 1.7311023 3.4118977
2.451873 1.7287563 3.1921494 2.5293343 2.6541357 1.4700001 2.4951634 2.1395497
00000000: 0f5a f33f 5560 0c40 35de 0040 2b26 e23f
00000010: a979 0d40 3180 d53f 2338 bf3f 6694 e23f
00000020: 2b8e 0140 43e3 f63f 423a f73f 8469 9a3f
00000030: 926d bb3f ea72 0440 7098 4f40 075a bf3f
00000040: 9041 e23f bfb8 0340 8fe2 ec3f d64d 3b40
00000050: 2f29 2340 6d34 0840 9a09 3c40 4961 e73f
00000060: 9149 0940 8ca0 3940 53b2 e43f 13d2 0540
00000070: c401 1e40 1fb3 0540 4705 2140 93f7 0340
00000080: bac4 1a40 33c0 ee3f 9404 3140 a7c3 1840
00000090: e73f f43f 37c7 4b40 359e 2240 02b6 a73f
000000a0: 938d 4e40 5869 f33f 4863 da3f d54d 0f40
000000b0: ee19 1740 2f09 b03f e9dd 1940 0f8c 3440
000000c0: e61a 2240 4ce2 b33f feed c33f fed5 0640
000000d0: 486a fd3f bc05 bd3f c394 dd3f 885c 5a40
000000e0: 7deb 1c40 e347 dd3f 2d4c 4c40 9de0 2140
000000f0: 5cdd 2940 f728 bc3f c2b0 1f40 62ee 0840

cnn.16.weight f4 [64, 64, 1, 1]
0.08557808 0.22777261 0.12736051 0.21113805 0.058389597 0.093540534 0.09626178 0.05931878
-0.09250769 -0.021051547 -0.11673995 0.0753665 0.07806227 0.19607356 0.1404224 -0.05540422
-0.105291724 0.109529786 -0.098262385 0.11760171 0.047827438 0.081504285 0.20479384 0.19335206
0.25148353 -0.08819065 -0.10449068 0.1482229 -0.18126233 -0.013868894 -0.25522554 -0.02757687
-0.18318343 0.15956908 0.12535125 -0.06827981 -0.051705133 0.023792682 0.10377299 0.031833183
-0.053350177 0.06912547 0.0036684093 0.16665496 -0.2630454 -0.13013205 0.021523824 0.13036752
0.1788457 -0.046088066 -0.045772664 -0.2782031 -0.21300144 0.11427708 -0.099487014 -0.06589404
0.031574003 0.23358741 0.12804437 -0.0048655705 0.25059634 0.041381035 0.10190948 0.22449082
0.038968194 -0.05237346 0.11900711 -0.008714327 -0.23316534 0.08180587 -0.020616928 0.17656887
-0.115934655 0.10251234 -0.04314455 -0.062798984 0.013510867 -0.2659979 0.20421857 0.034066882
-0.16581003 -0.056389198 0.054334275 0.051251013 -0.029295845 -0.08345412 0.13360888 0.2763456
-0.1183048 0.10751416 0.0825109 -0.010823613 0.16867001 0.22016579 0.005733299 -0.0651776
-0.04982847 0.038332585 -0.2608584 0.199616 0.060916908 -0.21878795 -0.10175536 0.12778659
-0.09262524 0.15702643 0.06076022 -0.07144667 0.09606718 -0.08463595 -0.17967623 -0.0536937
-0.09513391 -0.0035518673 0.05339653 -0.23078142 0.21590121 0.023934793 -0.01325098 -0.14124723
0.22569823 -0.054169964 -0.090747006 0.17830123 -0.100568704 0.056227464 -0.0959249 0.10277231
-0.0062443875 -0.051811296 -0.073634245 0.16806868 -0.1697636 0.108420365 0.083487 0.097816505
-0.06757226 -0.09839458 -0.0880449 -0.13189569 0.2328146 -0.07284351 -0.09725403 0.17434905
-0.11402535 0.053982176 0.1571063 0.113919295 -0.037173472 -0.0032182569 -0.2565866 -0.07955812
0.050656665 0.27925712 0.016992722 0.061297342 -0.016139988 0.19469887 -0.20423874 0.009741253
0.21553093 -0.20101812 -0.20146014 -0.007904669 0.005939528 -0.3062381 -0.0010463012 0.1319364
0.26593044 0.07117995 -0.030394865 -0.23891763 -0.13646567 -0.10923954 0.16146657 0.11969249
-0.19593556 -0.0689336 -0.060327303 -0.029700644 0.013153136 -0.06627873 -0.0700641 -0.13265038
-0.119457185 -0.07665309 -0.20557334 -0.007966132 0.18000449 -0.087549195 -0.0039078556 0.24285176
0.096051864 -0.12109409 0.018321335 -0.11324386 -0.19110578 0.18271731 0.11028389 0.10795331
-0.14309636 -0.13386004 -0.04002128 0.0063688676 -0.14594753 0.20963426 0.29187667 0.09300119
-0.14639047 0.12099548 0.023882622 0.03412401 0.010470734 0.069874436 0.18307239 -0.06908022
0.14000636 0.06702249 0.0015203436 -0.09799235 -0.025894292 0.03531263 0.13869551 0.16804607
0.13510704 -0.09701758 0.106137924 0.006255291 -0.18745817 0.27430755 0.13432676 -0.070897475
0.04123863 0.08219913 0.030033533 0.13209105 -0.00026033513 -0.09126982 -0.092972085 -0.18314737
0.20424733 0.0037228302 -0.06442628 -0.15108123 -0.09719008 0.09607175 0.04268633 -0.18862277
0.023927132 -0.11994126 -0.14917642 0.09027965 -0.02165698 0.12117158 -0.012447193 0.13288465
00000000: 8f43 af3d 393d 693e cb6a 023e 9334 583e
00000010: ee29 6f3d 2e92 bf3d e524 c53d 40f8 723d
00000020: ac74 bdbd 4b74 acbc 5b15 efbd c059 9a3d
00000030: 1ddf 9f3d 82c7 483e e4ca 0f3e 89ef 62bd
00000040: 30a3 d7bd 2751 e03d ca3d c9bd 2ad9 f03d
00000050: b4e6 433d b8eb a63d 7ab5 513e 15fe 453e
00000060: 73c2 803e 4d9d b4bd 36ff d5bd bec7 173e
00000070: d59c 39be 5c3a 63bc ecac 82be e3e8 e1bc
00000080: 7094 3bbe 1466 233e 145c 003e 49d6 8bbd
00000090: c3c8 53bd dfe8 c23c ef86 d43d 8363 023d
000000a0: b785 5abd a891 8d3d b269 703b 99a7 2a3e
000000b0: e3ad 86be 5641 05be bb52 b03c 107f 053e
000000c0: 5423 373e d7c6 3cbd 1e7c 3bbd a370 8ebe
000000d0: 0d1d 5abe 1a0a ea3d d9bf cbbd 74f3 86bd
000000e0: be53 013d 8a31 6f3e 101e 033e 5d6f 9fbb
000000f0: 2a4e 803e 297f 293d ebb5 d03d ece0 653e
00000100: 1d9d 1f3d 8e85 56bd 00ba f33d 89c6 0ebc
00000110: e5c2 6ebe d689 a73d d5e4 a8bc 78ce 343e
00000120: 266f edbd fdf1 d13d 57b8 30bd c19c 80bd
00000130: af5c 5d3c e030 88be ac1e 513e b789 0b3d
00000140: 1bca 29be 5cf8 66bd 9e8d 5e3d 95ec 513d
00000150: d7fd efbc fee9 aabd c4d0 083e 2c7d 8d3e
00000160: c949 f2bd 6230 dc3d 7afb a83d 8655 31bc
00000170: d5b7 2c3e 2473 613e 66de bb3b d57b 85bd
00000180: f018 4cbd a102 1d3d 3b8f 85be 2368 4c3e
00000190: 0284 793d f309 60be 1d65 d0bd 7dda 023e
000001a0: 4db2 bdbd 89cb 203e b5df 783d a252 92bd
000001b0: dfbe c43d 9d55 adbd 0cfd 37be eded 5bbd
000001c0: 91d5 c2bd 72c6 68bb 52b6 5a3d f751 6cbe
000001d0: 3515 5d3e e612 c43c a31a 59bc 1da3 10be
000001e0: 701d 673e 53e1 5dbd 91d9 b9bd 9994 363e
000001f0: f7f6 cdbd c54e 663d 4674 c4bd 4a7a d23d
00000200: b89d ccbb 1538 54bd 8dcd 96bd 321a 2c3e
00000210: 82d6 2dbe 7f0b de3d 3bfb aa3d 0554 c83d
00000220: 5363 8abd 1983 c9bd e250 b4bd aa0f 07be
00000230: f366 6e3e fa2e 95bd 1f2d c7bd 8f88 323e
00000240: 1f86 e9bd 6a1c 5d3d 79e0 203e 854e e93d
00000250: 3643 18bd 64e9 52bb 525f 83be 5eef a2bd
00000260: 5d7d 4f3d cafa 8e3e 5234 8b3c ec12 7b3d
00000270: 0238 84bc 245f 473e f623 51be c799 1f3c
00000280: 24b4 5c3e b2d7 4dbe 914b 4ebe 9682 01bc
00000290: 5fa0 c23b 3ecb 9cbe 0b24 89ba 561a 073e
000002a0: 0928 883e cbc6 913d a7fe f8bc d3a6 74be
000002b0: a8bd 0bbe fbb8 dfbd 7e57 253e 5621 f53d
000002c0: 55a3 48be 0f2d 8dbd c319 77bd c44e f3bc
000002d0: 4080 573c 25bd 87bd c47d 8fbd 80d5 07be
000002e0: f8a5 f4bd 4cfc 9cbd d181 52be 6184 02bc
000002f0: 1953 383e fe4c b3bd 780d 80bb 22ae 783e
00000300: d7b6 c43d 2e00 f8bd a016 963c 66ec e7bd
00000310: 3cb1 43be 3f1a 3b3e 85dc e13d a016 dd3d
00000320: da87 12be 9b12 09be 5bed 23bd efb1 d03b
00000330: 4573 15be 5daa 563e dc70 953e 6877 be3d
00000340: 62e7 15be 7acc f73d 7da5 c33c 9ec5 0b3d
00000350: 718d 2b3c 541a 8f3d 5477 3b3e ee79 8dbd
00000360: d45d 0f3e 1643 893d 4446 c73a 37b0 c8bd
00000370: 4420 d4bc faa3 103d 3206 0e3e 4514 2c3e
00000380: 8059 0a3e 27b1 c6bd d75e d93d 2ff9 cc3b
00000390: 09f5 3fbe 0a72 8c3e f48c 093e b232 91bd
000003a0: d6e9 283d 0458 a83d e208 f63c e042 073e
000003b0: 977d 88b9 aceb babd 2668 bebd fc8a 3bbe
000003c0: 3626 513e bafa 733b edf1 83bd 0ab5 1abe
000003d0: 980b c7bd 44c1 c43d dcd7 2e3d 5426 41be
000003e0: d502 c43c c3a3 f5bd b4c1 18be 8ae4 b83d
000003f0: fb69 b1bc ce28 f83d 50ef 4bbc ea12 083e
