models/model_epoch20.pth (torch, 957119 bytes, 61 tensors)

cnn.0.weight f4 [16, 3, 3, 3]
-0.07534341 0.04246778 -0.11630415 -0.14271228 -0.040016487 0.14921534 -0.030575328 0.18185006
0.05438378 -0.04939419 -0.12621593 0.04606096 -0.20231853 -0.08164241 0.07884076 -0.02827471
0.13207044 0.26021418 -0.23128597 -0.17676535 0.09044265 0.09477134 -0.06554002 0.194415
-0.11488748 0.00023324159 0.20902306 -0.3431188 -0.15666759 0.047921903 -0.11771021 0.21748745
-0.027456062 -0.19554372 -0.20936094 -0.36608896 -0.23218764 0.12323135 0.125081 0.09675703
0.06057302 -0.019567084 0.006310682 -0.18770948 -0.18862994 -0.21791281 0.036751404 0.062319573
-0.10801528 -0.020812012 0.1209651 0.16151449 0.040580135 -0.039893348 0.19644861 -0.08920385
-0.061596323 -0.06625943 -0.041865848 -0.1061638 0.145697 0.14412187 -0.15295596 0.08490342
0.040957153 -0.26863986 0.08380783 0.06752654 0.0028315322 0.28932646 -0.087879464 -0.18096912
0.043032408 0.057446506 -0.084681295 0.2210567 0.06342183 -0.26286352 0.1514373 -0.022970978
-0.21720116 0.20690006 0.1919478 -0.27087605 0.0997629 0.04041747 -0.05498851 -0.08601216
0.04792601 -0.18930288 0.12769319 0.131235 -0.012195757 0.19758594 -0.0970009 -0.1862259
0.14191042 0.014523789 -0.28948465 -0.041347563 0.214464 -0.0012581858 0.076315545 0.086479284
-0.18081352 0.095089555 -0.094978854 -0.1804611 0.100688316 0.013242949 -0.11824706 0.18261497
-0.17562976 0.1524668 0.16219547 -0.27113175 -0.061850816 0.13918708 0.008310659 0.02126609
0.18597135 -0.028308164 -0.08717763 0.15980023 -0.27231956 -0.08954875 0.13484058 -0.08434178
-0.072703965 -0.004782685 -0.0746602 0.027414108 -0.031636972 -0.09684569 0.13748561 -0.030883072
-0.0083955955 -0.07934652 0.05212681 0.16454749 0.16382 0.0401438 0.19998923 -0.026492195
-0.20010076 -0.08292436 0.03371104 -0.023073783 -0.024169678 -0.21546416 -0.37446243 -0.12835874
-0.090066515 0.1601057 0.21280894 -0.14819926 0.08604647 -0.09762952 -0.06686349 -0.25427708
-0.021062724 -0.07562784 -0.13629757 -0.07241789 0.0694219 0.00044078846 -0.050040312 0.13156733
-0.2078211 0.0023172826 0.2650773 -0.17699279 0.20452239 0.1505148 -0.27857962 0.1288306
0.051474508 -0.19339482 0.16646989 -0.013329387 -0.13466422 -0.06554828 0.16711542 -0.07820499
0.08206026 0.1348662 -0.13626911 0.00040322944 0.015515504 0.15163349 0.1760234 0.17207296
-0.17265819 -0.07248513 -0.22088252 -0.023632567 -0.06668015 0.046648696 0.0070455372 0.13387729
0.20446105 0.07411259 -0.20194197 -0.15428732 -0.110915616 0.12750971 -0.08546147 0.17610835
0.10879808 0.12164694 -0.12504221 -0.15245898 -0.054654118 -0.06619317 -0.0115072075 0.0048346655
-0.12139163 -0.11687154 0.14021863 -0.18772379 -0.014571699 0.2323292 0.05079468 0.06693273
-0.046000298 0.020500656 -0.2357973 -0.10835611 -0.19908875 -0.066375904 0.03284433 0.06654221
0.06974585 0.3110895 0.116123155 -0.17803323 0.039094854 -0.22906107 -0.115829155 0.064189605
-0.01125005 0.17760581 0.02822473 0.059280902 0.13491344 -0.21411002 0.12649845 -0.18900374
0.074909166 -0.07092873 -0.08077383 0.24179772 0.2733864 0.0066471533 -0.18397523 -0.06336844
00000000: a54d 9abd b2f2 2d3d df30 eebd 2b23 12be
00000010: 54e8 23bd e8cb 183e 1c79 fabc e736 3a3e
00000020: 87c1 5e3d 9051 4abd c03e 01be 6baa 3c3d
00000030: 972c 4fbe 2334 a7bd 4477 a13d 5da0 e7bc
00000040: 793d 073e cb3a 853e 3bd6 6cbe fa01 35be
00000050: ff39 b93d 7a17 c23d d939 86bd ba14 473e
00000060: 214a ebbd 5092 7439 240a 563e 44ad afbe
00000070: 786d 20be c249 443d 0d12 f1bd 08b5 5e3e
00000080: 89eb e0bc 9d3c 48be b762 56be 0370 bbbe
00000090: 99c2 6dbe b860 fc3d 3c15 003e 8d28 c63d
000000a0: 6a1b 783d 264b a0bc d6c9 ce3b ea36 40be
000000b0: 3528 41be 8924 5fbe a488 163d cf42 7f3d
000000c0: 1d37 ddbd f47d aabc 8dbc f73d 0e64 253e
000000d0: 5b37 263d 3567 23bd d329 493e 82b0 b6bd
000000e0: 6d4c 7cbd 06b3 87bd 867b 2bbd 686c d9bd
000000f0: 9831 153e af94 133e 7da0 1cbe d8e1 ad3d
00000100: b0c2 273d 2a8b 89be 71a3 ab3d 5b4b 8a3d
00000110: 3a91 393b 9922 943e 26fa b3bd f84f 39be
00000120: c042 303d 074d 6b3d 636d adbd b05c 623e
00000130: 4ee3 813d 0c96 86be 6112 1b3e a22d bcbc
00000140: fb69 5ebe 9cdd 533e f78d 443e 44b0 8abe
00000150: 7e50 cc3d ca8c 253d a23b 61bd 2527 b0bd
00000160: 104e 443d 9dd8 41be 01c2 023e 7862 063e
00000170: b6d0 47bc f853 4a3e 68a8 c6bd 01b2 3ebe
00000180: f750 113e 30f5 6d3c 5537 94be 105c 29bd
00000190: 739c 5b3e b6e9 a4ba 534b 9c3d 0d1c b13d
000001a0: 2e27 39be 50be c23d 4684 c2bd cbca 38be
000001b0: ad35 ce3d f4f8 583c 842b f2bd 6bff 3a3e
000001c0: 4ad8 33be 4220 1c3e 9216 263e c8d1 8abe
000001d0: 4857 7dbd 0f87 0e3e 6e29 083c 3936 ae3c
000001e0: 466f 3e3e 86e6 e7bc 2f8a b2bd aca2 233e
000001f0: 786d 8bbe 5665 b7bd a613 0a3e 62bb acbd
00000200: d1e5 94bd 12b8 9cbb 72e7 98bd 8d93 e03c
00000210: c595 01bd 0857 c6bd 07c9 0c3e 7ffe fcbc
00000220: ae8d 09bc 6e80 a2bd ec82 553d 237f 283e
00000230: 6ec0 273e d36d 243d fac9 4c3e 2906 d9bc
00000240: 37e7 4cbe 3fd4 a9bd 9614 0a3d 3b05 bdbc
00000250: 7dff c5bc a3a2 5cbe 8ab9 bfbe 7970 03be
00000260: cb74 b8bd c0f2 233e 96ea 593e 8cc1 17be
00000270: 2239 b03d fcf1 c7bd baef 88bd 9b30 82be
00000280: bc8b acbc c5e2 9abd 9791 0bbe d54f 94bd
00000290: 122d 8e3d a019 e739 12f7 4cbd 96b9 063e
000002a0: 0ecf 54be 8ddd 173b 36b8 873e 993d 35be
000002b0: 516e 513e 8d20 1a3e fda1 8ebe 2bec 033e
000002c0: efd6 523d 4b09 46be 1577 2a3e 8063 5abc
000002d0: 6be5 09be 2d3e 86bd 4e20 2b3e f029 a0bd
000002e0: 360f a83d 5d1a 0a3e 218a 0bbe 8a68 d339
000002f0: be34 7e3c cf45 1b3e 7a3f 343e e533 303e
00000300: 4fcd 30be 1573 94bd 072f 62be 1699 c1bc
00000310: 9a8f 88bd b412 3f3d 40de e63b 2117 093e
00000320: 3d5e 513e 57c8 973d e0c9 4ebe 7ffd 1dbe
00000330: ba27 e3bd e891 023e 6c06 afbd bf55 343e
00000340: 87d1 de3d 0822 f93d 110b 00be 351e 1cbe
00000350: ffdc 5fbd 4990 87bd ba88 3cbc 1d6c 9e3b
00000360: 2d9c f8bd 595a efbd 7995 0f3e aa3a 40be
00000370: 23be 6ebc b5e7 6d3e 150e 503d 0714 893d
00000380: cf6a 3cbd fef0 a73c d974 71be cfe9 ddbd
00000390: ecdd 4bbe 17f0 87bd c787 063d 4847 883d
000003a0: ead6 8e3d 1f47 9f3e fad1 ed3d 584e 36be
000003b0: ed21 203d fc8e 6abe d637 edbd d775 833d
000003c0: 2152 38bc 4cde 353e 8d37 e73c 88d0 723d
000003d0: c026 0a3e a83f 5bbe cf88 013e 328a 41be
000003e0: fa69 993d 1543 91bd c06c a5bd d299 773e
000003f0: 4df9 8b3e 5dd0 d93b 0164 3cbe 50c7 81bd

cnn.0.bias f4 [16]
0.07835931 0.0066456962 -0.18290769 -0.05413242 0.08931169 -0.012453353 0.11190866 -0.1605588
-0.24403371 -0.23522703 -0.10437453 -0.0093178945 -0.2958388 0.04104384 -0.08930723 0.08934388
00000000: d97a a03d 24c4 d93b 274c 3bbe f5b9 5dbd
00000010: 0ce9 b63d 2609 4cbc 5e30 e53d 8769 24be
00000020: f9e3 79be 5bdf 70be 50c2 d5bd 15aa 18bc
00000030: 2f78 97be 961d 283d b6e6 b6bd edf9 b63d

cnn.1.weight f4 [16]
1.1395339 0.5593378 1.1405196 0.99688345 0.6998686 0.7361195 1.0388874 1.1442828
0.81255996 0.6201586 1.2460843 0.9749313 1.093057 0.7465323 0.7680123 1.0453069
00000000: 3fdc 913f c330 0f3f 8cfc 913f c133 7f3f
00000010: 972a 333f 5472 3c3f 43fa 843f dc77 923f
00000020: ee03 503f b7c2 1e3f b17f 9f3f 1995 793f
00000030: 4be9 8b3f be1c 3f3f 749c 443f 9ecc 853f

cnn.1.bias f4 [16]
-0.11964216 -0.42189166 -0.011501715 0.008834348 -0.14095762 -0.16927823 0.013580903 -0.029326428
0.36332214 0.021033445 -0.13818999 0.10402041 -0.08537243 0.18444228 0.18026437 -0.025855718
00000000: f306 f5bd 2f02 d8be b071 3cbc f1bd 103c
00000010: 3257 10be 4657 2dbe 7082 5e3c fa3d f0bc
00000020: 5c05 ba3e 554e ac3c ad81 0dbe a708 d53d
00000030: bed7 aebd 70de 3c3e 3997 383e 5fcf d3bc

cnn.1.running_mean f4 [16]
0.07179917 0.092163615 -0.18510823 -0.04786209 0.09465426 0.0070019253 0.102004975 -0.1441749
-0.24319008 -0.22277385 -0.11379395 -0.008693621 -0.29557705 0.046384808 -0.118238926 0.096961215
00000000: 710b 933d 47c0 bc3d 038d 3dbe 0a0b 44bd
00000010: 18da c13d 6870 e53b fce7 d03d 96a2 13be
00000020: d206 79be d41e 64be cd0c e9bd b06f 0ebc
00000030: e055 97be fffd 3d3d 4027 f2bd 9a93 c63d

cnn.1.running_var f4 [16]
0.08566892 0.4184029 0.09397708 0.10064051 0.03694279 0.19519019 0.08819082 0.08519355
0.06418834 0.022777207 0.12500423 0.06522733 0.054460075 0.021432891 0.11258635 0.0734233
00000000: 3073 af3d e838 d63e 0e77 c03d 9d1c ce3d
00000010: 5351 173d f0df 473e 639d b43d f579 ae3d
00000020: 2d75 833d 4497 ba3c 1c01 003e e895 853d
00000030: 8711 5f3d 0894 af3c ac93 e63d f55e 963d

cnn.4.weight f4 [32, 16, 3, 3]
-0.08154799 -0.013740755 0.021149319 -0.065070115 0.07903018 0.015286278 -0.13089678 0.029733542
0.027890252 0.07966634 -0.072889306 0.05945344 -0.01431783 -0.06004189 0.06253811 0.03509761
0.06703183 0.10195845 0.07494498 0.010117296 -0.055899262 -0.008955497 0.024125848 0.16225035
0.045952413 0.011350997 0.09595473 -0.05099911 -0.019091822 -0.0034713855 -0.075737506 0.0024097757
-0.027960533 -0.086051196 -0.091403455 0.045650218 -0.08097858 -0.047397375 -0.013682013 -0.021879226
-0.029511176 0.037117466 -0.04836802 -0.044658907 0.070884235 -0.058830567 -0.013558645 0.0060873087
-0.049491018 -0.1428095 0.071710914 0.15503839 -0.06554768 0.1164405 0.04488736 0.1553619
0.11626733 -0.036357593 0.08187839 0.038313504 -0.08011448 0.044778008 0.051660493 -0.005335833
-0.13898237 0.041773826 -0.14385332 -0.34942466 0.012280301 -0.24722356 -0.21770401 -0.110600695
-0.009516679 -0.029941147 0.004767148 -0.07273206 -0.12119241 -0.05104146 0.046792142 -0.112014994
0.024863176 -0.06785099 0.012014624 0.04003233 -0.05157954 -0.08869798 -0.025358085 0.036494393
-0.09277677 -0.06416715 -0.1177865 -0.06778424 0.05345642 -0.26326534 -0.41959584 -0.065802366
-0.16019599 -0.2951159 0.0011313125 0.11232977 0.031003863 0.14953631 0.0077286153 -0.12957248
0.17299159 -0.009683444 0.017885571 0.106476985 -0.059173036 -0.19561666 0.14173825 -0.2122236
-0.41102087 -0.02048756 -0.13092418 -0.19176695 -0.14667429 0.058623664 -0.0068910336 -0.0042277025
0.05644237 0.06589753 0.11235006 0.056978565 0.060751554 0.046218645 -0.03242024 0.113103494
0.03530268 -0.14361052 0.06522295 0.06177975 -0.002012787 0.039118193 -0.010743717 0.09480487
0.08794915 0.08583745 0.030893859 0.04692864 0.07754395 0.039950643 -0.008415007 0.040317506
-0.029950675 0.24148443 0.044695523 0.10067281 0.06719921 0.05870505 0.052299343 -0.06462422
0.0015546676 0.03996072 -0.055118196 -0.003986446 -0.05062451 -0.13734776 0.038488004 -0.0016309652
-4.8949267e-05 0.060619656 0.10512624 -0.2118421 0.086956255 -0.081147335 0.008362943 0.0779622
0.02040327 -0.012567141 -0.027312402 0.07163839 -0.008347518 0.171812 -0.078611255 0.12616058
0.030253105 -0.11091085 0.18884881 -0.051100984 -0.036092963 0.088183515 0.10661952 -0.029625872
0.16359241 0.07659956 0.0016328673 0.09940151 0.020495921 0.011370894 -0.0065677343 0.0016213069
-0.0585003 -0.06780377 0.09101686 0.009555436 -0.016315456 0.1858752 0.051144235 0.1307991
0.04424269 0.0041864095 0.0076523963 -0.26523453 0.014651539 -0.22401345 -0.10751486 0.056133315
-0.13396095 -0.03768215 0.019603783 0.046229396 -0.003343875 0.012100925 0.11798604 -0.044253312
-0.04781863 0.20163769 -0.10442365 0.07897314 0.06075683 0.034480058 -0.045757722 -0.055386525
0.13290726 0.06914531 0.097707324 0.047194235 0.0328912 -0.046972264 0.099293694 -0.05643959
0.083010726 -0.028773118 0.046256714 0.00012651482 -0.17697586 0.13876651 -0.09558557 -0.32974616
0.08844963 -0.104910076 -0.16386892 0.082736194 -0.18765195 -0.028519591 0.012190501 -0.31606492
-0.0053903637 0.022402406 0.0018259271 -0.013414543 0.04183104 -0.15211593 -0.09565135 0.062467538
00000000: a202 a7bd e720 61bc 5641 ad3c 7b43 85bd
00000010: 93da a13d 4c73 7a3c ce09 06be c293 f33c
00000020: 197a e43c 1b28 a33d fd46 95bd 7385 733d
00000030: 5595 6abc 7cee 75bd fb13 803d 83c2 0f3d
00000040: fc47 893d 98cf d03d c17c 993d 04c3 253c
00000050: a0f6 64bd 14ba 12bc 92a3 c53c f524 263e
00000060: 9938 3c3d 88f9 393c ea83 c43d 71e4 50bd
00000070: 7466 9cbc 2f80 63bb 441c 9bbd 54ed 1d3b
00000080: 7d0d e5bc 9c3b b0bd bc31 bbbd b9fb 3a3d
00000090: 19d8 a5bd c023 42bd 862a 60bc 103c b3bc
000000a0: 6cc1 f1bc 7c08 183d 8c1d 46bd 42ec 36bd
000000b0: c12b 913d 52f8 70bd 1425 5ebc 0c78 c73b
000000c0: 18b7 4abd a73c 12be 2cdd 923d 62c2 1e3e
000000d0: dd3d 86bd 5b78 ee3d cfdb 373d 3117 1f3e
000000e0: 911d ee3d b3eb 14bd dbaf a73d 9fee 1c3d
000000f0: 0f13 a4bd 2569 373d f499 533d 36d8 aebb
00000100: 6551 0ebe 081b 2b3d 494e 13be cae7 b2be
00000110: 5133 493c 2c28 7dbe cded 5ebe 9e82 e2bd
00000120: d8eb 1bbc 2347 f5bc bc35 9c3b 8cf4 94bd
00000130: ba33 f8bd da10 51bd 1ea9 3f3d 1e68 e5bd
00000140: dcad cb3c 76f5 8abd fcd8 443c f1f8 233d
00000150: 1145 53bd 49a7 b5bd c2bb cfbc 257b 153d
00000160: bf01 bebd 116a 83bd 0c3a f1bd 77d2 8abd
00000170: 1ef5 5a3d b7ca 86be 44d5 d6be 64c3 86bd
00000180: 6b0a 24be 6e19 97be 8c48 943a 270d e63d
00000190: d0fb fd3c 0c20 193e 5340 fd3b a6ae 04be
000001a0: b524 313e 4fa7 1ebc c384 923c 9b10 da3d
000001b0: 6d5f 72bd bc4f 48be d523 113e 2551 59be
000001c0: 5471 d2be 87d5 a7bc fd10 06be 8e5e 44be
000001d0: c931 16be 5e1f 703d 2ece e1bb 8a88 8abb
000001e0: 1d30 673d 49f5 863d ca17 e63d 5b62 693d
000001f0: 9fd6 783d c34f 3d3d 16cb 04bd cea2 e73d
00000200: 8b99 103d a30e 13be 9c93 853d c30c 7d3d
00000210: f6e8 03bb 663a 203d 6a06 30bc 0e29 c23d
00000220: af1e b43d 8ccb af3d 1e15 fd3c 3f38 403d
00000230: 5dcf 9e3d 49a3 233d 19df 09bc f823 253d
00000240: 1e5b f5bc b247 773e a712 373d 8c2d ce3d
00000250: bd9f 893d b574 703d d637 563d b459 84bd
00000260: fdc5 cb3a daad 233d 9ec3 61bd bca0 82bb
00000270: a55b 4fbd e4a4 0cbe 99a5 1d3d 1cc6 d5ba
00000280: e04e 4db8 514c 783d 6d4c d73d 23ed 58be
00000290: 1f16 b23d 9330 a6bd ba04 093c a5aa 9f3d
000002a0: c224 a73c 69e6 4dbc 42be dfbc 26b7 923d
000002b0: 07c4 08bc 7cef 2f3e f0fe a0bd 3d30 013e
000002c0: 5cd5 f73c 3a25 e3bd 9561 413e 444f 51bd
000002d0: 37d6 13bd 8f99 b43d 565b da3d f5b1 f2bc
000002e0: c584 273e 3be0 9c3d ef05 d63a 0593 cb3d
000002f0: 10e7 a73c fc4c 3a3c 2636 d7bb 0882 d43a
00000300: 039e 6fbd b4dc 8abd 0c67 ba3d 678e 1c3c
00000310: fea7 85bc 1256 3e3e 9e7c 513d 33f0 053e
00000320: d337 353d 262e 893b f4c0 fa3b d2cc 87be
00000330: 020d 703c c863 65be c030 dcbd 0cec 653d
00000340: 0f2d 09be 9958 1abd 1d98 a03c 095b 3d3d
00000350: ea24 5bbb f542 463c aaa2 f13d f642 35bd
00000360: 78dd 43bd 1c7a 4e3e 11dc d5bd abbc a13d
00000370: 27dc 783d f63a 0d3d 736c 3bbd fbdc 62bd
00000380: d718 083e 0e9c 8d3d c71a c83d be4e 413d
00000390: ecb8 063d fd65 40bd 7e5a cb3d 332d 67bd
000003a0: 8701 aa3d 9ab5 ebbc ae77 3d3d 10a9 0439
000003b0: 2939 35be cf18 0e3e 5ec2 c3bd 7dd4 a8be
000003c0: 1425 b53d 18db d6bd 41cd 27be 9871 a93d
000003d0: d527 40be eba1 e9bc abba 473c 43d3 a1be
000003e0: a6a1 b0bb 4085 b73c f253 ef3a acc8 5bbc
000003f0: 0657 2b3d 47c4 1bbe dbe4 c3bd f6dd 7f3d

cnn.4.bias f4 [32]
0.021805547 0.06650007 0.018342834 0.044673562 0.10196749 0.07942189 -0.040961955 -0.0004017851
-0.023395354 0.055350885 0.042906124 0.005872636 0.06835978 -0.06236296 0.06294573 0.1173829
-0.011073094 0.007466919 -0.12273604 -0.049849708 -0.010421849 0.03266536 0.02908778 -0.04393949
0.07014136 0.035504792 -0.01426452 0.011439023 0.04944329 -0.097294234 -0.025757784 0.038100082
00000000: 8ca1 b23c 3031 883d b643 963c a0fb 363d
00000010: 55d4 d03d f2a7 a23d b9c7 27bd afa6 d2b9
00000020: 9da7 bfbc 9cb7 623d 55be 2f3d 3e6f c03b
00000030: 3600 8c3d 4e70 7fbd b1e9 803d 7266 f03d
00000040: ec6b 35bc 0ead f43b 085d fbbd 352f 4cbd
00000050: 67c0 2abc 1dcc 053d 7f49 ee3c e5f9 33bd
00000060: 46a6 8f3d 796d 113d bcb5 69bc bd6a 3b3c
00000070: 0c85 4a3d 3342 c7bd fd01 d3bc d50e 1c3d

cnn.5.weight f4 [32]
0.9375204 0.94831645 1.0684927 0.96085954 0.9383436 0.8522772 0.7496127 0.93874127
1.0678127 0.94189197 1.0420768 0.89422107 0.8574295 0.9837595 0.9333776 1.0373836
1.0507079 1.0005455 0.73320425 0.96894765 0.88265353 0.93297243 0.91154414 0.8672026
0.89099216 1.001372 0.9914532 0.9814366 0.9877818 1.0729328 1.0139545 1.033423
00000000: 5601 703f dec4 723f 5ec4 883f e4fa 753f
00000010: 4937 703f d72e 5a3f 9ee6 3f3f 5951 703f
00000020: 16ae 883f d51f 713f c662 853f aceb 643f
00000030: 8080 5b3f aad7 7b3f d6f1 6e3f fcc8 843f
00000040: 997d 863f e011 803f 46b3 3b3f f40c 783f
00000050: 95f5 613f 48d7 6e3f f55a 693f fd00 5e3f
00000060: 1018 643f f52c 803f e0cf 7d3f 6e3f 7b3f
00000070: 45df 7c3f dd55 893f 43c9 813f 3447 843f

cnn.5.bias f4 [32]
-0.30667585 -0.1980855 -0.38047627 -0.19218636 -0.21289907 -0.0007924861 -0.1167662 -0.3162062
-0.2468723 -0.13183755 0.05541818 -0.34065208 -0.19612657 -0.17980212 -0.37057593 -0.03501902
-0.43970704 -0.065311514 -0.15760425 -0.26764703 -0.33124763 -0.32068276 -0.16010281 -0.12803866
0.065403044 -0.25192362 -0.3699611 -0.33626696 -0.3477384 -0.34638834 -0.32053024 -0.29229143
00000000: 9e04 9dbe edd6 4abe c9cd c2be 80cc 44be
00000010: 3702 5abe d8be 4fba 1e23 efbd c7e5 a1be
00000020: 18cc 7cbe 6c00 07be 2cfe 623d f369 aebe
00000030: 67d5 48be 0c1e 38be 21bc bdbe 1b70 0fbd
00000040: 4821 e1be 0bc2 85bd 0263 21be 0809 89be
00000050: 4a99 a9be 8830 a4be fef1 23be 911c 03be
00000060: 08f2 853d 22fc 80be 8b6b bdbe 2f2b acbe
00000070: c40a b2be d059 b1be 8a1c a4be 39a7 95be

cnn.5.running_mean f4 [32]
-1.4847132 -0.45446643 -0.617482 -0.7045338 -1.3366393 -0.32343087 -0.77372736 -1.9667109
-0.9381711 -0.40164566 0.028760329 -0.7899685 -0.62654006 -1.2885892 -0.8310085 -0.8760448
-1.3957644 -0.10043759 -0.0030780893 -1.1932523 -0.88387984 -1.0198755 -1.3389144 -1.5359597
0.026464917 -0.43609154 -1.1667591 -0.8332825 -1.2325637 -0.6013167 -0.9391031 -0.6757492
00000000: 150b bebf d3af e8be 4d13 1ebf 545c 34bf
00000010: ff16 abbf bb98 a5be ff12 46bf 2fbd fbbf
00000020: fb2b 70bf 80a4 cdbe c89a eb3c 603b 4abf
00000030: ee64 20bf 7ef0 a4bf f9bc 54bf 7944 60bf
00000040: 68a8 b2bf 39b2 cdbd c5b9 49bb 7ebc 98bf
00000050: f345 62bf 488b 82bf 8c61 abbf 549a c4bf
00000060: f4cc d83c 6447 dfbe 5d58 95bf 0052 55bf
00000070: a6c4 9dbf e4ef 19bf 1069 70bf e6fd 2cbf

cnn.5.running_var f4 [32]
3.558717 1.5545553 2.85633 1.3591998 2.4425123 1.36868 1.9165504 4.8160286
2.4520535 1.2322116 1.3882157 3.391911 2.0073574 3.3335276 2.7627046 2.3177316
2.757435 0.9442947 1.0958345 2.6851413 3.3616815 3.771335 3.8921347 6.102308
0.7903376 1.7439535 2.2856712 1.9131861 2.9293792 2.6411164 2.4455795 3.9726205
00000000: 05c2 6340 abfb c63f 1cce 3640 42fa ad3f
00000010: 1f52 1c40 e830 af3f 8651 f53f e81c 9a40
00000020: 72ee 1c40 1cb9 9d3f 0db1 b13f 1215 5940
00000030: 8b78 0040 8458 5540 27d0 3040 b755 1440
00000040: d179 3040 4cbd 713f 4e44 8c3f 5bd9 2b40
00000050: ca25 5740 8d5d 7140 bc18 7940 1b46 c340
00000060: 9153 4a3f de39 df3f 7048 1240 48e3 f43f
00000070: f37a 3b40 0d08 2940 6084 1c40 6a3f 7e40

cnn.8.weight f4 [48, 32, 3, 3]
-0.21713781 -0.117431164 0.19666032 -0.16997164 -0.015442481 0.17565498 -0.05133587 0.022287153
0.09331614 -0.08683353 -0.022262055 0.08680759 -0.0428321 -0.020476623 0.059084415 -0.009968301
-0.018426161 0.053595398 -0.029809324 0.14057155 0.10023248 0.05162205 0.19740099 0.12665755
-0.14283586 -0.030171772 0.052527968 -0.16247626 0.025743455 0.14054154 -0.09190739 0.046048675
0.07509463 -0.11485907 0.1022194 0.14158997 -0.10697363 -0.01915049 0.1800695 -0.17099084
-0.07743213 0.18808372 -0.059283383 0.02992173 0.24071443 -0.0018801885 0.124924764 -0.010560326
-0.039315138 0.0008538574 0.03074075 0.059297856 0.042514574 0.036648847 0.05219624 -0.091423444
-0.018685257 -0.06424542 -0.101074666 0.021823036 -0.027420219 -0.082513176 0.12525867 0.0018725425
0.057217985 -0.092561774 0.013447152 -0.1107364 -0.2522076 0.089547545 -0.06627057 -0.089779265
-0.10491877 -0.11829481 -0.14705136 -0.031120047 -0.11060006 -0.14080864 0.0530266 0.20168638
0.10754842 -0.017548285 -0.23109698 -0.036898673 0.0052268514 -0.011629859 -0.02234976 0.06239359
0.093748964 -0.04153926 -0.07002125 0.011908872 -0.02926711 -0.019257803 0.0004542535 0.02387639
0.024594903 0.024094535 -0.060405485 -0.08255794 0.049348924 0.13575503 -0.07063946 0.10935234
0.07613992 -0.09189074 0.029500486 -0.077851735 0.061944913 -0.042221252 -0.14917865 -0.07680526
0.02356172 0.14691994 -0.037154462 -0.024950033 0.045048077 -0.09293462 0.00793711 0.10611011
-0.028606843 -0.069440134 0.08873649 -0.06720898 0.025907807 0.13174453 0.017565366 -0.019010447
-0.024746932 0.012662899 -0.07285566 0.015910003 -0.15643272 -0.005782706 0.03795652 -0.0836138
0.035514817 0.12341164 -0.15949836 -0.03457549 0.13570885 -0.07123742 -0.04179201 0.06365268
0.005571978 0.1534192 0.13739038 -0.03343333 0.041533455 0.09943794 -0.13032468 0.02933637
0.03686847 -0.11957567 -0.25524774 0.01784959 -0.04864592 -0.19443788 -0.06782579 -0.08980417
-0.16825265 -0.027766312 -0.094072744 -0.037472967 0.10451034 -0.03199887 -0.022902573 0.04103838
-0.08771546 -0.04294936 0.050886523 0.05941887 0.08158661 -0.061340563 0.08671568 0.011603127
-0.08810563 0.009532359 -0.0128024705 -0.076058954 -0.15408088 0.00076637464 0.15778494 -0.21154355
-0.07147692 0.17433046 -0.19965182 -0.052097578 0.080721565 -0.19148523 -0.057300046 0.10078059
-0.1120716 0.059430145 0.02570551 -0.09901022 -0.015200525 0.05131762 0.047962442 0.010556937
-0.03299728 -0.049770273 0.02144092 -0.029141286 -0.02713026 0.036327165 0.053659584 0.019592922
-0.076124184 -0.042316172 -0.10578443 -0.027259083 -0.026377287 0.06831467 0.0294972 -0.012646632
-0.04782466 0.141518 0.14087449 -0.14266053 -0.03653831 0.08836091 -0.09220324 -0.03851994
-0.015727717 -0.01664073 -0.09322164 -0.13465273 -0.09174833 -0.0416455 0.042193912 -0.11195564
-0.19528702 0.037166502 -0.11261988 0.11309879 0.13779426 -0.17568405 -0.03427769 0.07746896
-0.03192355 -0.055555377 -0.06624292 0.1543305 0.108845055 0.041354608 0.079567276 -0.08137553
-0.07902709 -0.0021751733 -0.086394176 -0.031902377 -0.029976327 -0.062502265 -0.0065232385 -0.09488474
00000000: 6059 5ebe c07f f0bd 5361 493e 0c0d 2ebe
00000010: 7602 7dbc e6de 333e 9045 52bd 8c93 b63c
00000020: 881c bf3d c7d5 b1bd ea5e b6bc 2ec8 b13d
00000030: b670 2fbd 97be a7bc 8002 723d 1652 23bc
00000040: 76f2 96bc d986 5b3d af32 f4bc fdf1 0f3e
00000050: b046 cd3d a571 533d 7c23 4a3e 84b2 013e
00000060: 9043 12be cb2a f7bc 9127 573d 2d60 26be
00000070: f0e3 d23c 1fea 0f3e f139 bcbd 899d 3c3d
00000080: 37cb 993d 3b3b ebbd 6858 d13d f6fc 103e
00000090: fe14 dbbd 7de1 9cbc 2464 383e 3918 2fbe
000000a0: bd94 9ebd 0599 403e 22d3 72bd 6a1e f53c
000000b0: d87d 763e a870 f6ba 8ed8 ff3d 3805 2dbc
000000c0: e908 21bd 66d5 5f3a 06d4 fb3c 4fe2 723d
000000d0: c323 2e3d 1a1d 163d b9cb 553d 373c bbbd
000000e0: d311 99bc 1a93 83bd 3c00 cfbd 39c6 b23c
000000f0: 5ea0 e0bc abfc a8bd cf43 003e 1a70 f53a
00000100: 685d 6a3d 0791 bdbd 7251 5c3c c4c9 e2bd
00000110: 5b21 81be b464 b73d ddb8 87bd 31de b7bd
00000120: a7df d6bd 8d44 f2bd a294 16be 78ef febc
00000130: 4982 e2bd 2430 10be 6c32 593d e086 4e3e
00000140: 5942 dc3d 6cc1 8fbc b0a4 6cbe 1023 17bd
00000150: 0246 ab3b 2a8b 3ebc d816 b7bc 6c90 7f3d
00000160: 75ff bf3d 1225 2abd 4d67 8fbd 6e1d 433c
00000170: 94c1 efbc 8ac2 9dbc df28 ee39 6b98 c33c
00000180: 407b c93c e761 c53c be6b 77bd 2314 a9bd
00000190: 1922 4a3d 5e03 0b3e 6cab 90bd 1ff4 df3d
000001a0: 3fef 9b3d 3631 bcbd 01ab f13c bb70 9fbd
000001b0: f3b9 7d3d 31f0 2cbd 4ac2 18be 134c 9dbd
000001c0: 8204 c13c 2e72 163e 472f 18bd 0364 ccbc
000001d0: 5584 383d 8254 bebd a70a 023c 4250 d93d
000001e0: e658 eabc a136 8ebd 7abb b53d dda4 89bd
000001f0: 9c3c d43c 0ae8 063e 3ee5 8f3c ccbb 9bbc
00000200: 14ba cabc 0c78 4f3c 5935 95bd b255 823c
00000210: e62f 20be db7c bdbb 4c78 1b3d b63d abbd
00000220: fc77 113d 3ebf fc3d 8a53 23be 079f 0dbd
00000230: 43f7 0a3e ede4 91bd 192e 2bbd 565c 823d
00000240: 2495 b63b ec19 1d3e 10b0 0c3e 63f1 08bd
00000250: fc1e 2a3d 1ea6 cb3d d573 05be d452 f03c
00000260: 6503 173d 17e4 f4bd d5af 82be 4e39 923c
00000270: f240 47bd b91a 47be 3fe8 8abd 40eb b7bd
00000280: 6c4a 2cbe 2d76 e3bc 36a9 c0bd 417d 19bd
00000290: 8409 d63d 3f11 03bd 2d9e bbbc dc17 283d
000002a0: 2aa4 b3bd abeb 2fbd 636e 503d 3361 733d
000002b0: e116 a73d 3e40 7bbd fe97 b13d 0b1b 3e3c
000002c0: b970 b4bd 9d2d 1c3c 74c1 51bc ccc4 9bbd
000002d0: 61c7 1dbe 88e6 483a 6092 213e df9e 58be
000002e0: 7e62 92bd af83 323e 8771 4cbe 4564 55bd
000002f0: 5951 a53d b414 44be 74b3 6abd 0e66 ce3d
00000300: cc85 e5bd 066d 733d 5d94 d23c dfc5 cabd
00000310: 9f0b 79bc 6d32 523d 4474 443d 01f7 2c3c
00000320: 2828 07bd eadb 4bbd dea4 af3c b5b9 eebc
00000330: 4740 debc cbcb 143d 27ca 5b3d 5681 a03c
00000340: ffe6 9bbd b953 2dbd 82a5 d8bd 714e dfbc
00000350: 2e15 d8bc 90e8 8b3d 1da4 f13c d233 4fbc
00000360: cae3 43bd 18ea 103e 6741 103e 9a15 12be
00000370: 32a9 15bd 91f6 b43d 0dd5 bcbd 16c7 1dbd
00000380: 6ad7 80bc 2452 88bc fdea bebd 68e2 09be
00000390: 8ce6 bbbd 7994 2abd 86d3 2c3d 0049 e5bd
000003a0: 52f9 47be e73b 183d 40a5 e6bd 57a0 e73d
000003b0: f019 0d3e 85e6 33be c366 0cbd 0ca8 9e3d
000003c0: 45c2 02bd 098e 63bd 5eaa 87bd d108 1e3e
000003d0: 28ea de3d 7363 293d 2bf4 a23d 37a8 a6bd
000003e0: f4d8 a1bd 5a8d 0ebb 6eef b0bd 11ac 02bd
000003f0: ea90 f5bc 3001 80bd e4c0 d5bb ee52 c2bd

cnn.8.bias f4 [48]
-0.116631925 0.03673603 -0.028811995 0.030187996 -0.0024692598 0.019376608 0.018560698 -0.005743038
-0.039607808 -0.042314634 -0.056198973 -0.047072247 0.0431733 -0.05186401 0.010523013 -0.0251304
-0.09052527 -0.09085443 -0.018636357 0.03964412 0.06959644 0.0073638703 -0.06636159 -0.019761095
-0.02646516 -0.07225957 -0.0057243025 0.062080406 0.0534624 -0.005345633 0.07152858 0.036903348
-0.03283431 0.021321042 0.010795773 0.0045899176 -0.0149027705 -0.080912136 0.025016967 -0.082476944
0.019782003 0.017563328 -0.059155967 0.102069594 0.054964628 0.017203486 -0.005528053 -0.027623698
00000000: b8dc eebd 8578 163d 2207 ecbc d14c f73c
00000010: 4ed3 21bb b1bb 9e3c 9b0c 983c 1830 bcbb
00000020: cc3b 22bd 1c52 2dbd e530 66bd d4ce 40bd
00000030: 7cd6 303d 5b6f 54bd b768 2c3c 45de cdbc
00000040: 5065 b9bd e311 babd 46ab 98bc df61 223d
00000050: 9488 8e3d 9f4c f13b 96e8 87bd 05e2 a1bc
00000060: 77cd d8bc d3fc 93bd ee92 bbbb 0648 7e3d
00000070: 64fb 5a3d 6b2a afbb 937d 923d f727 173d
00000080: 457d 06bd 77a9 ae3c c1e0 303c 0567 963b
00000090: c02a 74bc 43b5 a5bd 62f0 cc3c ace9 a8bd
000000a0: de0d a23c f8e0 8f3c 874d 72bd dd09 d13d
000000b0: 9722 613d 53ee 8c3c ab24 b5bb 184b e2bc

cnn.9.weight f4 [48]
1.0867087 0.90918595 0.9708923 1.0196333 0.9084896 1.0723569 0.999695 0.90504354
1.0030748 0.8831396 0.87645096 0.96075904 1.0452439 0.9036327 0.92251897 0.8644012
1.0270113 0.95206416 0.92875355 0.9004598 0.92564696 1.0428163 0.95598876 0.95047504
1.0755483 1.0245681 0.9206654 0.89950204 0.8920832 0.9753127 0.9196855 1.0878359
0.9357772 0.94591653 1.0413212 0.93760914 0.9100068 0.9666385 0.8722675 0.9160584
0.84704983 0.9657784 0.95768493 0.9185713 0.9892157 0.9509712 0.8840529 0.88067836
00000000: 4519 8b3f 69c0 683f 668c 783f 5883 823f
00000010: c692 683f fe42 893f 03ec 7f3f efb0 673f
00000020: c164 803f 7015 623f 175f 603f 4ef4 753f
00000030: 8dca 853f 7954 673f 342a 6c3f 6649 5d3f
00000040: 1b75 833f 7aba 733f cbc2 6d3f 8984 663f
00000050: 33f7 6c3f 017b 853f aebb 743f 5552 733f
00000060: 91ab 893f 0c25 833f bab0 6b3f c445 663f
00000070: 915f 643f 18ae 793f 8270 6b3f 353e 8b3f
00000080: 188f 6f3f 9627 723f 034a 853f 2707 703f
00000090: 35f6 683f 9f75 773f ec4c 5f3f ce82 6a3f
000000a0: 42d8 583f 413d 773f d72a 753f 7d27 6b3f
000000b0: 3d3d 7d3f d972 733f 4a51 623f 2374 613f

cnn.9.bias f4 [48]
-0.35545585 -0.27558252 -0.36506006 -0.22912651 -0.19169348 -0.15654622 -0.12349108 -0.31241244
-0.24721287 -0.43705595 -0.2737409 -0.34384194 -0.45691898 -0.22874752 -0.37682042 -0.37070507
-0.2855184 -0.25017947 -0.16870429 -0.3275504 -0.2440861 -0.2933281 -0.40980035 -0.22905913
-0.35340792 -0.4084282 -0.4033189 -0.312309 -0.37199786 -0.21483809 -0.4013406 -0.50664455
-0.07696711 -0.19681077 -0.2994211 -0.16200434 -0.29988065 -0.35226145 -0.31467718 -0.28939968
-0.2015133 -0.29176387 -0.37747487 -0.2261076 -0.4179899 -0.22358029 -0.48012662 -0.3435247
00000000: 4ffe b5be 2719 8dbe 27e9 babe 24a0 6abe
00000010: 4c4b 44be a74d 20be e4e8 fcbd 86f4 9fbe
00000020: 5f25 7dbe ccc5 dfbe c427 8cbe 0d0c b0be
00000030: 49f1 e9be ca3c 6abe 9bee c0be 0ecd bdbe
00000040: 782f 92be 8617 80be d1c0 2cbe b0b4 a7be
00000050: b5f1 79be 1a2f 96be 5ad1 d1be 7a8e 6abe
00000060: e2f1 b4be 801d d1be d17f cebe f7e6 9fbe
00000070: 8176 bebe 84fe 5bbe 847c cdbe 75b3 01bf
00000080: efa0 9dbd c388 49be b94d 99be 77e4 25be
00000090: f589 99be 9d5b b4be 5e1d a1be 322c 94be
000000a0: 8159 4ebe 1362 95be 6344 c1be c088 67be
000000b0: c602 d6be 3bf2 64be 28d3 f5be 78e2 afbe

cnn.9.running_mean f4 [48]
-0.9514639 -1.091375 -0.87745494 -0.15934904 -0.811767 -0.08746084 -0.8865368 -1.287952
-1.3681353 -0.64182615 -1.8030192 -1.2155782 -0.38777512 -1.0999627 -1.4146178 -1.2383935
-0.97071457 -1.9033672 -0.2229063 -0.2379322 -0.7602706 -0.8122539 -0.85004646 -1.1512077
-1.5256416 -1.2165757 -0.8236437 -0.63560766 -0.82449645 -0.1668375 -1.1058209 -0.45052797
-0.677272 -0.8296351 -1.5655217 -0.6433337 0.34149885 -1.3730274 -1.376338 -0.1481872
-0.45146644 0.10098701 -0.92624044 -0.5889207 -1.2808303 -0.86648256 -1.1222159 -0.73086435
00000000: 2393 73bf 2db2 8bbf e3a0 60bf 652c 23be
00000010: f6cf 4fbf ab1e b3bd 13f4 62bf 9cdb a4bf
00000020: 0f1f afbf b84e 24bf 55c9 e6bf 1198 9bbf
00000030: 768a c6be 94cb 8cbf 3212 b5bf ae83 9ebf
00000040: c080 78bf 89a1 f3bf 8d41 64be 80a4 73be
00000050: 18a1 42bf dfef 4fbf a59c 59bf c65a 93bf
00000060: 3948 c3bf c1b8 9bbf 50da 52bf 2fb7 22bf
00000070: 3312 53bf 73d7 2abe 8a8b 8dbf 9aab e6be
00000080: b361 2dbf f762 54bf 0463 c8bf 84b1 24bf
00000090: f0d8 ae3e 5dbf afbf d82b b0bf 63be 17be
000000a0: 9c26 e7be 47d2 ce3d 181e 6dbf 82c3 16bf
000000b0: 3ff2 a3bf cdd1 5dbf c5a4 8fbf ed19 3bbf

cnn.9.running_var f4 [48]
1.5167089 1.0743437 1.3491902 1.375653 0.8444569 1.3272889 1.4048879 0.9567677
0.98268855 0.9076078 1.043126 1.6508335 0.7210753 0.98384786 1.0797266 1.083046
0.9358825 1.2259825 0.88713497 1.0751073 0.9982632 1.219536 1.0449144 1.3865114
1.6426406 1.0874047 1.1282102 0.99902767 1.0817758 1.173314 1.0512532 1.1532913
1.0417241 1.5494065 1.1249092 0.8591177 1.0183386 1.3888663 1.0414904 0.80073357
1.1402735 0.90017945 0.8907366 1.1971432 1.3346839 0.94697195 1.2087365 1.059566
00000000: 8423 c23f 1884 893f 44b2 ac3f 6615 b03f
00000010: 542e 583f 9ae4 a93f 5ed3 b33f baee 743f
00000020: 7a91 7b3f fc58 683f 2785 853f 834e d33f
00000030: 6498 383f 74dd 7b3f 7b34 8a3f 40a1 8a3f
00000040: ff95 6f3f ffec 9c3f 471b 633f 1e9d 893f
00000050: 2d8e 7f3f c119 9c3f c1bf 853f 3579 b13f
00000060: 0c42 d23f 1430 8b3f 3169 903f 47c0 7f3f
00000070: a177 8a3f 272f 963f 778f 863f 0d9f 933f
00000080: 3757 853f f452 c63f 06fd 8f3f 23ef 5b3f
00000090: eb58 823f 5fc6 b13f 8f4f 853f e0fc 4c3f
000000a0: 7bf4 913f 2972 663f 5007 643f fd3b 993f
000000b0: ecd6 aa3f c16c 723f e1b7 9a3f dc9f 873f

cnn.12.weight f4 [64, 48, 3, 3]
0.12935577 0.027930085 0.00071415305 0.15690713 0.053066466 0.15094243 0.11275622 0.21451907
0.16806787 -0.12800068 -0.042530697 0.14320342 0.05778401 -0.048915632 0.037546944 -0.043751836
0.029905284 0.23603533 0.035364404 0.01549747 0.116624475 0.010028181 -0.074379876 0.061265368
-0.032822117 0.0509642 -0.26699752 0.03257477 -0.0144024035 0.020744245 -0.08151186 0.034203168
0.04334018 -0.07216314 0.05889709 0.0056973016 -0.009264563 -0.026262296 0.0481042 -0.1490497
-0.09314132 -0.02670449 -0.05666505 0.08210824 -0.006898225 0.14663808 0.004211173 -0.014724827
-0.01899185 -0.06648285 0.15286915 -0.0322919 0.0049200123 -0.077062815 0.055088066 -0.02912324
0.010809314 0.16680095 -0.00018699904 -0.08150189 -0.056169502 -0.007657575 -0.01052526 0.044321276
0.019390216 -0.04863277 -0.075867064 0.030229505 0.1874404 -0.048205543 -0.1133732 0.091267236
-0.015075987 -0.036286023 0.04038229 -0.04398571 -0.09320249 -0.092080064 -0.05378645 -0.060052738
0.029674686 -0.036565907 -0.18930183 -0.15551656 0.08511376 0.17168462 0.16408803 0.041387826
0.008359754 0.15825814 0.017013129 0.008233467 0.099944405 0.045730174 -0.06800587 -0.13515319
-0.0030568745 0.01489203 -0.037079148 0.07276921 -0.124657646 0.10294698 -0.06423939 -0.052470222
-0.028888393 -0.044386324 0.053145543 -0.11522594 -0.05607782 -0.012933985 -0.08426315 0.056268778
0.07895212 0.105746694 0.0926033 0.11888806 0.28767934 0.062008593 -0.021955315 0.090000734
-0.0854648 0.021118505 0.084919944 0.009761962 0.09180873 0.20122023 -0.0033209843 0.023648188
-0.041331436 -0.06647585 0.036195226 0.13048214 -0.012390861 0.06614569 0.070759535 -0.05497944
-0.09683086 -0.10197274 -0.09279113 0.021788906 -0.035157744 0.007442034 0.07601851 -0.024427399
-0.09811432 0.016914733 -0.0684242 -0.028956568 0.044643417 -0.23016602 -0.00464141 0.16525045
-0.055033363 -0.025570137 0.018710637 0.059053585 0.1157705 0.047572166 -0.0076188296 0.05160609
-0.050342098 -0.11605616 -0.0011829468 -0.13506009 -0.11846484 -0.13179077 -0.11265195 0.057600573
-0.018500993 -0.075218156 0.044769943 -0.08180659 -0.12755857 -0.02459659 -0.066423796 -0.09960975
-0.0043379907 0.038985927 0.11615804 0.25218046 0.044590678 -0.0682344 -0.040346865 0.076738566
0.022266302 0.011162173 -0.004575106 -0.07605742 -0.12140621 0.05676328 -0.015541088 0.013065059
0.031829495 0.02458859 0.111476146 0.09425123 -0.07608491 0.020691132 0.04103896 0.09203404
0.07846805 0.00981491 -0.065931655 -0.14599323 -0.07313636 -0.2545896 -0.2547126 -0.028823433
0.061978824 0.02303882 -0.007408932 0.024067888 0.18536785 0.0005893726 -0.09675874 0.06120188
-0.045516778 0.00026292447 0.09386017 -0.08410831 -0.050802868 -0.1626514 -0.027293019 0.07216529
0.09204541 -0.034119666 0.041886613 0.044365466 -0.07130772 0.03049706 0.055081323 0.06323664
0.06136516 0.12591264 0.16298856 0.054936852 0.13597083 -0.010345275 0.020051163 0.015606188
-0.025019795 0.036215547 0.0021545147 -0.013063174 0.08882076 0.1307342 -0.10922335 -0.1333228
-0.09267086 -0.052031107 0.027757151 0.06161062 0.11503299 0.15904507 0.17940098 0.094079345
00000000: d775 043e a2cd e43c 0036 3b3a 43ac 203e
00000010: 395c 593d a790 1a3e bcec e63d e3aa 5b3e
00000020: fc19 2c3e 9c12 03be ab34 2ebd eba3 123e
00000030: edae 6c3d c25b 48bd d3ca 193d 2035 33bd
00000040: edfb f43c 3fb3 713e 44da 103d 1ae9 7d3c
00000050: d0d8 ee3d 3d4d 243c 7a54 98bd 65f1 7a3d
00000060: 7c70 06bd d6bf 503d e6b3 88be 1f6d 053d
00000070: 0ff8 6bbc d6ef a93c b1ef a6bd 9f18 0c3d
00000080: 7985 313d 45ca 93bd 133e 713d 6eb0 ba3b
00000090: 65ca 17bc 0724 d7bc e908 453d 7ca0 18be
000000a0: e0c0 bebd 60c3 dabc 9d19 68bd 5d28 a83d
000000b0: 810a e2bb 4b28 163e e1fd 893b 6740 71bc
000000c0: cc94 9bbc 2928 88bd bb89 1c3e 8344 04bd
000000d0: 0e38 a13b 1cd3 9dbd 06a4 613d dc93 eebc
000000e0: 8d19 313c decd 2a3e 2c15 44b9 77ea a6bd
000000f0: fe11 66bd 65ec fabb 2472 2cbc 3a8a 353d
00000100: 3bd8 9e3c 2833 47bd 3160 9bbd dea3 f73c
00000110: 60f0 3f3e 2d73 45bd 3530 e8bd 51ea ba3d
00000120: 4601 77bc a7a0 14bd e667 253d 5c2a 34bd
00000130: f2e0 bebd 7994 bcbd 2e4f 5cbd dcf9 75bd
00000140: 5418 f33c 22c6 15bd 57d8 41be bc3f 1fbe
00000150: 1f50 ae3d 18ce 2f3e b106 283e 4886 293d
00000160: 5af7 083c 6c0e 223e 1e5f 8b3c aae5 063c
00000170: a7af cc3d 904f 3b3d a946 8bbd 9965 0abe
00000180: d855 48bb b3fd 733c 4ee0 17bd 0608 953d
00000190: 824c ffbd ded5 d23d f18f 83bd 04eb 56bd
000001a0: 5aa7 ecbc 6fce 35bd 24af 593d 94fb ebbd
000001b0: dbb1 65bd 11e9 53bc 2992 acbd 177a 663d
000001c0: a6b1 a13d b991 d83d cda6 bd3d 957b f33d
000001d0: b54a 933e b9fc 7d3d a2db b3bc 4e52 b83d
000001e0: 2b08 afbd b700 ad3c 82ea ad3d a3f0 1f3c
000001f0: 3706 bc3d ad0c 4e3e dfa4 59bb d8b9 c13c
00000200: 274b 29bd 7e24 88bd 7241 143d 1c9d 053e
00000210: 0a03 4bbc 6477 873d 60ea 903d 1f32 61bd
00000220: 424f c6bd 15d7 d0bd 4709 bebd a67e b23c
00000230: 9101 10bd 4edc f33b 98af 9b3d f81b c8bc
00000240: 29f0 c8bd c490 8a3c fd21 8cbd 5336 edbc
00000250: 04dc 363d a4b0 6bbe f816 98bb 6a37 293e
00000260: aa6a 61bd 7778 d1bc 0d47 993c 2ce2 713d
00000270: 1519 ed3d 08db 423d 60a7 f9bb e860 533d
00000280: 8433 4ebd daae edbd 1c0d 9bba 314d 0abe
00000290: b29d f2bd 29f4 06be 11b6 e6bd 94ee 6b3d
000002a0: 658f 97bc fa0b 9abd b060 373d 378a a7bd
000002b0: b79e 02be ca7e c9bc 3309 88bd 3200 ccbd
000002c0: b425 8ebb b5af 1f3d 44e4 ed3d cc1d 813e
000002d0: b7a4 363d 7abe 8bbd c142 25bd 1c29 9d3d
000002e0: d267 b63c 8ce1 363c c5ea 95bb fec3 9bbd
000002f0: d2a3 f8bd 9d80 683d 0ca0 7ebc d40e 563c
00000300: a55f 023d 036e c93c 9b4d e43d ca06 c13d
00000310: 68d2 9bbd 7380 a93c 7818 283d 587c bc3d
00000320: dbb3 a03d b7ce 203c 2d07 87bd 407f 15be
00000330: 84c8 95bd 9159 82be b169 82be 1f1f ecbc
00000340: 82dd 7d3d e8bb bc3c a0c6 f2bb 052a c53c
00000350: 12d1 3d3e 2080 1a3a 7229 c6bd d3ae 7a3d
00000360: cd6f 3abd 20d9 8939 c339 c03d fa40 acbd
00000370: ab16 50bd 178e 26be 9c95 dfbc 65cb 933d
00000380: 4e82 bc3d 10c1 0bbd 4c91 2b3d 90b8 353d
00000390: c809 92bd f8d4 f93c f49c 613d 3682 813d
000003a0: 095a 7b3d 3eef 003e 79e6 263e 7705 613d
000003b0: f03b 0b3e 3a7f 29bc 5642 a43c 19b1 7f3c
000003c0: 50f6 ccbc c156 143d c232 0d3b ec06 56bc
000003d0: a9e7 b53d 30df 053e 7eb0 dfbd c685 08be
000003e0: 38ca bdbd 921e 55bd f762 e33c 6b5b 7c3d
000003f0: 6b96 eb3d b6dc 223e e4b4 373e acac c03d

cnn.12.bias f4 [64]
0.015935378 -0.017113162 -0.032462504 0.0030457813 -0.042212673 0.0063782437 -0.0054112063 -0.026827168
0.035229664 -0.007551125 -0.0003637322 0.035032526 0.05031349 0.0016412141 -0.017973522 0.023044137
-0.06098142 -0.024462039 0.013243221 -0.0045615416 -0.014097056 0.049737066 -0.0020916648 -0.030136796
-0.0037381917 -0.043708 -0.016001055 0.014300515 0.05498879 -0.014097772 0.03378604 0.051648274
-0.049577937 0.014334815 -4.508425e-05 0.05034662 0.0038978746 -0.0399241 -0.036805205 -0.012470147
0.013132124 0.026302649 -0.022289224 -0.024967229 -0.036763553 0.036941785 0.042124595 -0.038020764
-0.029081866 -0.00854959 -0.01921813 0.046081178 -0.04290089 0.0028719823 0.0527968 -0.054214083
-0.050906308 0.0034644268 0.042852607 0.056527205 0.03190847 -0.07725497 -0.028694633 -0.0670046
00000000: e98a 823c e730 8cbc 67f7 04bd bb9b 473b
00000010: 32e7 2cbd 9600 d13b 7d50 b1bb a6c4 dbbc
00000020: fb4c 103d 6d6f f7bb 4fb3 beb9 447e 0f3d
00000030: 8515 4e3d 021e d73a 353d 93bc 0fc7 bc3c
00000040: a7c7 79bd 9d64 c8bc 18fa 583c fc78 95bb
00000050: 57f7 66bc 18b9 4b3d 5014 09bb 71e1 f6bc
00000060: 73fc 74bb 2907 33bd a514 83bc b54c 6a3c
00000070: ed3b 613d 57fa 66bc 3b63 0a3d 248d 533d
00000080: 3c12 4bbd 92dc 6a3c d818 3db8 4238 4e3d
00000090: 7c73 7f3b 7487 23bd 0ec1 16bd 964f 4cbc
000000a0: 1f28 573c a778 d73c e497 b6bc 1388 ccbc
000000b0: 6195 16bd 4550 173d d78a 2c3d a9bb 1bbd
000000c0: 183d eebc 9413 0cbc 576f 9dbc 9ebf 3c3d
000000d0: d8b8 2fbd de37 3c3b 7541 583d 960f 5ebd
000000e0: 2283 50bd 700b 633b 3786 2f3d 1289 673d
000000f0: 75b2 023d db37 9ebd 0211 ebbc b539 89bd

cnn.13.weight f4 [64]
0.88007087 0.9277391 0.95340973 0.95471865 0.82061446 0.88110894 0.82310253 0.88536084
0.854912 0.84815603 0.963903 0.88843733 0.93498015 0.98911375 0.9519289 0.8817266
0.90627563 0.8455235 0.92074114 1.0132105 0.9430967 0.9441979 0.924165 0.89237475
0.88004404 0.9473245 0.88409084 0.94468135 0.9654444 0.9349809 0.9674123 0.8842608
0.937319 0.8990999 0.8449444 0.9220148 0.92080975 0.88165855 0.9535767 0.95655316
0.9120189 0.87086284 0.8825668 0.8694384 0.9321366 0.91901964 0.9807193 0.8906626
0.9558364 0.8867043 0.8642771 0.99178535 0.92589587 0.9323846 0.97783965 0.9910518
0.9733669 0.97169554 1.0276159 0.9085859 0.89478993 0.9264352 0.9272882 0.9789189
00000000: 534c 613f 4f80 6d3f a912 743f 7168 743f
00000010: ca13 523f 5b90 613f d9b6 523f 02a7 623f
00000020: 83db 5a3f c120 593f 59c2 763f a170 633f
00000030: dc5a 6f3f 8f36 7d3f 9db1 733f d6b8 613f
00000040: ae01 683f 3a74 583f b1b5 6b3f e2b0 813f
00000050: c96e 713f f4b6 713f 1496 6c3f ac72 643f
00000060: 914a 613f dc83 723f c753 623f a3d6 713f
00000070: 5d27 773f e95a 6f3f 55a8 773f ea5e 623f
00000080: 23f4 6f3f 692b 663f 474e 583f 2909 6c3f
00000090: 30ba 6b3f 60b4 613f 9a1d 743f abe0 743f
000000a0: 127a 693f def0 5e3f e6ef 613f 8493 5e3f
000000b0: 81a0 6e3f df44 6b3f 6c10 7b3f 7702 643f
000000c0: b2b1 743f 0eff 623f 4441 5d3f a5e5 7d3f
000000d0: 8307 6d3f c2b0 6e3f b353 7a3f 92b5 7d3f
000000e0: 932e 793f 0ac1 783f eb88 833f 1699 683f
000000f0: f410 653f db2a 6d3f c262 6d3f 6e9a 7a3f

cnn.13.bias f4 [64]
-0.1652046 -0.16067944 -0.152952 -0.15453674 -0.22984792 -0.22876544 -0.19261615 -0.14692293
-0.30292153 -0.22643858 -0.24659732 -0.16135673 -0.15088487 -0.18344066 -0.16977948 -0.11510793
-0.16796528 -0.17368212 -0.16602749 -0.17750108 -0.21180004 -0.12821753 -0.13888216 -0.17688024
-0.25624913 -0.15905039 -0.11431949 -0.16527371 -0.12049911 -0.13396254 -0.16713272 -0.17343922
-0.12644212 -0.19855087 -0.22645089 -0.13685249 -0.15330671 -0.21341217 -0.109888025 -0.21708947
-0.24951136 -0.17437309 -0.21632247 -0.25951284 -0.20029916 -0.14026916 -0.07976439 -0.085462645
-0.12296526 -0.15557788 -0.22788988 -0.14595374 -0.095521614 -0.13826273 -0.1483734 -0.16101304
-0.14553434 -0.17796049 -0.20287871 -0.1690511 -0.112629965 -0.16439833 -0.22384068 -0.17830664
00000000: 652b 29be 2789 24be 739f 1cbe e13e 1ebe
00000010: 415d 6bbe 7d41 6abe 2b3d 45be f772 16be
00000020: 8818 9bbe 84df 67be 0284 7cbe b33a 25be
00000030: 9081 1abe ded7 3bbe acda 2dbe b5bd ebbd
00000040: 17ff 2bbe bad9 31be 1c03 2abe d8c2 35be
00000050: 1ce2 58be 754b 03be 2037 0ebe 1820 35be
00000060: 1633 83be 1bde 22be 5620 eabd 833d 29be
00000070: 3dc8 f6bd 7a2d 09be d724 2bbe 0d9a 31be
00000080: 0b7a 01be eb50 4bbe bee2 67be 0f23 0cbe
00000090: 6ffc 1cbe b888 5abe f90c e1bd b44c 5ebe
000000a0: e87f 7fbe dc8e 32be a383 5dbe dede 84be
000000b0: 391b 4dbe b8a2 0fbe 835b a3bd 0a07 afbd
000000c0: 36d5 fbbd cf4f 1fbe f75b 69be e674 15be
000000d0: d6a0 c3bd bf94 0dbe 32ef 17be 9ae0 24be
000000e0: f406 15be 463b 36be 70bf 4fbe bb1b 2dbe
000000f0: 8aaa e6bd 0958 28be 7e36 65be 0496 36be

cnn.13.running_mean f4 [64]
-0.36216873 -2.1720686 -1.4645488 -0.24387339 0.13379103 -1.3213463 -1.0070894 -1.1710622
-1.361372 -1.274306 -1.1929024 1.2848113 -0.68755096 -0.56649226 -1.2212363 -0.55408496
-1.1849623 -1.1269357 -1.2258947 -0.7012982 0.8499167 -1.2714307 -0.39019993 -0.26167932
-0.68462026 -2.3506951 -0.30816147 -0.7372476 -0.56267774 -1.4180422 -1.597835 -1.3765193
-1.1733655 -1.1111997 -1.4675709 -0.65531343 -1.56289 -2.2562435 -0.96926856 0.13571166
-1.3893167 -0.82295245 -1.1984727 -0.51526314 -1.0545396 0.113376595 -1.4228243 -2.2276947
-0.452839 -0.8235658 -0.11795068 -1.1589402 -1.4531549 -0.6768256 -0.7898516 -1.3034364
-1.1391236 -1.5344483 -0.77850884 -3.2327294 -1.1839947 -0.943514 -0.3633256 -1.3311704
00000000: 2e6e b9be 2c03 0bc0 5676 bbbf f2b9 79be
00000010: 8400 093e e021 a9bf 4ee8 80bf 5ee5 95bf
00000020: 7041 aebf 761c a3bf 07b1 98bf b274 a43f
00000030: 5703 30bf a305 11bf 7951 9cbf 83d8 0dbf
00000040: d8ac 97bf 6e3f 90bf 1eea 9cbf 4788 33bf
00000050: 2494 593f 3ebe a2bf 49c8 c7be d5fa 85be
00000060: 4643 2fbf ca71 16c0 57c7 9dbe 42bc 3cbf
00000070: a60b 10bf 6882 b5bf db85 ccbf c931 b0bf
00000080: d730 96bf cb3b 8ebf 5dd9 bbbf 9fc2 27bf
00000090: c80c c8bf 4b66 10c0 fc21 78bf fff7 0a3e
000000a0: 21d5 b1bf 03ad 52bf 8e67 99bf 49e8 03bf
000000b0: 27fb 86bf fd31 e83d 1b1f b6bf 8d92 0ec0
000000c0: 83da e7be 35d5 52bf 2090 f1bd 2758 94bf
000000d0: fb00 babf 7144 2dbf b733 4abf 01d7 a6bf
000000e0: cdce 91bf cd68 c4bf 5b4c 47bf 0ae5 4ec0
000000f0: 238d 97bf 228a 71bf d005 babe cb63 aabf

cnn.13.running_var f4 [64]
1.3458261 2.3158207 1.8634706 1.3053875 2.216772 1.605902 1.4509324 1.2657746
1.7960643 2.139036 2.0188491 1.6489596 1.0692704 1.4911928 2.6286068 1.9790018
2.1985583 1.6988394 2.1595972 1.4564683 1.9467311 1.9964663 2.4547126 1.6153626
1.3739649 2.6030438 1.3537416 1.4847294 1.8249077 2.0859597 2.1721497 2.2755728
1.9745862 1.6922109 2.2619095 1.849952 1.3475868 2.2370672 1.9406463 1.003279
2.3941734 1.6584647 1.3336784 1.5101875 1.5888548 1.3739648 1.4425999 2.42572
1.9956527 1.1863749 1.2721382 1.6366371 1.8431265 1.4631824 1.545773 2.2816393
2.2568412 1.4231759 2.0500686 2.4090362 1.8899317 1.890753 1.2465327 1.4500966
00000000: 0844 ac3f 6836 1440 3486 ee3f f016 a73f
00000010: 98df 0d40 328e cd3f 27b8 b93f e704 a23f
00000020: 6fe5 e53f f7e5 0840 d334 0140 1c11 d33f
00000030: dadd 883f 68df be3f 183b 2840 ee4f fd3f
00000040: 2eb5 0c40 9273 d93f d736 0a40 8e6d ba3f
00000050: 7c2e f93f 358c ff3f 031a 1d40 34c4 ce3f
00000060: 15de af3f 4598 2640 6847 ad3f 9d0b be3f
00000070: 9396 e93f 5d80 0540 8004 0b40 fca2 1140
00000080: 3ebf fc3f 5e9a d83f 20c3 1040 3acb ec3f
00000090: b97d ac3f 1c2c 0f40 1967 f83f 726b 803f
000000a0: 233a 1940 9248 d43f f9b5 aa3f d34d c13f
000000b0: 985f cb3f 14de af3f 1da7 b83f ff3e 1b40
000000c0: 8c71 ff3f 22db 973f 6dd5 a23f 537d d13f
000000d0: 92eb eb3f 9049 bb3f e4db c53f 6106 1240
000000e0: 1670 1040 a12a b63f 5334 0340 a62d 1a40
000000f0: 48e9 f13f 3204 f23f 628e 9f3f c49c b93f
