models/model_epoch30.pth (torch, 957119 bytes, 61 tensors)

cnn.0.weight f4 [16, 3, 3, 3]
000000 c3 ec da bd 13 c9 fa 3c db f6 d6 bd 1a 16 1e be
       -0.1068969 0.030613458 -0.10496303 -0.15438119
000010 26 5e cb bc db d3 19 3e 19 b9 10 bd 01 06 42 3e
       -0.024825167 0.15022223 -0.035332773 0.18947603
000020 47 14 e8 3c 50 f4 df bd 0e bd 27 be d5 2e 53 3d
       0.028329981 -0.10935271 -0.16380712 0.051558334
000030 95 a5 68 be 66 34 8a bd 07 97 d2 3d 0d 8b 09 bd
       -0.22719415 -0.067482755 0.102827124 -0.033579875
000040 ee 75 20 3e 21 b7 8a 3e cb 77 87 be 84 8d 53 be
       0.15669987 0.2709284 -0.26458582 -0.20659453
000050 67 0f aa 3d 25 07 9f 3d 18 4a 68 bd a0 f1 4d 3e
       0.08303719 0.077650346 -0.056711286 0.20111704
000060 dc 76 d4 bd 1f e9 dd 3c 75 ac 60 3e 8d 15 a5 be
       -0.10374233 0.0270887 0.21940787 -0.32243004
000070 34 ee 27 bd 13 29 19 3e af 3d ef bd d4 5b 67 3e
       -0.040998653 0.14957075 -0.11681687 0.22593623
000080 fa 2e 16 3d e6 39 b6 bc f8 88 c8 bd e6 f1 b2 be
       0.036665894 -0.022244405 -0.0979175 -0.3495018
000090 9d 0a 9b be d4 74 14 3e 94 8c 00 3e 30 83 9c 3c
       -0.30281535 0.14497691 0.12553626 0.019105524
0000a0 ba 45 94 bc 12 70 8a bd 8b e2 82 3d c5 5c 48 be
       -0.018099654 -0.06759657 0.06390866 -0.19566639
0000b0 2f 3f 93 be c2 bc 65 be f6 76 58 3d c7 8a 61 3d
       -0.28759143 -0.22435287 0.052847825 0.05506399
0000c0 0c 4f ff bd c1 47 77 bd de 0b ac 3d e0 92 50 3e
       -0.12466249 -0.060371164 0.08400701 0.20368528
0000d0 f6 3c 0c 3d bf cd c8 bd 8e 6c 5f 3e f9 6f 88 bd
       0.034237824 -0.09804868 0.21818754 -0.06661982
0000e0 d4 2b a0 bd 07 d8 86 bd 41 31 52 bc d7 df c5 bd
       -0.078208596 -0.06584173 -0.012829126 -0.09661835
0000f0 e3 1c 0b 3e 89 f5 25 3e ad 1b 2d be ca 1a 04 3e
       0.13585238 0.16206945 -0.16905089 0.12900844
000100 1f 36 7d 3d a9 13 9e be fa 99 b7 3d 03 f1 a6 3d
       0.061819192 -0.30874375 0.089649156 0.08151438
000110 1f ca bf bc 78 6a 99 3e 70 39 8b bd 35 7d 5e be
       -0.023411809 0.29964042 -0.06798065 -0.2172745
000120 43 68 73 3d 23 d4 82 3d c6 13 fa bd 74 be 57 3e
       0.059425604 0.06388118 -0.12210803 0.21068746
000130 06 59 9f 3d e9 b2 89 be 06 83 1f 3e 22 3a 18 3c
       0.07780652 -0.2689431 0.15577325 0.009291204
000140 50 b0 61 be a5 03 4b 3e ff 52 76 3e 06 d5 74 be
       -0.22039914 0.19825609 0.24055098 -0.23909387
000150 45 21 b1 3d 69 a5 62 3d f8 57 8a bd 73 7b eb bd
       0.08648924 0.05533353 -0.0675506 -0.114981554
000160 50 90 1c 3d 20 32 48 be 11 7d 05 3e f0 9f 38 3e
       0.038223565 -0.19550371 0.1303599 0.18029761
000170 0f 83 47 b9 cd 07 56 3e 71 3a 8b bd b9 0c 4b be
       -0.00019026942 0.20901413 -0.06798256 -0.19829072
000180 71 5e f4 3d 8b 0a d9 ba 75 cd 9f be 81 ee f1 bc
       0.11932076 -0.0016558928 -0.3121144 -0.029532673
000190 74 1b 80 3e 01 bd db bb f2 0b d0 3d cf 34 e5 3d
       0.25020945 -0.0067058806 0.101585284 0.11191713
0001a0 1c db 4d be 93 c7 af 3d ad e9 dc bd c9 fe 52 be
       -0.20103115 0.08582988 -0.107867576 -0.20605005
0001b0 20 bf d0 3d cb 25 7b 3c 5b 22 d5 bd 83 c4 41 3e
       0.10192704 0.015328835 -0.104069434 0.1892262
0001c0 10 2a 40 be cb 05 1d 3e c4 cd 16 3e 23 56 9a be
       -0.18766046 0.15334241 0.14726931 -0.30143842
0001d0 98 ac d7 bc b0 77 1a 3e 35 fd 91 bb 8c ca 15 3c
       -0.026327416 0.1508472 -0.0044552335 0.009142529
0001e0 38 06 65 3e 1b 85 0e bd 7e 82 9b bd e1 86 26 3e
       0.22365654 -0.034794908 -0.07593249 0.1626239
0001f0 d1 01 9c be a2 85 2f bd bf f0 3d 3e 6a 09 b9 bd
       -0.30470136 -0.04285205 0.18548869 -0.09034999
000200 41 8f a3 bd 72 14 58 3d 89 86 b6 bd ba 44 a8 3c
       -0.07986308 0.052753873 -0.08912379 0.020540584
000210 e2 6f 1c bc 13 8f 0e be ed 38 1b 3e cd 1b 3e bc
       -0.009548159 -0.13921766 0.15158434 -0.011603308
000220 76 88 3a 3b 3e b8 a5 bd 37 71 a2 3d 8a aa 3b 3e
       0.0028462685 -0.08091782 0.0793175 0.18326774
000230 28 5c 19 3e 9f d2 3a 3a 31 55 39 3e ad d5 6a bd
       0.14976561 0.0007126722 0.18098904 -0.057332683
000240 83 e0 51 be 84 12 9e bd f0 51 85 3a 2d 5f a2 3c
       -0.204958 -0.07718375 0.0010171514 0.019820774
000250 67 4c 28 3d 36 8f 6c be 59 a2 dd be d7 60 c5 bd
       0.041088488 -0.23101506 -0.43287924 -0.09637611
000260 87 82 d4 bd 52 93 23 3e b5 ef 70 3e 07 d8 13 be
       -0.103764586 0.15974167 0.23528941 -0.14437877
000270 9c 3d b8 3d a5 bb 86 bd dc 0e a8 bd 48 a0 a6 be
       0.08996126 -0.06578759 -0.08205959 -0.3254416
000280 8c 1b 90 bc dd be c7 bd 88 29 10 be 32 c4 71 bd
       -0.01759126 -0.09753201 -0.14078343 -0.059024997
000290 e4 4f ae 3d 68 72 cc 3a 16 3c 5a bd 63 ec e1 3d
       0.08511332 0.001559806 -0.05327996 0.11031415
0002a0 09 79 65 be 46 95 f5 3a 71 19 89 3e d4 4b 5d be
       -0.22409452 0.0018736504 0.26777223 -0.21610957
0002b0 87 f0 53 3e ff 2a 2f 3e 8b 7f 98 be a4 df 02 3e
       0.20697223 0.17106245 -0.29784808 0.12780625
0002c0 2b 3a 49 3d 5a ae 5d be 6b 5a 3c 3e 67 26 cb 3c
       0.04912774 -0.21648541 0.18393867 0.024798585
0002d0 54 bd 27 be 8e af 56 bd 35 5e 43 3e bf e1 ce bd
       -0.16380817 -0.052413516 0.19078906 -0.101016514
0002e0 60 f6 a2 3d 98 34 01 3e f3 7c 1a be b1 03 da 3c
       0.079571486 0.12617719 -0.15086727 0.026613088
0002f0 c5 59 70 3d cd 30 20 3e 93 c5 27 3e c9 98 2d 3e
       0.05867936 0.15643616 0.16383962 0.16952814
000300 63 11 4d be 63 f1 c7 bd bb fb 78 be 4c e2 ed 3c
       -0.20026164 -0.09762838 -0.24314778 0.02903857
000310 ff a9 01 bd 3f ff 8a 3d 8e 14 d8 3c af da 1a 3e
       -0.03165626 0.067869656 0.026376989 0.15122484
000320 93 70 72 3e 15 38 ac 3c 37 9f 73 be db 3b 37 be
       0.23675756 0.021022836 -0.23791204 -0.17893927
000330 6d 82 c8 bd db b6 08 3e 60 82 aa bd 21 33 3c 3e
       -0.09790502 0.13351004 -0.08325648 0.18378879
000340 c1 11 e4 3d ee d0 f5 3d aa c7 27 be b9 30 33 be
       0.11136199 0.12002741 -0.1638476 -0.17499055
000350 0a d3 b6 bd 82 e2 8c bc d4 81 07 3d 13 78 a9 3c
       -0.08926971 -0.017197851 0.033082798 0.020687139
000360 2b 4e 97 bd 61 b2 e9 bd 38 2b f2 3d 9e bc 58 be
       -0.07387956 -0.11410976 0.118246496 -0.21165702
000370 02 b1 b5 bc 71 9e 64 3e 26 45 fc 3c 84 77 90 3d
       -0.02217913 0.22326066 0.030794691 0.07054046
000380 6e 60 33 bd 21 90 3d 3d bd 6d 74 be dd 1f 0b be
       -0.043793134 0.04628003 -0.23869987 -0.13586374
000390 bc 8a 7e be 79 a4 8c bd 05 1d 31 3d 1a 9e f7 3c
       -0.2485761 -0.06867308 0.043240566 0.030226756
0003a0 67 ce b7 3d 6f e6 af 3e 6d 9c 30 3e 4e 63 27 be
       0.08974915 0.34355494 0.17247172 -0.16346475
0003b0 00 83 18 3c e1 47 87 be be c0 f1 bd 16 bb 82 3d
       0.009308577 -0.26422027 -0.11804341 0.0638334
0003c0 f3 42 16 bd a4 b5 49 3e d8 5f 6e 3d c4 79 7a 3d
       -0.03668494 0.19698197 0.058196872 0.06115128
0003d0 57 22 02 3e b7 f7 52 be bf 28 d4 3d 81 f2 75 be
       0.12708412 -0.20602308 0.10359334 -0.24018289
0003e0 6d 30 27 3d 67 1d b2 bd 6f 11 8f bd 7c e6 7a 3e
       0.040817667 -0.08697014 -0.06985747 0.24501985
0003f0 ca d5 95 3e e6 dc 64 bb 02 8a 3a be dc 83 85 bd
       0.2926467 -0.0034921705 -0.18216708 -0.06519291

cnn.0.bias f4 [16]
000000 fd 06 aa 3c b5 b8 95 bd 29 70 76 be a0 a7 88 bd
       0.020755285 -0.07310621 -0.24066223 -0.06672597
000010 84 e2 4a 3e ca 6d c8 3d 2c b7 e4 3d 62 96 1a be
       0.19812971 0.097865656 0.1116775 -0.15096429
000020 35 ce 2f be 23 79 9f be e4 2b 2e bd 4a d4 25 bd
       -0.17168505 -0.31147107 -0.042522326 -0.040485658
000030 00 4b 79 be cf 21 fd 3d 75 04 b3 bd 38 ef ae 38
       -0.24345016 0.12359964 -0.087410845 8.3415245e-05

cnn.1.weight f4 [16]
000000 81 a6 94 3f 33 1b 13 3f 31 0b 91 3f de 8a 7e 3f
       1.1613313 0.5746338 1.133154 0.99430645
000010 c6 6b 2a 3f d3 88 29 3f 80 c1 84 3f cd ed 91 3f
       0.665707 0.662244 1.0371552 1.1400696
000020 11 ea 2c 3f 30 92 27 3f 8e 2d a1 3f d1 fb 78 3f
       0.67544657 0.6545744 1.2592027 0.9725924
000030 54 af 8d 3f a8 5c 35 3f 0f 7a 4d 3f 54 ee 87 3f
       1.1069131 0.7084451 0.8026437 1.0619607

cnn.1.bias f4 [16]
000000 fb cf 06 be e3 b0 e5 be 61 84 37 bd a3 4c 8a bb
       -0.13165276 -0.44861516 -0.04480398 -0.0042205616
000010 12 cf da bd c8 90 ed bd eb 5e b0 bc 20 3c 50 3b
       -0.10684027 -0.115998805 -0.021529635 0.0031774119
000020 88 13 e2 3e 8a 9b c1 3d 40 1a 10 be 1b 40 63 3d
       0.44155526 0.09453495 -0.14072514 0.055481058
000030 0b 92 9f bd 78 18 c5 3e c0 66 0a 3f d2 1c 82 bd
       -0.07791527 0.3849523 0.54063034 -0.06353153

cnn.1.running_mean f4 [16]
000000 c0 74 50 3c 6b cc a9 3b 03 3f 73 be 5e 91 68 bd
       0.012723148 0.005181839 -0.23754506 -0.056779258
000010 59 a6 52 3e d8 61 00 3e e9 f8 d6 3d 2a 55 02 be
       0.20571269 0.12537324 0.104966946 -0.127278
000020 54 27 2b be 9e 80 98 be a0 f6 6d bd e6 2e 1a bd
       -0.16714221 -0.29785627 -0.058096528 -0.037642382
000030 44 be 7a be 58 37 11 3e cc 4b e1 bd 75 05 c9 3b
       -0.24486643 0.14181268 -0.11000785 0.0061346837

cnn.1.running_var f4 [16]
000000 7c e8 ee 3d 65 6b 93 3e 43 9c ee 3d e6 2a ff 3d
       0.116654366 0.28792873 0.11650898 0.12459354
000010 59 f0 34 3d a6 29 69 3e a9 97 e0 3d 08 47 b4 3d
       0.044174526 0.22769794 0.10966427 0.08802611
000020 4e 37 8c 3d f0 f8 e2 3c e8 83 23 3e bc 1f b6 3d
       0.06846486 0.027706593 0.15968287 0.088927716
000030 d4 38 87 3d c7 22 ea 3c 2e 2a 8f 3d 7e d1 d1 3d
       0.06602636 0.028581036 0.06990467 0.102450356

cnn.4.weight f4 [32, 16, 3, 3]
000000 b1 3a dc bd a0 c5 45 bc 61 23 05 bc 5b 56 d3 bd
       -0.10753382 -0.012071043 -0.008126111 -0.103192054
000010 57 4e 90 3d 9e 55 bd 3c 01 60 15 be 98 ba 0b 3c
       0.07046192 0.023112115 -0.14587404 0.008528374
000020 21 21 c3 3c 1b 7a e8 3d 53 1f ea bd 71 59 f6 3d
       0.023819508 0.11351415 -0.11431756 0.12028778
000030 df d0 07 3d fc 97 ac bd cd de 57 3d 1d 13 b7 3d
       0.03315818 -0.08427426 0.052702714 0.089391924
000040 fd c3 0d 3d 74 5d 9f 3d 92 8d 95 3d e6 ce 5b 3c
       0.034610737 0.07781497 0.07302393 0.013416028
000050 92 63 62 bc 77 d9 15 bd ea a2 eb 3c 48 f3 21 3e
       -0.013817685 -0.036584344 0.028764207 0.1581546
000060 60 2d aa 3c 3c 1c fa 3c 41 6f 8c 3d 00 6e c1 bd
       0.02077359 0.030531041 0.068571575 -0.09444809
000070 be f8 cb bc 59 b2 d3 bc 65 47 f3 bd 0c 4d d7 bc
       -0.024898883 -0.025841879 -0.11878852 -0.026281856
000080 74 88 56 bd 61 4f f6 bd 4e 11 03 be 12 78 bb 3a
       -0.052376226 -0.12026859 -0.1279957 0.0014302752
000090 c8 01 90 bd 48 c8 bb bc 7b e1 1c bd f6 c8 95 bc
       -0.0703159 -0.02292265 -0.038300972 -0.018284302
0000a0 66 43 c6 bc 4d 5c 4e 3c 9e b0 7b bd bc 56 97 bd
       -0.02420206 0.012595248 -0.061447732 -0.0738959
0000b0 b8 d0 3b 3d 73 9b ad bd 09 83 4f bd 74 f4 7b bc
       0.045853347 -0.08476915 -0.050662074 -0.015378106
0000c0 60 00 f9 bc 18 1e fa bd 31 be 40 3d 43 93 64 3e
       -0.030395687 -0.12212771 0.04705638 0.22321801
0000d0 94 d9 81 bc 56 8a f2 3d 0d 2b 3b 3d dd ac 10 3e
       -0.01585082 0.11842792 0.045695353 0.14128442
0000e0 b2 b8 ef 3d 3f c6 12 bd 82 a8 aa 3d 8d 90 50 3d
       0.1170515 -0.035833593 0.083329216 0.050919104
0000f0 bd 59 84 bd 89 9b 0d 3d b2 c6 31 3d b0 36 af bb
       -0.06462429 0.034572158 0.04340238 -0.0053470954
000100 8b 13 2a be 2e 7e 40 3d d6 3b 9b bd 2f e8 d6 be
       -0.16609018 0.046995334 -0.07579772 -0.41974017
000110 d8 c8 1b 3d 02 1a 7e be dd b2 9e be 22 12 de bc
       0.038033336 -0.24814609 -0.30995837 -0.027108256
000120 12 ac 7e 3d 1d 22 08 bd 62 a1 02 bc a0 de 97 bd
       0.062175818 -0.033235658 -0.007973047 -0.07415509
000130 5b 1b 25 be 56 7f 7a bd 4a 69 69 3d 5f e8 04 be
       -0.16123717 -0.061156593 0.056985177 -0.12979268
000140 da 05 f6 3c 55 6b 73 bd 4f ed 84 bd 37 5f a2 bb
       0.030032087 -0.05942853 -0.064905755 -0.004955198
000150 a5 e4 b7 bd ab 8b e0 bd 73 77 64 bd 14 08 43 3c
       -0.08979157 -0.109641396 -0.05577798 0.011903781
000160 34 e9 1c be 79 b0 93 bd ac e2 c6 bd 80 05 ad bd
       -0.15323335 -0.07211394 -0.09711203 -0.08448315
000170 1f 13 0f 3d 6f 77 76 be dc 59 18 bf 5f f6 7f bc
       0.034930345 -0.24068998 -0.59512115 -0.015622704
000180 d1 bb 1b be 45 53 c2 be 5f 92 f6 3c c2 2a e3 3d
       -0.15208365 -0.37954155 0.030099092 0.1109214
000190 37 84 ba 3a 70 2e 21 3e 39 24 c4 3c 8a f6 00 be
       0.0014230077 0.15740371 0.023943054 -0.12594047
0001a0 18 03 08 3e 3d 20 3c bd f6 e4 4f 3d 2d b8 b7 3d
       0.1328243 -0.045929182 0.050755464 0.089706756
0001b0 25 be b2 bd 93 52 44 be e0 41 39 3e 33 87 45 be
       -0.087276734 -0.19172125 0.18091536 -0.19289856
0001c0 8d 66 12 bf c9 37 5c bd 3a 38 cf bd fe 94 7a be
       -0.5718773 -0.05376414 -0.10118146 -0.24470899
0001d0 99 b4 d5 bd 20 d0 cd 3d c4 f5 21 3d 87 2b 24 3d
       -0.10434837 0.10049462 0.03954102 0.040080573
0001e0 80 06 22 3d 02 eb d6 3d 3e 82 1c 3e ef 49 f7 3c
       0.03955698 0.10494043 0.15284058 0.030186621
0001f0 5d c9 9d 3d 78 64 c3 3d 16 04 6e bd c9 11 04 3e
       0.077044226 0.09540647 -0.058109365 0.1289741
000200 e9 18 b2 3d d8 2c 00 be dc 88 bd 3d 4e 31 f6 3d
       0.086961575 -0.12517107 0.092546195 0.12021123
000210 03 26 0c bc e7 0e 96 3d 57 94 0a 3d 25 8c d9 3d
       -0.008553985 0.07327061 0.033832874 0.106224336
000220 e1 64 9d 3d 02 31 04 3e 57 af 43 3d 4d d5 26 3d
       0.07685257 0.1290932 0.04777464 0.040730763
000230 94 da a6 3d 4d ff 09 3d b2 0c 14 bd 78 82 6f 3d
       0.08147159 0.03369074 -0.03614492 0.058474034
000240 e3 4e b4 bd 42 01 77 3e 85 ae 85 3d 6d d4 47 3d
       -0.08804109 0.24121574 0.065274276 0.04878657
000250 92 4b 14 3e 16 4d 94 3d 2a 83 21 3d ed 5d a1 bd
       0.14481953 0.072412655 0.03943173 -0.07879243
000260 78 86 5c bc 33 2a 99 3d 69 4f 0f be c8 7b 8f bd
       -0.013459794 0.07478752 -0.13995136 -0.07006031
000270 80 be 5d 3c 39 c8 71 be a8 76 ac 3c 71 88 87 bc
       0.013534188 -0.23611535 0.021052673 -0.016544553
000280 56 92 3e bd c3 2e ad 3d 66 7f a2 3d 83 68 7a be
       -0.046526276 0.08456185 0.079344556 -0.2445393
000290 00 68 f9 3c 37 d6 bb bd 36 06 34 bc 9a 84 ab 3d
       0.030445099 -0.091717176 -0.010987809 0.08374901
0002a0 5b da 8f 3d 8f f0 1d 3c 06 6e 35 bb 53 4a 06 bd
       0.0702407 0.009639873 -0.0027683987 -0.032785725
0002b0 af 4c 2f 3c 85 55 47 3e 38 0d 17 be 2c 40 52 3e
       0.010699435 0.19466217 -0.14751136 0.20532292
0002c0 bb 1b 87 3d 3a 54 ca bd 9b 54 66 3e 4b 54 35 bd
       0.06597086 -0.09879346 0.22493212 -0.04426984
0002d0 a0 09 8c bd f6 fc b2 3d 30 42 fa 3d de 55 cf bb
       -0.06837773 0.08739655 0.122196555 -0.006327375
0002e0 8a 35 13 3e 1d 4e af 3d f7 07 fe 3c 4d db f1 3d
       0.14375892 0.08559821 0.031009657 0.118094064
0002f0 3e 8e cd bc 96 52 13 3d a2 c0 da bc 5f 92 76 bd
       -0.02509224 0.035967432 -0.026703183 -0.060198184
000300 2b ed d3 bd 3c ad 29 be b9 44 50 3d fb 72 7d bc
       -0.103479706 -0.1656999 0.05084679 -0.015469308
000310 4e 2e af bc c1 cf 61 3e c1 cf 77 3d 26 8b 32 3e
       -0.021384384 0.22051908 0.060500864 0.17435893
000320 61 e7 e4 3d 37 ed c6 3c ec d6 56 3d 1b 00 74 be
       0.111769445 0.024283035 0.05245106 -0.23828165
000330 6a bf 40 3c 34 b8 31 be fe 4a 5f bd 5c f2 8d 3d
       0.011764387 -0.17355424 -0.054514877 0.06930992
000340 82 11 02 be 86 fc 83 bd 1d e8 16 3d 41 a6 3f 3d
       -0.12701991 -0.064446494 0.036842454 0.04678941
000350 5a 71 c3 3c 9e 35 67 bd ae c5 ed 3d 70 95 b7 bd
       0.023857761 -0.056447618 0.1160997 -0.0896405
000360 ba 50 ba bd a2 11 57 3e f1 23 d4 bd ee 51 0f 3d
       -0.090974286 0.2100282 -0.10358418 0.034990244
000370 fa a4 5f 3d 70 9d c9 bc e4 25 02 bd 69 cc 08 be
       0.054600693 -0.024611205 -0.031774417 -0.13359226
000380 9e 23 01 3e ea a9 02 3b 80 d0 35 3e 48 c6 2b 3d
       0.12611243 0.0019937702 0.17755318 0.041937143
000390 28 2d 7a 3d 8b 1f 89 bd 44 40 b4 3d 07 7d a1 bd
       0.06107822 -0.066954695 0.0880132 -0.07885175
0003a0 74 34 06 3d 6e 6e 82 bd 4d ca 9a 3c bd fd 31 3d
       0.032764867 -0.06368719 0.018895293 0.043454874
0003b0 b5 f7 6d be 79 1e 20 3e ff b7 22 bd 3d 4d a8 be
       -0.23239024 0.15636624 -0.039726254 -0.32871428
0003c0 79 ed aa 3d ba ab 45 be b7 c8 f1 bd 8b 7e d0 3d
       0.083460756 -0.1930379 -0.118058614 0.10180386
0003d0 b1 42 40 be 33 ea ea bd 61 59 d3 3c 0d 23 c5 be
       -0.18775441 -0.11470451 0.025799455 -0.38503304
0003e0 01 2d f6 bc 52 da db 3c 5c da c7 3b f0 5c 88 3d
       -0.030050756 0.026837502 0.0060990285 0.066583514
0003f0 c2 f7 df bc 26 9b 0e be 0d 9f 45 bd a6 72 60 3b
       -0.02733982 -0.13926372 -0.048247386 0.0034248023

cnn.4.bias f4 [32]
000000 92 05 a9 3d 23 37 53 3d 8e 3b f3 bc b5 84 d7 bc
       0.082530156 0.051566254 -0.029691484 -0.026308397
000010 d1 71 69 3d 60 35 88 3d b0 a2 8a bd 6e 69 54 bd
       0.05699331 0.066508055 -0.067693114 -0.051858358
000020 22 14 9e bd 12 88 72 3d 13 c9 b7 3d b7 4c f2 bc
       -0.07718684 0.059211798 0.08973899 -0.029577596
000030 81 39 bf 3d 32 2b d5 bd 4b cb 5a 3d 23 c9 e9 3c
       0.0933714 -0.104086295 0.05341653 0.028538292
000040 38 e2 4e bd f2 6f d5 3c af ca 13 be ee b1 51 bd
       -0.050508708 0.026054356 -0.14432786 -0.051195078
000050 f2 18 ad 3b 64 5b 30 bc 84 ae 3b 3d 14 cd a4 bd
       0.0052825147 -0.010763977 0.045820728 -0.08046928
000060 cd 57 78 3d 50 1d 34 bc dc 85 d3 3c 79 55 79 bd
       0.06063061 -0.010993317 0.025820665 -0.06087253
000070 be c2 a4 3d 8c d8 7d bd d6 8a f9 bd 53 c4 29 3d
       0.080449566 -0.061974093 -0.12184684 0.041446995

cnn.5.weight f4 [32]
000000 67 9c 79 3f df a6 6d 3f c7 76 84 3f d8 da 7f 3f
       0.97504276 0.9283275 1.0348748 0.99943304
000010 d2 1e 73 3f 3a cb 50 3f 57 2f 3d 3f 94 a9 76 3f
       0.94968903 0.815601 0.7390036 0.96352506
000020 c8 45 80 3f d0 42 5a 3f fc 44 86 3f d5 0c 62 3f
       1.0021296 0.852582 1.0489802 0.8830083
000030 68 45 56 3f e3 ac 70 3f da f6 78 3f 9a 86 82 3f
       0.83699656 0.94013804 0.97251666 1.0197327
000040 9f af 85 3f ea 8d 86 3f 93 58 31 3f ee ee 74 3f
       1.044422 1.0512059 0.6927578 0.9567708
000050 ca 62 67 3f b8 78 74 3f 0b 4f 60 3f e0 fa 52 3f
       0.90385115 0.954967 0.8762061 0.82414055
000060 c5 6d 65 3f 3a 24 81 3f 17 b7 80 3f 8c c6 7b 3f
       0.8962062 1.008918 1.0055875 0.98349833
000070 f3 46 83 3f d9 07 89 3f 66 2f 83 3f 2a 96 85 3f
       1.0256027 1.070552 1.024884 1.0436451

cnn.5.bias f4 [32]
000000 06 2e b9 be ca 33 6e be b9 82 cd be 69 8d 8b be
       -0.36167926 -0.23261943 -0.40138796 -0.27256325
000010 5b 8d 47 be b6 b1 dd 3d 30 9b f9 bd ab 13 b7 be
       -0.19487517 0.10824911 -0.12187803 -0.35757193
000020 8d a5 8b be d7 ca d4 bd e7 09 0f 3d 74 71 bd be
       -0.27274743 -0.10390251 0.034921553 -0.3700062
000030 58 b0 85 be 44 dc 86 be 17 77 c5 be 3e 91 c3 3d
       -0.26111102 -0.26339924 -0.3856742 0.09549187
000040 b5 ea ee be cf 77 79 bd 58 de 42 be f2 be 99 be
       -0.46663442 -0.060905274 -0.1903013 -0.30028492
000050 52 17 af be c7 5b b0 be 53 c6 69 be 5d d0 20 be
       -0.3419748 -0.3444502 -0.22829561 -0.15704484
000060 17 ad a3 3d f1 c9 99 be 58 df b3 be 79 f4 b9 be
       0.07991999 -0.30036882 -0.35131335 -0.3631933
000070 bb 24 a8 be 69 8d b6 be 55 45 99 be 82 ef ac be
       -0.32840523 -0.35654762 -0.2993571 -0.3377648

cnn.5.running_mean f4 [32]
000000 95 9d bd bf 4d 78 3d bf d8 58 59 bf ea 9f 28 bf
       -1.4813715 -0.7401169 -0.8490119 -0.6586901
000010 3a 73 a9 bf 1f d1 bb bd 90 0a 35 bf b5 5c 08 c0
       -1.3238289 -0.09170746 -0.7071924 -2.1306584
000020 42 5c a1 bf e5 12 51 be e4 9c a5 3d 70 4c 28 bf
       -1.260628 -0.20417364 0.08086565 -0.65741634
000030 6e 49 6a bf d8 3a c4 bf 0a ea 8c bf a0 23 81 bf
       -0.91518295 -1.5330458 -1.1008923 -1.0088997
000040 7b 8d d1 bf 98 c7 8d 3d 87 2b e7 be 7d a2 90 bf
       -1.6371301 0.06922835 -0.45150396 -1.1299587
000050 4c b4 a4 bf 12 ca 19 bf 47 c6 ab bf b5 0b cd bf
       -1.2867522 -0.6007396 -1.3419884 -1.6019198
000060 5e 65 9d 3d 61 55 95 be ca 6c 84 bf a2 f2 63 bf
       0.0768535 -0.291667 -1.03457 -0.89042103
000070 f4 ed a8 bf b6 3a e9 be 4b 0d 9d bf a1 aa 7f bf
       -1.3197618 -0.45552605 -1.2269682 -0.99869734

cnn.5.running_var f4 [32]
000000 41 5d 90 40 18 24 c6 3f ef 78 6b 40 e9 ec 9a 3f
       4.5113835 1.5479765 3.6792562 1.2103549
000010 e3 8c 20 40 a9 8f d1 3f d6 7c 31 40 36 32 b3 40
       2.508599 1.6371967 2.7732444 5.5998793
000020 77 0c 45 40 85 0f a7 3f 95 f3 b8 3f 55 8b 84 40
       3.0788858 1.3051611 1.4449335 4.1420083
000030 35 47 32 40 d8 b3 85 40 c7 33 67 40 55 bf 3e 40
       2.7855961 4.1782036 3.6125352 2.980428
000040 53 b6 5b 40 a0 f6 96 3f 13 8d a8 3f b3 2d 4f 40
       3.4330032 1.1794014 1.3168052 3.2371643
000050 1e ea 8a 40 b2 18 7a 40 b3 14 9b 40 7a 48 ea 40
       4.3410788 3.9077573 4.8462768 7.321347
000060 96 54 7c 3f f8 80 02 40 b6 48 1d 40 b4 c6 1a 40
       0.9856657 2.0391216 2.457563 2.4183779
000070 69 07 6e 40 f1 80 57 40 6e 8e 46 40 36 2f a7 40
       3.7192023 3.367245 3.1024432 5.224513

cnn.8.weight f4 [48, 32, 3, 3]
000000 a0 10 85 be ed fc 5c be d7 7d 7d 3e be 00 a0 bd
       -0.25989246 -0.21580859 0.24755035 -0.078126416
000010 40 69 b2 bd 64 5f f9 3d c0 47 49 bc a1 09 ab bb
       -0.08711481 0.121763974 -0.012285173 -0.0052196537
000020 f3 ed a8 3d 47 16 16 be 23 0b c4 bd 7b 3f 55 3c
       0.0824851 -0.14656936 -0.09572437 0.013015623
000030 01 b3 0b bd 67 7f 10 bd 51 a1 bc 3d 52 de 96 3b
       -0.03410626 -0.03527775 0.09210456 0.0046041394
000040 99 a2 65 bd 76 45 8a bb 6d f5 0c bd 2c 91 0d 3e
       -0.05606327 -0.004219706 -0.034413744 0.1382491
000050 de 46 86 3d bc 00 6d 3d be cc 6f 3e 4b 3f 2f 3e
       0.065564856 0.05786203 0.23417947 0.17113988
000060 04 7c 46 be b9 a2 b5 ba 05 98 e7 3d 59 cd 18 be
       -0.19383246 -0.0013857699 0.11308292 -0.14922084
000070 2c bb bf 3a 89 6c 1f 3e ca 6d 7b bd 12 64 79 3d
       0.0014627925 0.15568747 -0.061384 0.06088645
000080 60 52 03 3e fa 8e 91 bd e6 c3 0d 3e 40 3d 19 3e
       0.12824392 -0.07107349 0.1384426 0.14964771
000090 d8 41 38 bd 75 4e 6e bd d1 58 42 3e 44 b8 29 be
       -0.04498467 -0.05818029 0.18979193 -0.16574198
0000a0 36 11 b3 bd 5a e0 5c 3e 2c f5 0a 3c d3 db 99 3c
       -0.08743517 0.21569958 0.008481305 0.018781578
0000b0 75 52 41 3e 4a 05 1c 3b 66 63 9f 3d 47 b9 13 bd
       0.18879111 0.0023806863 0.077826306 -0.036065366
0000c0 1d bf a0 bd 04 4e 38 bd 8a 7f a6 bc b7 5a d4 3d
       -0.07848952 -0.044996276 -0.020324487 0.10368865
0000d0 fa f7 d9 3c 50 ab 1f bd 09 d8 34 3d 63 e3 01 be
       0.026607502 -0.038981736 0.04415134 -0.12684397
0000e0 29 40 b4 bd bb 52 26 bc c4 0d 0b be ef c0 77 bb
       -0.088013 -0.01015156 -0.1357947 -0.0037804206
0000f0 fa 49 6b 3d eb 34 37 be fa 95 d4 3d ba 83 34 3d
       0.057443596 -0.1789128 0.10380168 0.044070937
000100 78 1f 7d 3d 43 9d ec bd 3f bf a3 3d f2 f4 3b be
       0.06179759 -0.11553433 0.07995462 -0.18355158
000110 be 12 af be 82 cd 22 3e bf d5 17 bd 0a b7 61 bd
       -0.34193987 0.15898708 -0.03706908 -0.0551062
000120 83 04 09 be 4a 1b 5b be 30 69 3a be 2a d3 fa bc
       -0.13380627 -0.21397129 -0.18204188 -0.030618269
000130 1b 3d 09 be 96 c7 31 be 76 6e 8c 3d ef 5b 3e 3e
       -0.13402216 -0.17361292 0.06857006 0.18589757
000140 1a 14 c1 3d 11 34 31 bd b8 aa 85 be 8b c6 68 bd
       0.09427662 -0.043262545 -0.2610681 -0.05682997
000150 ad 37 2a 3d 2b 97 3f bd 46 26 64 bc 76 48 9c 3d
       0.041557003 -0.046775024 -0.013925141 0.07631008
000160 b8 c6 be 3d 55 b6 1e bd 93 d4 ee bd 49 1d bd bc
       0.09315246 -0.038748104 -0.11661639 -0.023085253
000170 56 41 de bc 87 f8 fd bc fc a7 88 bc e0 a4 6a 3c
       -0.027130764 -0.031002296 -0.016681664 0.014321536
000180 fd d5 b8 3d 4c f1 07 3d 0b 65 50 be b4 cc 28 bd
       0.0902519 0.033189103 -0.20351045 -0.041210845
000190 91 6f 91 3d a7 cd 1c 3e f2 e0 9b bd 94 2a 36 3d
       0.07101358 0.15312825 -0.07611264 0.0444742
0001a0 2b 07 25 3d be 02 8d bd d5 a9 08 bd b6 d7 b0 bc
       0.04029004 -0.06885289 -0.03336509 -0.021587234
0001b0 c2 5c d5 3d 1e 7d d5 3b 31 ba 3e be f1 ee 36 be
       0.10418083 0.0065151593 -0.18625714 -0.17864586
0001c0 b6 3b 74 bc ba 1a 23 3e 04 fe a0 bd f6 3d bd bd
       -0.014906814 0.15928164 -0.0786095 -0.09240334
0001d0 64 b6 9c 3c ca 92 c7 bd 33 c6 d7 3c 23 ef 40 3e
       0.01912994 -0.09744795 0.026339626 0.18841223
0001e0 0d 86 92 bc 44 ef e6 bd c3 81 c5 3d e4 9f 02 bd
       -0.017886186 -0.11276105 0.09643891 -0.031890765
0001f0 c5 08 e1 3c cc 12 ee 3d 91 70 86 bd b6 da 6e bd
       0.027470002 0.11624679 -0.06564439 -0.058314048
000200 4e b1 83 3c fc 7f af bd 02 ca 3d bd c5 40 a7 3d
       0.016075756 -0.08569333 -0.046335228 0.08166651
000210 dd c6 22 be 10 63 b9 b8 ba 8d 51 3d c8 25 bc bd
       -0.15896173 -8.839939e-05 0.05116055 -0.09186894
000220 fc 47 b8 3d ee fd 1c 3e 30 95 32 be ce e3 93 bd
       0.08998105 0.15331241 -0.17439723 -0.07221185
000230 07 17 ec 3d 30 f2 ea bc 28 a4 8f bc 2c 16 56 3d
       0.115278296 -0.028679937 -0.01753433 0.05226724
000240 ea cd 21 3b 0b 9f 27 3e 6a 57 be 3d 68 8c c4 bc
       0.0024689385 0.16369264 0.09294017 -0.023992732
000250 f4 dd 05 3d 0c 45 a0 3d 3c 5e 06 be 9a ef 18 3d
       0.032682374 0.0782567 -0.13121885 0.037337877
000260 b0 1e a6 3d 57 8c 42 bd 18 3c a5 be f5 56 db 3c
       0.08111322 -0.04749712 -0.3227241 0.026774863
000270 3c ae 2c 3d cb e9 a5 be de 56 64 bd 39 c5 64 bd
       0.04215835 -0.32404932 -0.055746906 -0.05585215
000280 4d c0 94 be 01 93 27 bd 94 2c 34 bd 02 ac 52 bd
       -0.29052964 -0.04091168 -0.043987826 -0.05143357
000290 82 37 20 3e 44 75 16 b9 64 91 93 bd ff 00 bc 3d
       0.15646175 -0.000143488 -0.072054654 0.091798775
0002a0 9e ce b5 bd af 85 50 3d a8 86 18 3e 38 89 89 3d
       -0.088773 0.05090874 0.14895117 0.067156255
0002b0 8d 97 f8 3d 45 0a 9e bc 3b 3f c7 3d da b4 5a 3d
       0.12138281 -0.019292006 0.09728857 0.05339513
0002c0 90 b1 9d bd 74 f4 cf 3c 17 d0 24 bc 22 e6 90 bd
       -0.07699883 0.025385119 -0.010059378 -0.07075144
0002d0 06 f0 0e be 49 f6 62 bc 67 b6 1a 3e 4f 0e 81 be
       -0.13958749 -0.013852664 0.15108643 -0.2520623
0002e0 b9 32 c3 bd 27 e5 4b 3e ac 96 4c be 45 cd 2e bd
       -0.09531159 0.19911633 -0.19979352 -0.04267623
0002f0 50 f1 c9 3d 46 ff 82 be 00 76 d7 bd d0 ab db 3d
       0.0986048 -0.25585383 -0.105205536 0.1072613
000300 e9 75 b9 bd 92 bd a9 3d a8 80 0b 3d a2 81 c3 bd
       -0.09055693 0.08288111 0.034058243 -0.0954621
000310 1f 6e 8c 3c 47 0e 30 3e 9c e1 96 3d 38 f4 66 3c
       0.017142354 0.17192946 0.0736725 0.014096312
000320 e8 3b 95 bd ee 33 8d bc 5f 29 67 3c fc da 73 bd
       -0.07286817 -0.017236676 0.014108985 -0.05953501
000330 69 75 38 bc 1c 9a 14 3d 89 32 c4 3d 9d f6 11 bd
       -0.0112584615 0.036279783 0.09579951 -0.03563558
000340 5d 74 02 be fe 02 40 bd 8f f2 33 be bb fd 89 bd
       -0.12739702 -0.046877854 -0.17572998 -0.06737848
000350 66 ed 49 bd 59 bd 1f 3e 11 95 83 3c bc 67 8d bd
       -0.049298666 0.15599574 0.016062291 -0.069045514
000360 4a 4f 5b bd 31 47 ed 3d 40 8a 0f 3e 32 03 38 be
       -0.053542413 0.11585844 0.14017582 -0.17969969
000370 3f 3d 59 bd 5e b0 7b 3d e2 e3 e1 bd 8b 21 1d bd
       -0.053036924 0.061447494 -0.11029793 -0.038362067
000380 bc c6 21 3b 8d 8d 78 bd 47 f5 2c be 71 7b 89 be
       0.0024685105 -0.06068187 -0.16890441 -0.2685199
000390 8f f9 8b bd c6 74 c0 bd 0e 89 93 3d 9a 40 90 bd
       -0.06834709 -0.09397273 0.072038755 -0.07043572
0003a0 34 98 7c be 14 09 ed bc f0 0a cb bd cc fb d7 3d
       -0.24667436 -0.028934993 -0.099141955 0.10546073
0003b0 d5 4e 01 3e 40 d4 57 be ad 00 ba bd e6 42 3e 3d
       0.12627728 -0.2107706 -0.0908216 0.046450518
0003c0 fa e3 82 bd 0d c3 7c bd ff 97 61 bd 45 ad 57 3e
       -0.06391139 -0.061709452 -0.055076595 0.21062191
0003d0 b1 63 ad 3d 62 35 ab 3d 45 0f 29 3d 98 07 5a bd
       0.0846628 0.08359791 0.041274328 -0.0532299
0003e0 70 e7 05 bc 2b 6a 4d bd de ef e6 bc 9a e6 44 3d
       -0.008172855 -0.050150078 -0.02819055 0.04807148
0003f0 a9 51 29 bd 44 a9 c8 bd 00 75 91 bc 8a cc 8a bd
       -0.041337643 -0.0979791 -0.017755985 -0.06777294

cnn.8.bias f4 [48]
000000 9d 20 85 bd c4 14 46 bb 6d 79 ab bd 95 7a ba bb
       -0.06500361 -0.003022478 -0.083727695 -0.0056908824
000010 f8 6d 05 3d 69 0f fb 3c 86 85 60 3d ea 86 4f 3c
       0.032575577 0.030646997 0.054814838 0.012666443
000020 75 c6 ac bd 87 3f 84 bd 5e 28 8c bd d3 40 dc bc
       -0.0843629 -0.064574294 -0.06843637 -0.02688638
000030 b3 c0 7c 3c 6a db 9f bd bc a7 28 3d d5 b1 a8 bc
       0.015426802 -0.07805522 0.04117559 -0.02059261
000040 aa 60 fe bd 65 80 c4 bd ca fb cc bc e6 ac bf 3d
       -0.12420781 -0.09594802 -0.025022406 0.0935915
000050 41 50 d7 3d a8 61 11 3d 48 68 a8 bd 25 27 9d bc
       0.10513354 0.035493523 -0.08223015 -0.019183705
000060 5b 90 ea bc e6 b5 c5 bd e6 55 83 3d 35 f3 a3 3c
       -0.028633287 -0.09653835 0.06412868 0.020013431
000070 25 f5 c0 3d a0 1f 9d 3c 3c 51 a1 3d 2a d0 08 3e
       0.094217576 0.019180119 0.07876822 0.13360658
000080 f5 f3 76 bd 2a 9d 57 3c a6 07 30 3b 21 99 7b bc
       -0.06029125 0.013160029 0.0026860028 -0.015356333
000090 7f f5 ae 3c 15 e8 02 be fe 94 13 bd 78 9e ca bd
       0.021357296 -0.12783845 -0.036030762 -0.09893507
0000a0 d6 30 2d bd de 7f 8c 3c 59 f9 a4 bd 6a 18 8f 3d
       -0.0422829 0.017150816 -0.08055372 0.069870785
0000b0 f3 9d 70 3d 54 f3 ca 3c 04 48 bb bc ab b9 f2 bc
       0.058744382 0.024774231 -0.022861488 -0.029629549

cnn.9.weight f4 [48]
000000 b4 15 8b 3f b4 ec 64 3f ec 7a 68 3f 97 1e 75 3f
       1.0865998 0.8942368 0.90812564 0.957498
000010 72 e8 59 3f 1b 5e 85 3f 55 8e 73 3f fb c6 66 3f
       0.8512031 1.0419344 0.95139056 0.9014737
000020 3d 67 77 3f b7 cd 60 3f d6 a3 5c 3f 1e bb 66 3f
       0.96641904 0.87813896 0.86187494 0.9012927
000030 60 11 85 3f a5 d8 6e 3f 2a 9d 5f 3f 4a 77 5b 3f
       1.0395927 0.93299323 0.8734919 0.85728896
000040 e3 d4 8c 3f 97 74 80 3f a1 cb 5f 3f 35 39 58 3f
       1.1002468 1.003558 0.8742009 0.8446229
000050 50 dc 59 3f 44 4a 81 3f 3c d8 79 3f d4 ae 67 3f
       0.85101795 1.0100789 0.9759557 0.9050114
000060 4f 15 89 3f 17 ca 7f 3f c9 2a 66 3f 68 f1 68 3f
       1.0709628 0.9991774 0.89909035 0.90993357
000070 0a 57 67 3f ff 4e 68 3f 71 9b 60 3f 95 3e 8c 3f
       0.90367186 0.9074554 0.87737185 1.0956599
000080 b1 12 6f 3f 5e ab 6c 3f ed a6 7f 3f 03 a3 62 3f
       0.93387896 0.92448986 0.99864084 0.88529986
000090 2a f2 4a 3f 23 55 74 3f 4c ac 51 3f d3 b9 62 3f
       0.79275763 0.9544241 0.8190353 0.88564795
0000a0 cd 52 58 3f 4f 19 7c 3f e8 1d 6d 3f 60 b6 58 3f
       0.84501344 0.9847612 0.9262376 0.8465328
0000b0 1e 1a 75 3f 3a 1a 62 3f 4c 82 60 3f 1d ef 5e 3f
       0.95742977 0.8832127 0.8769882 0.8708361

cnn.9.bias f4 [48]
000000 e3 ab c8 be a2 66 df be 33 30 df be f8 fc a7 be
       -0.3919364 -0.4363299 -0.4359146 -0.32810187
000010 37 c8 92 be 1a 71 4a be 14 58 87 be 11 7b d0 be
       -0.28668377 -0.19769707 -0.26434386 -0.40718892
000020 f1 9a c4 be 9a cf f4 be af 1d c5 be 99 c4 e1 be
       -0.3839946 -0.47814637 -0.3849921 -0.44095305
000030 da b3 19 bf c4 34 bf be af b3 e5 be f5 7b d1 be
       -0.60040057 -0.37344944 -0.4486365 -0.40914884
000040 aa 9f af be 2e 45 95 be a0 11 54 be 64 2a c1 be
       -0.34301502 -0.29154342 -0.20709848 -0.37727654
000050 87 94 aa be 56 80 a0 be b6 c5 f3 be bc de a5 be
       -0.33316442 -0.31347913 -0.4761178 -0.32396495
000060 43 5d d5 be c8 77 f9 be 5c 20 01 bf fc b3 c1 be
       -0.41672716 -0.48724198 -0.5044 -0.3783263
000070 da af d0 be ad 6f ae be 68 aa 05 bf 40 76 1a bf
       -0.40759164 -0.34069577 -0.52213144 -0.60336685
000080 e6 b3 4d be 1e 02 90 be 5c 59 d9 be 5d fc 65 be
       -0.20088157 -0.28126615 -0.42450988 -0.2245955
000090 45 31 87 be 4e 63 ed be d2 63 c1 be a2 70 91 be
       -0.26404777 -0.46364826 -0.3777147 -0.28406245
0000a0 aa 74 5b be ed cd b9 be e3 0c e7 be 2e cb b4 be
       -0.21431223 -0.3628992 -0.4512702 -0.35311264
0000b0 b3 6f ea be f5 8a 8c be 5f 57 12 bf 18 06 e0 be
       -0.45788345 -0.27449766 -0.5716457 -0.4375465

cnn.9.running_mean f4 [48]
000000 b8 04 aa bf ca 5b c3 bf 5d 3d 7e bf f7 8e 73 bf
       -1.328269 -1.5262387 -0.9931238 -0.9514002
000010 bf 6d a6 bf 56 a1 15 bf 04 83 71 bf 6d 86 96 bf
       -1.3002242 -0.58449304 -0.9434054 -1.1759773
000020 94 44 e5 bf 11 48 33 bf dc da 03 c0 99 26 ea bf
       -1.7911553 -0.7003184 -2.060233 -1.8293029
000030 24 c3 21 bf dc 24 98 bf d7 08 ab bf 31 48 d6 bf
       -0.63188386 -1.1886249 -1.3362073 -1.6740781
000040 32 33 91 bf 29 52 1a c0 cc 06 ec bd 40 22 08 bf
       -1.1343749 -2.4112647 -0.11524734 -0.5317726
000050 14 ff 7b bf 8c 68 65 bf 0d c1 8b bf dc b4 be bf
       -0.98436093 -0.8961265 -1.091829 -1.4898944
000060 3b 20 d9 bf 5b 83 ba bf db 2e 79 bf 58 d7 51 bf
       -1.6962961 -1.4571337 -0.9733712 -0.81969213
000070 24 c5 1f bf c1 d6 03 bf 60 42 ba bf 01 6a 0a bf
       -0.6241019 -0.51499563 -1.4551506 -0.54068
000080 5a 1f 87 bf 9e 11 9c bf 05 05 c1 bf 06 af 44 bf
       -1.0556443 -1.2192876 -1.5079657 -0.76829565
000090 8e 41 ea 3e a9 26 ef bf 7c 96 a5 bf b9 06 b2 be
       0.4575314 -1.8683673 -1.2936549 -0.34770754
0000a0 c2 9a 5f bf b1 ab 12 bf 77 a5 63 bf 0e 6e 8b bf
       -0.87345517 -0.5729323 -0.88924354 -1.0892961
0000b0 69 66 f0 bf 59 43 87 bf b1 d5 79 bf 3f d0 1b bf
       -1.8781253 -1.0567428 -0.9759169 -0.60864633

cnn.9.running_var f4 [48]
000000 21 c9 0d 40 a4 52 af 3f 90 3b e3 3f 87 86 ea 3f
       2.215401 1.3697095 1.7752552 1.8322304
000010 77 f2 8c 3f ac fe f9 3f 2d 82 f5 3f bc 10 93 3f
       1.1011494 1.9530845 1.9180351 1.1489482
000020 d1 90 90 3f 42 10 95 3f 21 7d 9c 3f 19 d7 f8 3f
       1.1294194 1.1645586 1.2225686 1.9440643
000030 85 ce 80 3f d6 98 7e 3f bb 60 b9 3f 11 dd d6 3f
       1.0063025 0.9945196 1.4482645 1.6786214
000040 3a 74 a3 3f f9 bd da 3f 51 84 aa 3f 6d a0 c1 3f
       1.2769845 1.7089225 1.332163 1.5127083
000050 58 f9 bf 3f ae a9 de 3f 07 51 bc 3f da 22 bd 3f
       1.4997969 1.7395532 1.4712228 1.4776261
000060 91 ed 0e 40 35 11 d3 3f f0 4a c4 3f 44 1b c2 3f
       2.23325 1.6489626 1.5335369 1.5164571
000070 12 37 ae 3f 09 87 cb 3f 80 76 d6 3f c4 28 d5 3f
       1.3610556 1.5900584 1.6754913 1.6653066
000080 62 ea b8 3f 1d ec 04 40 51 5a b4 3f 1c 0b b7 3f
       1.4446528 2.0769112 1.4090062 1.4300265
000090 54 6d a3 3f d4 d9 da 3f d8 07 95 3f aa 5b 96 3f
       1.2767739 1.7097726 1.1643019 1.1746724
0000a0 c7 1a b2 3f 82 b5 ab 3f 76 f8 99 3f 59 97 aa 3f
       1.3914422 1.3414767 1.2028949 1.3327438
0000b0 51 b2 e1 3f b5 de 95 3f 1a e7 b2 3f c6 0e 90 3f
       1.7632543 1.170859 1.3976777 1.1254508

cnn.12.weight f4 [64, 48, 3, 3]
000000 ee e6 9d 3d b8 66 26 3c 57 29 f5 bd 6e 5d d3 3d
       0.07710062 0.010156326 -0.119707756 0.10320555
000010 f7 66 2b bc a9 a0 e4 3d 1b 84 06 3e 39 bd 3d 3e
       -0.01046156 0.11163456 0.13136332 0.18529214
000020 72 61 5e 3e d4 ba 27 be 99 83 40 be 1f 71 d4 3d
       0.2171686 -0.16379863 -0.188002 0.10373139
000030 7f 08 09 bc c6 39 13 bd 25 6f 19 3e 15 b9 c5 bd
       -0.008363842 -0.03594377 0.14983805 -0.09654442
000040 e6 19 77 3d 9c 77 86 3e 07 1e ea bc cd 84 88 bb
       0.060327433 0.2626313 -0.028578771 -0.0041662217
000050 bc c9 d3 3d d9 aa 4e 3d ad 0a 6f bd 61 9d 7f 3d
       0.10341212 0.0504559 -0.05835979 0.062405948
000060 3a 22 df 3d 14 7a ed 3d 13 95 39 be 44 10 eb 3c
       0.108952 0.1159555 -0.18123274 0.02869428
000070 4f b5 a1 bc 4b 55 33 3d ed 3f a8 bd e9 93 9d 3c
       -0.019739775 0.043782514 -0.08215318 0.019235568
000080 60 94 74 3b 6f 36 96 bd 0c 97 6d 3d 8b 0a 6a 3d
       0.0037319884 -0.07334601 0.058005378 0.05713896
000090 89 c7 4b bc 91 37 e6 3c d1 38 46 3d 15 c7 90 bd
       -0.01243771 0.028102668 0.048394028 -0.07069222
0000a0 ed 87 b1 bc 87 77 be bb ce 9e e4 3b ef 84 42 3c
       -0.02167126 -0.0058125886 0.006976939 0.011872514
0000b0 11 87 52 bd af 69 34 3e ad d2 41 bc c8 ca e3 bc
       -0.05139834 0.1761844 -0.011830014 -0.027806655
0000c0 2b ef 47 3d e8 19 ef bc 7c 45 63 3e f4 c5 92 bc
       0.048812073 -0.029187158 0.22194475 -0.017916657
0000d0 1f 4d 85 3c 39 6e 39 bd 5a 2f 15 3d fd 9d 4b bd
       0.016272126 -0.045271132 0.03642211 -0.049711216
0000e0 db 85 6c 3d 2a 43 77 3e 6f 39 4d 3d db dd dd bc
       0.057744842 0.24146715 0.0501036 -0.027083328
0000f0 a6 df 40 bd 0e da 5d 3c f6 f4 40 bd c8 3a dd 3d
       -0.047088288 0.013540758 -0.047108613 0.10802227
000100 38 98 90 3d cb 0d df bd b0 8c cc bd cd b9 2f 3e
       0.070602834 -0.10891303 -0.099877715 0.17160721
000110 e1 39 81 3e ab 0f a3 bc 6f d8 87 bd cb d9 b8 3d
       0.2523947 -0.019904932 -0.06633078 0.09025916
000120 77 24 30 bd c7 d9 89 bd 27 77 75 bd 72 e0 3e bc
       -0.043003526 -0.06730991 -0.059928086 -0.011650192
000130 d9 16 fb bd 78 5e b1 bd a3 f4 ad bd 26 fa 55 bd
       -0.12260217 -0.086605966 -0.084939264 -0.052240513
000140 3c 2f 0b 3e 5a 3b 96 bc ab 08 02 be 56 94 72 be
       0.13592237 -0.018338848 -0.12698619 -0.23689398
000150 77 b7 1f 3d 88 fa 1c 3e 8f 25 75 3e d9 df 1a 3d
       0.038993325 0.15329945 0.23940109 0.037811134
000160 02 16 4a bd fe a0 40 3e c8 fc 97 bd ea 35 18 bd
       -0.049337395 0.18811414 -0.07421261 -0.03716079
000170 fb 2b a5 3d 60 d0 57 3e 9e 28 84 bc d0 7d 10 be
       0.08065029 0.21075583 -0.016132649 -0.14110494
000180 34 3e 70 bd 98 b8 a1 bb c2 2a 88 bb 87 2a ab 3d
       -0.05865307 -0.0049353354 -0.0041554878 0.08357721
000190 89 e6 55 bd dd 1b 06 3e c4 03 10 3c bb 6f c5 bd
       -0.05222181 0.13096566 0.00878996 -0.096404515
0001a0 2b c5 c9 bd 92 0f 40 3d ad 60 ac bc b6 e5 37 bd
       -0.0985206 0.04688985 -0.021042192 -0.044896804
0001b0 92 09 4d bd 0b d4 f2 bd 92 7c 51 be 9e 5b 2d bb
       -0.050057955 -0.1185685 -0.20457676 -0.0026452313
0001c0 af 63 93 3d 93 a8 12 3e 59 91 98 3d de 5e 15 3e
       0.071967475 0.14322118 0.07449598 0.1458697
0001d0 23 73 9a 3e fb 19 b7 3d a8 c2 23 3c ad be cb 3c
       0.30165967 0.08940502 0.00999514 0.024871195
0001e0 11 c3 06 be ed ce 98 bc 97 cd bd 3d cb e4 d9 bd
       -0.1316035 -0.018653357 0.09267729 -0.10639342
0001f0 b9 fe 4b 3d 7f 39 75 3e 85 f9 71 bd 79 7c 3d bd
       0.04980347 0.23947714 -0.05907585 -0.046261285
000200 58 a9 b0 bd 17 b7 19 bd 7e 4b a5 3d 7c 5c 46 3e
       -0.0862605 -0.037528124 0.080710396 0.19371217
000210 93 55 72 3c 6a 09 5b 3d 69 c3 45 3d 3b 9c 3b be
       0.01479091 0.053475775 0.04828206 -0.18321316
000220 7a fa 9f bd 96 88 01 be 72 59 bc bd f7 7f 27 3d
       -0.078114465 -0.1264976 -0.09196748 0.04089352
000230 19 1c 67 3c 47 8f 91 bd 22 06 99 3d 78 66 26 3d
       0.01410582 -0.07107406 0.07471873 0.040625066
000240 9d d5 3d bd 38 15 cb 3c 3d f6 95 bd fe 1c 91 3d
       -0.046346296 0.024790391 -0.07322357 0.07085608
000250 8f 20 18 3e 68 13 60 be f4 12 78 bd ff b4 30 3e
       0.1485617 -0.21882403 -0.06056495 0.17256545
000260 32 73 f3 ba 63 48 00 be 8a 0e 06 bd cb ba 8f 3d
       -0.001857376 -0.12527613 -0.03272871 0.0701805
000270 2a 41 23 3e 28 e6 ef 3c c5 d3 4c bd 7e 28 ee 3d
       0.15942827 0.029284552 -0.050006647 0.11628817
000280 1d ef c4 bd a8 33 e3 bd 54 a2 2a 3b 77 dc 31 be
       -0.0961592 -0.11093837 0.0026036697 -0.17369257
000290 78 62 5b be 6c ad f5 bd 3a 92 fe bd 92 7d 11 bb
       -0.21424282 -0.11995968 -0.12430234 -0.002220009
0002a0 b0 af 69 3b 06 53 da bd 3a 89 f6 bc 24 25 04 be
       0.0035657696 -0.10660367 -0.030094732 -0.12904793
0002b0 48 4f 2f be 11 45 b9 bd 08 65 a7 bd e3 33 20 be
       -0.17120087 -0.090463765 -0.08173567 -0.15644793
0002c0 02 ea 64 bd 0a 1d c4 bb 47 33 c7 3d ab 0e 7a 3e
       -0.05588723 -0.005984907 0.09726577 0.24419658
0002d0 bd ed 15 3d 4c 03 46 be 74 6e cd bd 6f 16 50 3d
       0.036603678 -0.19337195 -0.10030833 0.050802644
0002e0 6c df 2f 3d 15 af 36 bc 7c 4a 51 bd 05 da 06 be
       0.04293768 -0.011150141 -0.051096424 -0.13169105
0002f0 b4 85 a8 bd f9 c6 64 3d b6 9c ac bd ac b3 26 bd
       -0.08228627 0.055853818 -0.08428328 -0.040698692
000300 39 cb 8a 3d 95 61 a8 3d ca 5f fe 3d 65 25 bd 3c
       0.06777043 0.08221737 0.12420614 0.02308912
000310 63 51 6e bc a8 50 11 3e 6e 13 e2 3d f0 27 3f 3e
       -0.014545771 0.14190924 0.11038862 0.18667579
000320 c7 61 04 3e 2c b2 a1 3d ab d0 f6 bd 44 d0 49 be
       0.12927924 0.07895312 -0.12051519 -0.19708353
000330 44 41 da bd f1 f6 a1 be ff 92 bc be c7 98 c7 3c
       -0.1065698 -0.31633714 -0.368309 0.024364842
000340 ab 2d c8 3c fa b3 8e 3b 4b f9 b8 3c 0e b4 a6 3d
       0.024435839 0.004354951 0.02257981 0.081398115
000350 b9 7d e3 3d b1 d3 fb bd 4e a7 01 be e3 55 58 3d
       0.11107964 -0.12296236 -0.12661478 0.052816283
000360 13 68 58 3c b0 97 0f 3d c7 17 60 3e 33 0a 0d be
       0.013208407 0.03505677 0.2188407 -0.13773422
000370 38 8d b6 bd 78 90 dc bd 1e 57 13 bc 6b 1c 09 3e
       -0.08913654 -0.10769743 -0.008992938 0.13389747
000380 a9 c2 12 3e ed e6 b6 bc 66 19 9f 3d 4e 49 97 3d
       0.1433207 -0.02232691 0.07768516 0.07387029
000390 94 fd 22 bc 96 bc 49 bd 43 4a 59 bd 0f 41 09 3e
       -0.009948153 -0.049252115 -0.053049337 0.13403724
0003a0 ef e5 d1 3d 11 66 09 3e 5e fd 2e 3e 4f 9c dc 3d
       0.102489345 0.13417841 0.1708884 0.10772001
0003b0 3d 6a 76 3e 20 79 ea 3d 67 e9 21 3d 2d d8 86 bc
       0.24063964 0.11448884 0.03952923 -0.016460503
0003c0 40 f3 98 38 2f b3 14 bd 80 09 b6 3d 1d a1 68 bd
       7.293234e-05 -0.036303695 0.08888531 -0.056794275
0003d0 2a 07 9d 3d 5c 8a 96 3d b2 31 d1 bd b0 a4 00 be
       0.07667382 0.07350609 -0.10214557 -0.12562823
0003e0 b7 d0 da 3b 51 1d f2 3c 5b 77 13 3e c8 2e 19 3e
       0.006677713 0.029554995 0.14400999 0.14959252
0003f0 30 47 85 3d 17 d5 a2 3d b5 8d d9 3d 56 8b c1 3d
       0.065077186 0.079508 0.106227316 0.09450404

cnn.12.bias f4 [64]
000000 50 2e 6a 3b 2d bb 9f bc bb 1a d3 bc 06 68 5b ba
       0.003573317 -0.019498432 -0.025769582 -0.0008369688
000010 f5 52 8d bd 60 97 b0 3c 1f 6b 40 bb a1 49 5c bd
       -0.069005884 0.021556556 -0.0029360724 -0.053781155
000020 be ab 8c 3c 13 6f 58 bb ee 9c 96 3b bc 50 07 3d
       0.017171737 -0.003302519 0.004596344 0.03303598
000030 d3 58 22 3d 85 be b4 bc dc 9f 86 bc c2 1b b4 3c
       0.03963549 -0.022063503 -0.016433649 0.021985892
000040 58 2b 3f bd 5e 1e 93 bc 93 ed 08 bc 17 f4 74 3c
       -0.046672195 -0.017958816 -0.008357423 0.014950774
000050 eb 4c d1 bc bb 32 61 3d 3b d1 dd ba 92 ba f9 bb
       -0.025549373 0.05498002 -0.0016923317 -0.007621118
000060 34 83 a0 bc c0 9c 83 bd 06 f3 3f b9 51 ce 55 bb
       -0.019593813 -0.06426382 -0.00018305713 -0.0032624195
000070 71 38 87 3d 04 d0 8b bc 2a 6f 8b bc ff c2 5f 3d
       0.06602562 -0.017066963 -0.01702078 0.054629322
000080 51 12 47 bd f1 f6 b2 3c 03 5d ac bc 17 64 81 3d
       -0.048601452 0.021846266 -0.021040445 0.06317919
000090 50 e0 47 3c 40 76 df bc c4 c7 f7 bc 1c f4 37 bc
       0.012199476 -0.027278066 -0.030246623 -0.011227634
0000a0 4f 90 c5 3b 65 64 19 3c 17 c5 ff bc 03 b7 40 bd
       0.006029166 0.009362315 -0.03122191 -0.047049534
0000b0 ee 9f a8 bc 21 0d a2 3b 93 a6 9f 3d 00 8c 9d bd
       -0.020584073 0.0049454127 0.077954434 -0.076927185
0000c0 3f 6b 79 bc d7 f4 ce bc 84 a8 1d 3c e7 33 0f 3d
       -0.015223323 -0.025263233 0.009622697 0.034961607
0000d0 ee 8b 93 bc de 27 d3 3c b1 d6 64 3d cc 89 62 bd
       -0.01801106 0.025775846 0.05586881 -0.055307195
0000e0 f0 7f 38 bd 81 46 06 3d cf fb 16 3d 92 80 bf 3d
       -0.045043886 0.03278208 0.036861237 0.09350695
0000f0 e1 d8 b9 3c 46 35 9e bd 7a 3e f0 bb e9 0a 80 bd
       0.022686424 -0.07725005 -0.0073316665 -0.06252081

cnn.13.weight f4 [64]
000000 be 89 5b 3f e6 01 6f 3f 25 c8 6f 3f 6d eb 6f 3f
       0.8575705 0.9336227 0.9366477 0.93718606
000010 80 f7 4a 3f 60 bc 52 3f 8a 0e 47 3f c6 c4 57 3f
       0.79283905 0.8231869 0.7775656 0.8428463
000020 a4 b3 50 3f 59 cd 52 3f c6 52 73 3f 15 7d 60 3f
       0.8152411 0.82344586 0.9504818 0.8769086
000030 93 2f 64 3f a3 df 72 3f 2b ea 77 3f 07 72 55 3f
       0.8913509 0.9487249 0.96841687 0.83377117
000040 f6 ac 58 3f d8 06 51 3f 2d ac 67 3f 22 3d 72 3f
       0.8463892 0.8165107 0.90497094 0.9462453
000050 7a 31 6c 3f 2a 31 6a 3f 7c d2 66 3f 3d 9e 62 3f
       0.92262995 0.9148127 0.90164924 0.885227
000060 e1 b0 5a 3f eb 66 7b 3f 2d 97 56 3f 8c 13 6b 3f
       0.85426146 0.98203915 0.83824426 0.918267
000070 8b 11 72 3f 03 11 6a 3f 18 4f 7b 3f 53 c0 5f 3f
       0.9455802 0.9143221 0.9816756 0.8740284
000080 da 29 68 3f 58 a4 56 3f d0 e9 51 3f c6 56 63 3f
       0.9068886 0.8384452 0.81997395 0.8880428
000090 04 95 69 3f 21 c5 66 3f e2 56 69 3f c0 93 6e 3f
       0.91243005 0.90144545 0.911482 0.931942
0000a0 7e 6f 67 3f ef 91 53 3f 5b fd 5e 3f 15 e9 52 3f
       0.904045 0.8264455 0.8710534 0.82386905
0000b0 52 00 64 3f 51 52 63 3f e7 1b 7b 3f 79 d1 62 3f
       0.8906299 0.8879748 0.9808945 0.8860088
0000c0 83 41 6a 3f 01 d4 5a 3f 88 33 54 3f 35 86 78 3f
       0.9150621 0.8547974 0.8289113 0.97079784
0000d0 8a 77 5d 3f 8a 28 67 3f 34 9a 71 3f 33 db 71 3f
       0.8651053 0.9029623 0.9437592 0.94475096
0000e0 54 4a 72 3f 5f 3a 70 3f 99 f6 83 3f 57 b9 5f 3f
       0.94644666 0.9383907 1.0309631 0.8739218
0000f0 82 cb 5e 3f 09 26 61 3f f5 97 64 3f 0e 10 79 3f
       0.8702928 0.8794866 0.8929437 0.9729012

cnn.13.bias f4 [64]
000000 1d e3 47 be a8 fe 6b be 77 a7 60 be 35 ce 5e be
       -0.1952023 -0.23046362 -0.21938883 -0.21758349
000010 14 9b 89 be e6 40 a8 be 31 4b 78 be 77 48 53 be
       -0.26876128 -0.32862014 -0.24247433 -0.20633112
000020 df fe b6 be 0c ec 99 be fd 8b 95 be 9b 54 48 be
       -0.35741326 -0.30062902 -0.29208365 -0.19563524
000030 a3 05 52 be 0f 66 80 be 43 6f 4d be 7e ed 4b be
       -0.20509963 -0.25077865 -0.20061974 -0.19914815
000040 8d 38 4a be 4c 7e 6a be c4 a0 68 be 7e 75 74 be
       -0.19748135 -0.22899741 -0.22717577 -0.23872945
000050 2d f0 75 be 14 9c 1c be 5b a7 2a be 4b 29 49 be
       -0.24017401 -0.15293914 -0.16665404 -0.19644658
000060 d5 1f 9b be 53 fe 59 be 04 65 23 be 8f 9e 70 be
       -0.30297723 -0.21288423 -0.15956503 -0.23497985
000070 3c 12 07 be 5e d0 2b be b2 ce 64 be fe 48 79 be
       -0.1319055 -0.16778705 -0.22344473 -0.2434425
000080 61 c1 12 be 6b 31 96 be 45 95 91 be 52 36 20 be
       -0.1433158 -0.29334578 -0.28434196 -0.15645722
000090 a4 82 83 be c8 fb 83 be 61 32 1d be 25 fc 83 be
       -0.25685608 -0.2577803 -0.1535125 -0.2577831
0000a0 15 78 92 be ca b0 7f be 01 c1 87 be 61 ea 7e be
       -0.2860724 -0.24969783 -0.26514438 -0.24894096
0000b0 03 34 92 be b4 c5 32 be 4e 43 da bd 09 0b d0 bd
       -0.28555307 -0.1745823 -0.106573686 -0.10158355
0000c0 85 b8 42 be 96 54 82 be f2 e5 a5 be be a4 2a be
       -0.19015701 -0.2545516 -0.32401997 -0.16664407
0000d0 5d 52 08 be 61 8d 44 be 6d cb 57 be 27 be 3b be
       -0.13312669 -0.19194557 -0.21073695 -0.18334256
0000e0 62 0b 56 be eb a4 61 be 5d 33 5c be b3 f6 64 be
       -0.2090278 -0.22035567 -0.21503969 -0.22359733
0000f0 f0 fa 28 be ff 7c 83 be 36 d4 83 be bc 42 8a be
       -0.16501975 -0.25681302 -0.25747842 -0.2700404

cnn.13.running_mean f4 [64]
000000 17 87 a7 be 49 32 eb bf 38 5b 9c bf e4 5b 37 bf
       -0.32720253 -1.8374721 -1.2215338 -0.7162459
000010 fc 05 19 bf 65 52 39 bf 0e 39 07 bf 38 2d 83 bf
       -0.59774756 -0.7239135 -0.52821434 -1.0248175
000020 4e 32 b2 bf 23 0e 79 bf 7f 8f 9b bf 81 ca 36 3f
       -1.3921602 -0.97287196 -1.2153167 0.71402746
000030 1a 2b 2b bf 5a 37 4a bf 58 4b 96 bf 8a 90 6a bf
       -0.6686264 -0.7899071 -1.1741743 -0.916268
000040 de 39 c3 bf ab 69 9a bf aa 28 98 bf 5c 06 3f bf
       -1.5252035 -1.2063497 -1.188741 -0.7461908
000050 ee 12 2c bf a5 c7 8f bf 74 e4 ac bf 74 3f 4f bf
       -0.67216384 -1.1232802 -1.3507218 -0.80956197
000060 90 ad 41 bf 7b 00 02 c0 01 e4 47 bf 11 83 69 bf
       -0.7565546 -2.0312793 -0.7808228 -0.91215616
000070 48 e7 1f bf 27 da f0 bf 5f d1 c1 bf 14 32 ae bf
       -0.6246228 -1.8816575 -1.514202 -1.3609033
000080 93 f9 ba bf 2d e4 74 bf cc ae a7 bf 1c d7 f2 bd
       -1.4607414 -0.9566067 -1.3100219 -0.11857435
000090 e2 7e 94 bf c4 f3 e7 bf 74 71 76 bf 6e cf a1 3d
       -1.1601222 -1.8121266 -0.96266866 0.07900892
0000a0 fc dd 0a c0 61 48 cc be 44 06 92 bf 3e f4 c5 be
       -2.1697989 -0.3989897 -1.1408162 -0.38662905
0000b0 10 48 8e bf b7 16 4f bf a8 7a ea bf e8 e4 07 c0
       -1.1115742 -0.80894035 -1.8318682 -2.1233463
0000c0 d1 7b 88 bf dc 91 89 bf f3 cc 02 be 56 c3 de bf
       -1.0662786 -1.0747638 -0.12773494 -1.7403362
0000d0 eb c5 04 c0 9c a3 16 bf c2 5d 39 bf cb e2 ba bf
       -2.07458 -0.588434 -0.7240869 -1.4600462
0000e0 70 b3 ad bf 03 8a ce bf b2 6e 46 bf f0 10 36 c0
       -1.3570385 -1.6135868 -0.7751266 -2.8447838
0000f0 41 c4 9b bf f7 ab 7f bf a5 ba 17 be 64 54 bb bf
       -1.2169267 -0.9987177 -0.14817293 -1.4635129

cnn.13.running_var f4 [64]
000000 d7 2d df 3f c2 c1 fc 3f 55 79 f6 3f 40 a6 a6 3f
       1.7435864 1.974663 1.9255778 1.3019485
000010 24 e9 dc 3f a0 10 a5 3f d1 3f 8c 3f f2 21 b7 3f
       1.7258649 1.2895699 1.0956975 1.4307234
000020 ec 0c 03 40 15 c5 d8 3f 49 5b e9 3f 21 00 b8 3f
       2.0476637 1.6935145 1.8230983 1.4375039
000030 ea a7 83 3f de 99 d6 3f 34 5b 2b 40 3e 6c 02 40
       1.0285618 1.6765707 2.6774416 2.0378566
000040 c7 26 0e 40 36 c5 ec 3f 66 ca d5 3f 66 77 c1 3f
       2.2211168 1.8497684 1.6702392 1.5114563
000050 8c eb 07 40 89 df 1a 40 dd 7a 24 40 65 a6 c5 3f
       2.1237516 2.4198935 2.569999 1.5441405
000060 36 06 ad 3f 9e 42 22 40 fc a6 c0 3f 4d 5b ee 3f
       1.351752 2.535316 1.505096 1.8621613
000070 28 e5 d5 3f 3a d8 f2 3f e3 eb 00 40 52 70 01 40
       1.6710558 1.8972237 2.0143974 2.0224805
000080 2b 1b 18 40 2e f5 e0 3f cc de 0e 40 41 34 e1 3f
       2.3766582 1.7574823 2.2323484 1.7594072
000090 12 2f b7 3f 7d 1a 15 40 bf 66 fd 3f fe 0f 88 3f
       1.431124 2.3297417 1.9796981 1.062988
0000a0 a7 74 28 40 58 ac e5 3f f1 55 a6 3f e5 70 ee 3f
       2.63212 1.794322 1.2994977 1.8628203
0000b0 4c ab ba 3f 0f a1 b4 3f 22 5b ed 3f 7f 06 f8 3f
       1.4583526 1.4111651 1.8543437 1.9376982
0000c0 73 b8 fe 3f da 24 b2 3f fc e3 a2 3f dc e3 ed 3f
       1.990004 1.3917496 1.2725825 1.8585162
0000d0 ea 19 0f 40 f3 ab cd 3f e2 17 d7 3f 1c 6f 0d 40
       2.2359567 1.60681 1.6804163 2.2099066
0000e0 24 99 1c 40 fe cf c6 3f 1a d1 1b 40 04 bf 0f 40
       2.446847 1.5532224 2.4346375 2.2460337
0000f0 14 55 e0 3f 10 16 cd 3f 9b 26 cc 3f 1c 5b bd 3f
       1.7525964 1.6022358 1.5949281 1.4793429
