models/model_epoch70.pth (torch, 957119 bytes, 61 tensors)

cnn.0.weight f4 [16, 3, 3, 3]
-0.11448647 -0.018318396 -0.050071564 -0.16954397 -0.029741867 0.20682621 -0.019245042 0.21183546
0.011023283 -0.19306286 -0.30576178 0.08437745 -0.2777589 -0.08441722 0.2340675 -0.026450817
0.2149894 0.35762691 -0.24213219 -0.2625765 0.10552323 0.039082788 -0.08453912 0.25243074
-0.0891666 0.06979726 0.25243926 -0.27492017 -0.011734162 0.20214121 -0.05281222 -0.034710642
0.06441024 0.18384367 -0.011382274 -0.28792855 -0.3847162 0.23701222 0.23550415 -0.062087093
-0.2967171 -0.04898432 0.22015373 -0.08422835 -0.25452173 -0.22266722 0.10946931 0.090892956
-0.09000543 -0.20949398 0.06887961 0.30502155 0.048685513 -0.1738798 0.21545902 -0.01885904
-0.14193405 -0.08780044 0.069757335 -0.078239314 0.090456575 0.21206686 -0.22702023 0.19361323
0.114840314 -0.43502805 0.0924432 0.1368364 -0.0920004 0.3227952 0.0070950645 -0.32238215
0.080533326 0.107641615 -0.21289067 0.1702823 0.13743813 -0.2765447 0.15448084 0.105271466
-0.25498196 0.12368702 0.30269897 -0.20716454 0.10739518 0.095934905 -0.117999665 -0.09371731
0.03290388 -0.21957487 0.113362536 0.2843101 0.024984697 0.28337458 0.0033606752 -0.25075498
0.08723396 -0.08288828 -0.41464606 -0.044690527 0.3133866 -0.004718787 0.17590137 0.16575737
-0.25501716 0.088614956 -0.14563806 -0.2539153 0.078608304 -0.011627586 -0.062370148 0.1461997
-0.25327316 0.16801831 0.13918129 -0.31202057 0.12994513 0.20996484 -0.0477468 -0.005220445
0.2508326 -0.13045704 -0.0935371 0.14715172 -0.40555915 0.06451672 0.2965683 -0.1347267
-0.07955778 0.106615745 -0.19862586 -0.011016149 0.00696707 -0.24140677 0.21718802 0.059657797
-0.023556987 -0.075217254 0.18462428 0.17613585 0.11866029 -0.052768644 0.116953515 -0.16430423
-0.1938714 -0.12764841 -0.039612204 0.09532076 0.07232344 -0.274382 -0.5535942 -0.05686046
-0.16678065 0.24952681 0.29461718 -0.0974637 0.16318108 -0.008947234 -0.1090409 -0.40487286
0.039328545 -0.11728698 -0.15064217 -0.009844526 0.14011241 0.01830173 -0.046857536 0.039480764
-0.26966867 0.025095144 0.27938932 -0.33574665 0.20983563 0.24999012 -0.33780855 0.14181092
0.056129206 -0.31451055 0.23404177 0.13562612 -0.21952079 -0.018065909 0.23386246 -0.13111283
0.07481937 0.057648204 -0.21058281 0.083257735 0.12930556 0.16003047 0.118280716 0.190791
-0.25445196 -0.1341153 -0.2699986 0.107223354 -0.007338148 0.091648735 0.09605244 0.21173804
0.34484568 -0.092453755 -0.29065078 -0.23198842 -0.07884018 0.12170085 -0.10732426 0.21596682
0.12802824 0.17012623 -0.26162216 -0.22114192 -0.16533104 0.039422225 0.07285353 0.011352353
1.824036e-05 -0.07507883 0.07431553 -0.27437258 -0.017809244 0.21635613 -0.024450358 0.08938753
-0.060643736 0.0604024 -0.20394555 -0.2052124 -0.39601737 -0.059166744 0.062051147 -0.05015718
0.17272514 0.3966917 0.27422148 -0.074097976 -0.0633201 -0.4076669 -0.14503503 0.01234123
-0.1314759 0.23538837 0.07309125 0.076008 0.16563798 -0.14426047 0.09818295 -0.32169092
-0.0047149975 -0.078112274 -0.033137184 0.25765994 0.3663386 0.027117593 -0.19979417 -0.06938896
00000000: e277 eabd 7610 96bc d717 4dbd ef9c 2dbe
00000010: 37a5 f3bc 40ca 533e c7a7 9dbc 65eb 583e
00000020: 009b 343c 45b2 45be cf8c 9cbe 16ce ac3d
00000030: 6a36 8ebe efe2 acbd 64af 6f3e 62af d8bc
00000040: 2e26 5c3e e01a b73e 80f1 77be 6d70 86be
00000050: 901c d83d 4615 203d d922 adbd 9a3e 813e
00000060: fa9c b6bd def1 8e3d b83f 813e 56c2 8cbe
00000070: a540 40bc 1bfe 4e3e a051 58bd bf2c 0ebd
00000080: 84e9 833d 8441 3c3e b87c 3abc 5f6b 93be
00000090: 86f9 c4be 55b3 723e 0028 713e 094f 7ebd
000000a0: 4eeb 97be c8a3 48bd fb6f 613e ea7f acbd
000000b0: ac50 82be e002 64be 7231 e03d 1626 ba3d
000000c0: c454 b8bd 9785 56be c110 8d3d c92b 9c3e
000000d0: 766a 473d 8c0d 32be 4aa1 5c3e 467e 9abc
000000e0: 2957 11be b8d0 b3bd efdc 8e3d ef3b a0bd
000000f0: 4c41 b93d 0e28 593e fe77 68be 8c42 463e
00000100: 6631 eb3d ffbb debe dc52 bd3d d71e 0c3e
00000110: b56a bcbd 6a45 a53e b77d e83b 460f a5be
00000120: a8ee a43d 3573 dc3d 0300 5abe 7c5e 2e3e
00000130: 95bc 0c3e 4497 8dbe 3a30 1e3e 9198 d73d
00000140: ff8c 82be 9f4f fd3d 5cfb 9a3e f122 54be
00000150: 01f2 db3d 8579 c43d cfa9 f1bd dcee bfbd
00000160: 38c6 063d 3cd8 60be 9e2a e83d 1891 913e
00000170: b5ac cc3c 7916 913e c63e 5c3b f562 80be
00000180: b8a7 b23d 55c1 a9bd 7d4c d4be 6a0d 37bd
00000190: 3574 a03e 0ea0 9abb 7d1f 343e 4dbc 293e
000001a0: 9c91 82be c27b b53d 2522 15be 3001 82be
000001b0: 64fd a03d a181 3ebc d777 7fbd 60b5 153e
000001c0: 05ad 81be fe0c 2c3e 8a85 0e3e 29c1 9fbe
000001d0: 5610 053e 0601 573e 2692 43bd 4410 abbb
000001e0: 216d 803e 8896 05be 6190 bfbd f1ae 163e
000001f0: 73a5 cfbe 5821 843d cdd7 973e ccf5 09be
00000200: 30ef a2bd 5b59 da3d 9464 4bbe 147d 34bc
00000210: 054c e43b 5633 77be 8966 5e3e bc5b 743d
00000220: 95fa c0bc 810b 9abd 260e 3d3e f55c 343e
00000230: 2b04 f33d ef23 58bd 5385 ef3d 5e3f 28be
00000240: 3986 46be 44b6 02be 6840 22bd 8837 c33d
00000250: 501e 943d cc7b 8cbe 59b8 0dbf 84e6 68bd
00000260: 8cc8 2abe f583 7f3e 10d8 963e 0c9b c7bd
00000270: f118 273e 6b97 12bc d650 dfbd 7f4b cfbe
00000280: f816 213d 2834 f0bd f141 1abe ef4a 21bc
00000290: a179 0f3e 82ed 953c b0ed 3fbd 95b6 213d
000002a0: 0312 8abe 5594 cd3c 1e0c 8f3e fce6 abbe
000002b0: 27df 563e 69fd 7f3e 3ef5 acbe e236 113e
000002c0: bde7 653d 8707 a1be a5a8 6f3e 93e1 0a3e
000002d0: 0fca 60be f5fe 93bc a479 6f3e 7142 06be
000002e0: e63a 993d 8620 6c3d 05a3 57be 0883 aa3d
000002f0: ad68 043e 07df 233e 293d f23d b75e 433e
00000300: 8747 82be 8555 09be 423d 8abe eb97 db3d
00000310: d974 f0bb 55b2 bb3d 24b7 c43d dbd1 583e
00000320: 9d8f b03e 6558 bdbd 2ed0 94be 5f8e 6dbe
00000330: f676 a1bd 4c3e f93d d2cc dbbd 6826 5d3e
00000340: d619 033e 9235 2e3e 57f3 85be 0773 62be
00000350: 8a4c 29be 3379 213d 3b34 953d 38ff 393c
00000360: e002 9937 eec2 99bd be32 983d 907a 8cbe
00000370: b1e4 91bc 768c 5d3e 1e4c c8bc cf10 b73d
00000380: 9165 78bd 8268 773d 1ad7 50be 3323 52be
00000390: cac2 cabe d458 72bd 5829 7e3d 9d71 4dbd
000003a0: dcde 303e 2d1b cb3e c266 8c3e aec0 97bd
000003b0: f8ad 81bd b7b9 d0be 1084 14be df32 4a3c
000003c0: 9ea1 06be a609 713e deb0 953d 15aa 9b3d
000003d0: 019d 293e 04b9 13be 2414 c93d acb4 a4be
000003e0: 4480 9abb 54f9 9fbd dbba 07bd 01ec 833e
000003f0: bc90 bb3e b725 de3c d896 4cbe cd1b 8ebd

cnn.0.bias f4 [16]
0.075154155 0.013068905 -0.19328436 -0.055887647 0.08311416 0.17719953 0.07174778 0.021304594
-0.2055621 -0.33262652 -0.037847262 -0.23592663 -0.3536029 0.22108097 -0.009843833 -0.28614244
00000000: 6cea 993d f61e 563c 56ec 45be 72ea 64bd
00000010: c237 aa3d cb73 353e 80f0 923d f986 ae3c
00000020: df7e 52be 064e aabe bb05 1bbd c096 71be
00000030: 700b b5be 0d63 623e 0748 21bc 4381 92be

cnn.1.weight f4 [16]
1.1421323 0.6253082 1.1154445 0.98975885 0.6269337 0.47681004 1.0563861 1.0432454
0.47353822 0.62369937 1.3018105 0.95704144 1.1042386 0.68341064 0.8932252 1.0311987
00000000: 6431 923f 3314 203f e3c6 8e3f d660 7d3f
00000010: ba7e 203f 7220 f43e a937 873f 1189 853f
00000020: 9a73 f23e c3aa 1f3f baa1 a63f ab00 753f
00000030: b157 8d3f 00f4 2e3f 68aa 643f 52fe 833f

cnn.1.bias f4 [16]
-0.12350919 -0.35768726 -0.043177288 -0.028325396 -0.031749442 0.2777752 -0.052605025 0.029044887
0.8245443 0.28284484 -0.12755765 -0.05319739 -0.061971284 0.85337836 1.3201395 -0.043026622
00000000: 63f2 fcbd c922 b7be abda 30bd a90a e8bc
00000010: b40b 02bd 8d38 8e3e 5e78 57bd 8bef ed3c
00000020: 5615 533f 0ad1 903e 799e 02be 82e5 59bd
00000030: 9ad5 7dbd 0177 5a3f 55fa a83f af3c 30bd

cnn.1.running_mean f4 [16]
0.059283588 0.057247054 -0.19051456 -0.043339673 0.09240334 0.22668251 0.059095263 0.03840909
-0.18664162 -0.31128514 -0.06043434 -0.23462395 -0.35296962 0.24736473 -0.049441688 -0.28130856
00000000: 59d3 723d e37b 6a3d 4016 43be f184 31bd
00000010: f63d bd3d 761f 683e e00d 723d da52 1d3d
00000020: fb1e 3fbe c460 9fbe 008a 77bd 4341 70be
00000030: 6fb8 b4be 2e4d 7d3e 5e83 4abd ad07 90be

cnn.1.running_var f4 [16]
0.20796773 0.15065993 0.17188522 0.19739246 0.058364674 0.24297594 0.18257074 0.13322654
0.14044097 0.059729833 0.28351802 0.14045095 0.10945228 0.10416644 0.19932333 0.18668291
00000000: 7ef5 543e 9946 1a3e ae02 303e 4021 4a3e
00000010: cc0f 6f3d afce 783e d3f3 3a3e 8a6c 083e
00000020: c2cf 0f3e 45a7 743d 4629 913e 60d2 0f3e
00000030: 8428 e03d 3755 d53d 6a1b 4c3e ce29 3f3e

cnn.4.weight f4 [32, 16, 3, 3]
-0.10382564 0.056824557 -0.041262735 -0.15984844 0.011098816 -0.014340307 -0.058391403 -0.0276883
-0.029934037 0.07178895 -0.29086512 0.032292023 0.19682346 -0.119071186 0.07189714 0.10440598
0.045098525 0.13053454 0.10906141 0.06504712 0.100378975 -0.022687929 0.09853241 0.18504591
0.021236004 0.0707128 0.10497205 -0.034322195 -0.016285922 -0.04717131 -0.14699009 -0.1116377
-0.078465775 -0.0660804 -0.24535736 -0.061591886 0.028711997 0.09136805 -0.03665493 -0.0037303646
0.014117884 0.10338413 -0.035002515 -0.048881404 0.0770292 -0.061273146 -0.10543102 -0.0065833908
0.02910415 -0.04284191 0.065266594 0.29870597 0.055427983 0.0018139207 0.0635952 0.16733207
0.13508408 -0.08112789 0.051152278 0.10887505 -0.050904106 0.047841616 0.03555089 -2.1371292e-05
-0.0900266 0.04851221 0.056362905 -0.6514344 0.06192396 -0.30440542 -0.52624476 -0.015774705
0.09665842 -0.1270682 -0.039991442 0.00051268004 -0.19549023 -0.052961014 0.111450255 -0.19722907
0.03686742 -0.05805456 -0.0052641626 -0.05116938 -0.10426746 -0.21976762 -0.055588286 0.05839053
-0.2781498 -0.10602825 -0.05010861 -0.13344541 0.03846935 -0.20050819 -0.92438674 0.013066519
-0.05198648 -0.73317957 0.092815876 0.076648936 -0.13064721 0.14136304 0.10909637 -0.09003397
0.16550165 -0.07724305 0.067885414 0.1186846 -0.20391357 -0.3452998 0.09069394 -0.1066193
-0.8927758 -0.042173706 -0.0034180572 -0.4235987 -0.018259952 0.18819684 0.07623586 0.060191795
0.021198671 0.256059 0.23713356 -0.09577511 0.18531543 0.10391491 -0.07522739 0.10348389
0.13153137 -0.12466424 0.22540635 0.107082725 -0.05748782 0.10213453 0.05239077 0.112188354
0.0795283 0.09463042 0.12041913 0.08109454 0.09979749 -0.025816746 0.02787906 0.114404045
-0.10979824 0.26179352 0.12089494 0.03555082 0.25035784 0.104287304 0.053545196 -0.090129
-0.09651429 0.18785682 -0.2871682 -0.15736265 0.12775005 -0.31210652 0.05253741 -0.031868078
-0.1605075 0.26565158 0.11779204 -0.29488266 0.004540719 -0.01240592 -0.10219782 0.056191023
0.039117012 0.09514379 -0.013801176 -0.15736756 0.014344809 0.32330212 -0.14361858 0.3172303
0.051612232 -0.06049205 0.30413067 -0.056253828 -0.19234508 0.05113911 0.24979596 0.03593581
0.16462024 0.107136264 0.05470201 0.18440634 -0.08495942 0.11360453 -0.014383865 -0.1327761
-0.087274104 -0.27227592 0.16461027 -0.045182046 0.0075928145 0.2940585 0.08059913 0.29724455
0.10581835 0.04736958 0.019844709 -0.20740597 0.014450531 -0.14895631 0.016946625 0.0891612
-0.1808795 -0.040897742 -0.025833586 -0.02027311 0.03971087 -0.023439439 0.068969116 -0.17037144
-0.09094161 0.33871448 -0.11185462 0.04515042 -0.048267394 -0.06526468 -0.008718497 -0.16462727
0.15544085 -0.1507623 0.20511433 0.10784655 0.07475173 -0.05786653 0.11841615 0.00074218196
-0.05422899 -0.10736088 -0.061622348 0.18838535 -0.19029002 0.09307777 0.016457222 -0.23705505
0.00272447 -0.47127706 -0.054069836 0.029548714 -0.23017032 -0.16951536 0.008578619 -0.62301266
-0.070332 -0.066222034 -0.06538652 0.17688759 -0.018977562 -0.24315773 0.101621404 -0.04836681
00000000: 8aa2 d4bd dec0 683d 1d03 29bd 4faf 23be
00000010: cfd7 353c 9bf3 6abc d32b 6fbd 93d2 e2bc
00000020: 3a38 f5bc 1606 933d 46ec 94be a444 043d
00000030: 178c 493e 98db f3bd cf3e 933d cdd2 d53d
00000040: 3bb9 383d d9aa 053e 975b df3d 6d37 853d
00000050: 7e93 cd3d 09dc b9bc 5ccb c93d ad7c 3d3e
00000060: 21f7 ad3c dfd1 903d 96fb d63d 6e95 0cbd
00000070: 0e6a 85bc b436 41bd 9284 16be 4ea2 e4bd
00000080: aab2 a0bd 2955 87bd f63e 7bbe c647 7cbd
00000090: 6c35 eb3c 2c1f bb3d 7b23 16bd 2279 74bb
000000a0: b34e 673c 0fbb d33d cc5e 0fbd de37 48bd
000000b0: 7cc1 9d3d 8df9 7abd 38ec d7bd 7cb9 d7bb
000000c0: d46b ee3c 007b 2fbd 7eaa 853d fdef 983e
000000d0: 7408 633d 14c1 ed3a 333e 823d 1959 2b3e
000000e0: 7b53 0a3e 6126 a6bd 0d85 513d e2f9 de3d
000000f0: d380 50bd 92f5 433d cf9d 113d 8046 b3b7
00000100: de5f b8bd bdb4 463d cadc 663d 68c4 26bf
00000110: faa3 7d3d 07db 9bbe fab7 06bf f439 81bc
00000120: daf4 c53d 2b1e 02be 11ce 23bd 6065 063a
00000130: 972e 48be a6ed 58bd 0840 e43d 6bf6 49be
00000140: 4b02 173d 9eca 6dbd ff7e acbb fc96 51bd
00000150: 2e8a d5bd c30a 61be 8bb0 63bd e92a 6f3d
00000160: a769 8ebe 5725 d9bd b03e 4dbd eaa5 08be
00000170: 0a92 1d3d 0552 4dbe 9ca4 6cbf f414 563c
00000180: c6ef 54bd a8b1 3bbf 4016 be3d 1efa 9c3d
00000190: 62c8 05be 79c1 103e eb6d df3d bb63 b8bd
000001a0: 4479 293e 9b31 9ebd 8207 8b3d e910 f33d
000001b0: b8ce 50be 23cb b0be bfbd b93d 385b dabd
000001c0: f48c 64bf 56be 2cbd 7c01 60bb eee1 d8be
000001d0: e595 95bc acb6 403e 8c21 9c3d ac8b 763d
000001e0: d6a8 ad3c 2a1a 833e 24d3 723e be25 c4bd
000001f0: 54c3 3d3e 57d1 d43d d110 9abd 5def d33d
00000200: 29b0 063e f74f ffbd ecd0 663e 304e db3d
00000210: 5978 6bbd e92b d13d b497 563d 02c3 e53d
00000220: bcdf a23d 98cd c13d 4e9e f63d e514 a63d
00000230: a062 cc3d a47d d3bc a062 e43c ab4c ea3d
00000240: e6dd e0bd cd09 863e c497 f73d bd9d 113d
00000250: e72e 803e 9594 d53d 3552 5b3d 8e95 b8bd
00000260: 49a9 c5bd 8a5d 403e b607 93be ad23 21be
00000270: e9d0 023e 6dcc 9fbe 7831 573d 1a88 02bd
00000280: 145c 24be 7c03 883e f43c f13d dcfa 96be
00000290: 50ca 943b 3342 4bbc 174d d1bd 8f28 663d
000002a0: 2939 203d bfda c23d 541e 62bc f624 21be
000002b0: 7d06 6b3c db87 a53e c010 13be 036c a23e
000002c0: 5967 533d 83c6 77bd 04b7 9b3e 6a6a 66bd
000002d0: 1cf6 44be 3e77 513d 83ca 7f3e 6e31 133d
000002e0: 3592 283e 426a db3d 370f 603d 04d5 3c3e
000002f0: 34ff adbd 7ea9 e83d 4daa 6bbc 75f6 07be
00000300: c4bc b2bd c067 8bbe 988f 283e cf10 39bd
00000310: 25cd f83b d68e 963e 2811 a53d 7030 983e
00000320: 4bb7 d83d 9b06 423d 5f91 a23c 3b62 54be
00000330: ecc1 6c3c 0188 18be a6d3 8a3c 269a b63d
00000340: 7a38 39be 6484 27bd f5a0 d3bc cb13 a6bc
00000350: dda7 223d 1104 c0bc ae3f 8d3d da75 2ebe
00000360: 983f babd fc6b ad3e 0914 e5bd a6ef 383d
00000370: 08b4 45bd 7da9 85bd 07d8 0ebc 0d94 28be
00000380: e32b 1f3e 6f61 1abe 7e09 523e a7de dc3d
00000390: 6f17 993d 7405 6dbd 2b84 f23d fd8e 423a
000003a0: 381f 5ebd 05e0 dbbd b767 7cbd 17e8 403e
000003b0: 63db 42be 8f9f be3d 4cd1 863c 8fbe 72be
000003c0: 068d 323b 3a4b f1be 5578 5dbd 2510 f23c
000003d0: c5b1 6bbe 6f95 2dbe 568d 0c3c c27d 1fbf
000003e0: 390a 90bd 6b9f 87bd 5ee9 85bd 0522 353e
000003f0: d576 9bbc 57fe 78be e21e d03d 471c 46bd

cnn.4.bias f4 [32]
0.168102 -0.03928702 -0.15198344 -0.07605239 0.12902504 0.0077059846 -0.12024979 -0.10628068
-0.04323611 0.09964684 0.18038061 -0.13518234 0.20368016 -0.11009846 -0.111041635 0.085022114
0.0043482482 -0.09520626 -0.07597931 -0.28581843 0.01852867 -0.097637594 0.059533797 -0.12427057
0.030969623 0.014350559 0.15349823 0.028454337 0.16190313 0.042934224 -0.04867123 0.16585289
00000000: ee22 2c3e 6deb 20bd 8ca1 1bbe 5bc1 9bbd
00000010: 241f 043e 7c82 fc3b 8645 f6bd afa9 d9bd
00000020: 5918 31bd a413 cc3d b2b5 383e 3d6d 0abe
00000030: 8891 503e 4d7b e1bd cc69 e3bd 1320 ae3d
00000040: c07b 8e3b 80fb c2bd 0a9b 9bbd cb56 92be
00000050: 70c9 973c 38f6 c7bd b6d9 733d 9281 febd
00000060: 02b4 fd3c 9b1e 6b3c a42e 1d3e 1219 e93c
00000070: efc9 253e ccdb 2f3d 7c5b 47bd 57d5 293e

cnn.5.weight f4 [32]
1.0547742 0.8990606 0.9950077 1.0457143 0.90820867 0.75990665 0.744765 1.0607395
0.9514562 0.7699263 1.08007 0.9631991 0.8340336 0.98872507 0.9540519 0.9902317
1.0456636 1.1124963 0.67288864 0.902493 0.8948557 1.0443293 0.88092935 0.7446144
0.8057167 1.0136805 0.91662693 0.9838325 1.0203662 1.112452 1.0081018 1.0773978
00000000: d702 873f d628 663f d3b8 7e3f f7d9 853f
00000010: 5d80 683f 3e89 423f eba8 3e3f 50c6 873f
00000020: a292 733f e419 453f bc3f 8a3f 3794 763f
00000030: 3a83 553f 161d 7d3f bf3c 743f d37f 7d3f
00000040: 4ed8 853f 4766 8e3f 6e42 2c3f c809 673f
00000050: 4315 653f 95ac 853f 9684 613f 0d9f 3e3f
00000060: 7343 4e3f 48c0 813f 10a8 6a3f 72dc 7b3f
00000070: 5c9b 823f d464 8e3f 7b09 813f 2ce8 893f

cnn.5.bias f4 [32]
-0.43967712 -0.23023215 -0.37376586 -0.35875717 -0.21501742 0.13702099 -0.20254919 -0.48244986
-0.3550243 -0.1733262 -0.06572509 -0.39054263 -0.3230351 -0.37154168 -0.4044826 -0.010225968
-0.53625965 -0.10680684 -0.19188392 -0.28091067 -0.3348761 -0.43277827 -0.25038236 -0.14477076
0.09415907 -0.37581825 -0.2994758 -0.43136156 -0.32569367 -0.34685192 -0.301983 -0.37044546
00000000: 5c1d e1be fac1 6bbe 3d5e bfbe 05af b7be
00000010: 872d 5cbe 3b4f 0c3e 0e69 4fbe ab03 f7be
00000020: bfc5 b5be 6c7c 31be e09a 86bd 34f5 c7be
00000030: db64 a5be b63a bebe 5818 cfbe d28a 27bc
00000040: 5048 09bf 8bbd dabd 387d 44be 86d3 8fbe
00000050: e174 abbe 1d95 ddbe 1e32 80be c93e 14be
00000060: 78d6 c03d 406b c0be e454 99be 6cdb dcbe
00000070: 52c1 a6be 9396 b1be 849d 9abe 07ab bdbe

cnn.5.running_mean f4 [32]
-0.9761962 -1.7178403 -0.93592924 -0.8168166 -2.1448503 -0.22475256 -1.24894 -2.8019016
-2.3602867 -0.5167209 0.96197855 -0.23815066 -1.0323396 -1.5551151 -1.5861545 -0.45985505
-2.4683616 0.20811397 0.03001092 -0.9780891 -1.947643 -0.6067883 -2.0793009 -2.2088625
0.39782438 0.4668958 -1.0782917 -1.3387917 -2.7678952 -0.14101587 -1.1441859 -0.97647154
00000000: ffe7 79bf 31e2 dbbf 0f99 6fbf e51a 51bf
00000010: 3a45 09c0 8925 66be 44dd 9fbf 5b52 33c0
00000020: f00e 17c0 d247 04bf 3a44 763f c4dd 73be
00000030: b423 84bf 030e c7bf 1c07 cbbf 1f72 ebbe
00000040: a3f9 1dc0 d41b 553e 76d9 f53c 0c64 7abf
00000050: 5e4c f9bf 7a56 1bbf 4413 05c0 015e 0dc0
00000060: a3af cb3e f70c ef3e 7605 8abf 875d abbf
00000070: 3225 31c0 7766 10be af74 92bf 0afa 79bf

cnn.5.running_var f4 [32]
7.392346 2.733099 5.0860314 1.899369 3.797437 2.6029532 7.513748 7.391285
4.4817104 2.1343844 2.5677938 6.81537 4.4804497 7.8151913 5.7061024 4.7191863
5.920135 2.5876882 2.7861934 5.241585 6.223627 5.316168 8.786362 12.663314
1.5933965 3.6449566 4.028691 4.335483 7.367357 6.253953 5.7024426 9.95782
00000000: 198e ec40 18eb 2e40 c5c0 a240 861e f33f
00000010: 3509 7340 c996 2640 a070 f040 6885 ec40
00000020: 2c6a 8f40 c199 0840 bc56 2440 8317 da40
00000030: d85f 8f40 0c16 fa40 6498 b640 9303 9740
00000040: bf71 bd40 af9c 2540 fe50 3240 10bb a740
00000050: f427 c740 0c1e aa40 f094 0c41 ef9c 4a41
00000060: 6bf4 cb3f f846 6940 09eb 8040 47bc 8a40
00000070: 63c1 eb40 6220 c840 697a b640 3b53 1f41

cnn.8.weight f4 [48, 32, 3, 3]
-0.2903182 -0.2648061 0.35266793 0.04001697 -0.17198756 0.08900628 -0.0064566834 -0.18128547
0.15707809 -0.16812226 -0.26064834 0.0433779 -0.053254012 -0.15340394 0.13530254 -0.009755546
0.16035913 -0.08056379 -0.09247733 0.11898506 0.13230275 -0.10179011 0.21384786 0.16692024
-0.16613801 -0.067444235 0.21981198 -0.07952313 0.086367205 0.22678399 0.0018806867 0.07755765
0.25267166 -0.09879711 0.10098093 0.23467785 0.03355079 -0.13609758 0.2788938 -0.11882502
-0.14985049 0.32458422 0.02928121 -0.13303384 0.28927436 -0.09635296 -0.07291065 0.012581627
0.04357884 -0.045986976 -0.09536553 0.16440673 -0.05852634 -0.047344834 0.124673426 -0.26782528
-0.2567206 0.11501773 -0.32833797 -0.35542202 0.33572954 -0.3598493 -0.19333579 0.1823184
0.0039132936 -0.067155056 0.13987677 -0.3161442 -0.30107525 0.21203716 -0.038648605 -0.04066845
-0.09084376 -0.21337484 -0.31478482 0.06822753 -0.20677371 -0.12665264 0.17004943 0.13127036
0.08255538 -0.06410371 -0.2393194 -0.014922871 -0.010050463 -0.076430924 0.01744396 0.09838813
0.09637651 -0.06610413 -0.09456299 0.063979134 -0.08354098 -0.0681377 -0.051110752 -0.059161495
0.20630565 0.023034478 -0.2875307 -0.033048287 0.104402184 0.12011319 -0.21975484 -0.056436706
0.004422577 0.046311032 -0.029992595 0.029119663 0.21565665 0.011683174 -0.50526166 -0.17559984
0.032861523 0.08486123 -0.0026684087 0.024524719 -0.035944812 -0.34322175 0.014590556 0.3876262
-0.051508803 -0.094321094 0.1466053 -0.052939188 -0.10477989 0.16319041 -0.124219485 -0.10223706
0.122990064 -0.15517119 -0.041625537 0.25035802 -0.15687834 -0.10330189 -0.05996549 -0.02412717
0.16562618 0.2516564 -0.2603623 -0.075468734 0.06657155 -0.0006149635 -0.02823064 -0.06348876
-0.16302371 0.20847553 -0.046371862 0.08364715 -0.010686732 -0.0066595483 -0.124027446 -0.018265845
0.14459576 0.102598384 -0.3687034 -0.1231921 0.08660423 -0.46121615 -0.100702904 -0.13921048
-0.35435802 -0.008147752 0.11112087 -0.09644818 0.18942353 -0.0344927 -0.06607279 0.051773243
-0.15160862 0.0055009294 0.17666987 -0.005911542 0.08497843 -0.1297606 -0.10636136 0.08453077
-0.06335342 0.11135309 0.10535559 -0.09174716 -0.18270127 -0.089842215 0.22763039 -0.21643254
-0.061784644 0.22422385 -0.12236513 -0.111929 0.015909242 -0.15299334 -0.27233016 0.15529378
0.0027263095 0.14214969 0.12280788 -0.17735745 0.00938816 0.28986663 0.15042587 0.11195215
-0.11172059 -0.035184924 0.08520655 -0.31158647 -0.0077844914 0.17430598 -0.0680074 -0.110898085
-0.113318995 0.04390628 -0.27176574 -0.08626156 -0.004254311 0.2028406 0.0465711 -0.05218475
-0.092319764 0.081971526 0.21411793 -0.18066995 -0.014163066 0.13357472 -0.33069143 -0.017760873
0.24369982 -0.11302942 -0.16823626 -0.5486229 -0.025055824 -0.3066271 0.074757285 0.08001058
-0.25905392 -0.0075786756 -0.19744498 0.17294821 0.03210703 -0.269548 -0.23277542 0.033386823
-0.2600827 -0.096012436 -0.16483615 0.17154711 -0.079627745 0.09051544 -0.047773473 -0.12019146
0.105956145 0.036930714 0.059620123 0.023481334 -0.07833817 -0.10521611 -0.11930609 -0.21535063
00000000: 96a4 94be aa94 87be e490 b43e d6e8 233d
00000010: 821d 30be ed48 b63d 9692 d3bb e6a2 39be
00000020: 14d9 203e 3e28 2cbe b373 85be 06ad 313d
00000030: e120 5abd ec15 1dbe c08c 0a3e bad5 1fbc
00000040: 2f35 243e a1fe a4bd c164 bdbd 70ae f33d
00000050: 5f7a 073e 5577 d0bd effa 5a3e 24ed 2a3e
00000060: 1520 2abe 3420 8abd 6416 613e 06dd a2bd
00000070: 4ae1 b03d 103a 683e 6081 f63a 8cd6 9e3d
00000080: 2e5e 813e 2456 cabd 17cf ce3d 644f 703e
00000090: 8e6c 093d 2a5d 0bbe 2bcb 8e3e 885a f3bd
000000a0: 6872 19be e72f a63e 26df ef3c 063a 08be
000000b0: c51b 943e b354 c5bd 2e52 95bd 2b23 4e3c
000000c0: ba7f 323d d75c 3cbd 014f c3bd 3d5a 283e
000000d0: 51b9 6fbd a8ec 41bd c854 ff3d 6520 89be
000000e0: e270 83be 6a8e eb3d ea1b a8be e0f9 b5be
000000f0: bee4 ab3e 2b3e b8be d1f9 45be adb1 3a3e
00000100: 163b 803b 9788 89bd db3b 0f3e a7dd a1be
00000110: 8926 9abe 4520 593e 004e 1ebd f693 26bd
00000120: 4b0c babd ef7e 5abe 7a2b a1be e0ba 8b3d
00000130: 7dbc 53be 3bb1 01be 7021 2e3e bd6b 063e
00000140: cc12 a93d ce48 83bd 2510 75be 0f7f 74bc
00000150: b2aa 24bc d187 9cbd a3e6 8e3c b77f c93d
00000160: 0c61 c53d 9a61 87bd 3eaa c1bd 7e07 833d
00000170: 8917 abbd c78b 8bbd 8259 51bd 5353 72bd
00000180: ca41 533e cdb2 bc3c 3937 93be a45d 07bd
00000190: d0d0 d53d e7fd f53d 6a07 61be 2d2a 67bd
000001a0: 44eb 903b a3b0 3d3d 08b3 f5bc 5c8c ee3c
000001b0: 19d5 5c3e c96a 3f3c d458 01bf 72d0 33be
000001c0: ce99 063d b9cb ad3d 78e0 2ebb 10e8 c83c
000001d0: de3a 13bd c3ba afbe 3a0d 6f3c f176 c63e
000001e0: e5fa 52bd 6b2b c1bd b31f 163e c3d6 58bd
000001f0: d796 d6bd 631b 273e c966 febd aa61 d1bd
00000200: 37e2 fb3d 32e5 1ebe 8a7f 2abd ed2e 803e
00000210: b7a4 20be f18f d3bd 609e 75bd 58a6 c5bc
00000220: e999 293e 1cd9 803e 354e 85be 5a8f 9abd
00000230: aa56 883d 8035 21ba f143 e7bc 6506 82bd
00000240: b0ef 26be 9c7a 553e 6cf0 3dbd 324f ab3d
00000250: 6717 2fbc 5738 dabb 1a02 febd 41a2 95bc
00000260: e910 143e 1a1f d23d b1c6 bcbe 244c fcbd
00000270: 8f5d b13d 8624 ecbe 533d cebd 318d 0ebe
00000280: 6a6e b5be 267e 05bc 5793 e33d a086 c5bd
00000290: 3ef8 413e 3848 0dbd 2c51 87bd 2e10 543d
000002a0: 4a3f 1bbe 2441 b43b f2e8 343e 9cb5 c1bb
000002b0: 2c09 ae3d f6df 04be fcd3 d9bd 781e ad3d
000002c0: 70bf 81bd 170d e43d acc4 d73d efe5 bbbd
000002d0: 0b16 3bbe 32ff b7bd f117 693e 7ea0 5dbe
000002e0: e511 7dbd f09a 653e 929a fabd 083b e5bd
000002f0: 1954 823c 49aa 1cbe dc6e 8bbe 5505 1f3e
00000300: e2ab 323b b08f 113e b382 fb3d 319d 35be
00000310: ccd0 193c 6669 943e 3d09 1a3e 2b47 e53d
00000320: c4cd e4bd 111e 10bd c680 ae3d 4388 9fbe
00000330: 0c15 ffbb 447d 323e 7747 8bbd 891e e3bd
00000340: ca13 e8bd 12d7 333d e124 8bbe e7a9 b0bd
00000350: bf67 8bbb 72b5 4f3e 56c1 3e3d adbf 55bd
00000360: 2512 bdbd b0e0 a73d bb41 5b3e 8b01 39be
00000370: 340c 68bc d0c7 083e 6350 a9be 407f 91bc
00000380: 728c 793e f87b e7bd 2046 2cbe 8d72 0cbf
00000390: df41 cdbc 3afe 9cbe 591a 993d 96dc a33d
000003a0: b7a2 84be 8a56 f8bb 042f 4abe 5619 313e
000003b0: a982 033d 3202 8abe ae5c 6ebe 9fc0 083d
000003c0: 8f29 85be 2ba2 c4bd cfca 28be 0caa 2f3e
000003d0: df13 a3bd 2960 b93d 1eae 43bd f126 f6bd
000003e0: 89ff d83d a944 173d 3b34 743d ed5b c03c
000003f0: c36f a0bd 8b7b d7bd c056 f4bd e084 5cbe

cnn.8.bias f4 [48]
-0.07513139 0.020841502 -0.20530748 0.032824043 0.14417307 0.004622716 0.07034449 -0.06301587
-0.15300933 -0.12765054 -0.051352948 -0.030808622 0.046627466 -0.02731979 0.015533634 -0.09427547
-0.011333703 -0.18041891 -0.015478913 0.08666944 0.15239497 0.016000004 -0.030551447 -0.019855212
-0.012642793 -0.14542788 0.03471077 -0.10693982 0.106916316 -0.08456924 0.12962568 0.17775275
0.009183078 0.0008745621 -0.030730117 -0.045001816 0.0012489661 -0.071612336 -0.03216374 -0.0065160086
-0.024223447 0.046597756 -0.14694989 0.07728467 0.14694689 0.07504787 -0.038588475 -0.050250407
00000000: 7cde 99bd ccbb aa3c 203c 52be 8172 063d
00000010: 1ba2 133e 277a 973b c610 903d 770e 81bd
00000020: 7aae 1cbe d3b6 02be 7857 52bd 5d62 fcbc
00000030: 71fc 3e3d c1cd dfbc c980 7e3c 7f13 c1bd
00000040: ffb0 39bc bcbf 38be 449b 7dbc bf7f b13d
00000050: 6d0d 1c3e 7112 833c 0747 fabc 66a7 a2bc
00000060: b823 4fbc 0ceb 14be e12c 0e3d 4403 dbbd
00000070: f1f6 da3d a332 adbd 98bc 043e d104 363e
00000080: 9f74 163c de42 653a babd fbbc d353 38bd
00000090: 59b4 a33a 7da9 92bd 20be 03bd 3e84 d5bb
000000a0: 4070 c6bc 4add 3e3d 087a 16be 6d47 9e3d
000000b0: 3f79 163e b3b2 993d f30e 1ebd 5fd3 4dbd

cnn.9.weight f4 [48]
0.99991506 0.9324521 0.83606845 0.92301434 0.782637 0.97140276 0.86993015 0.8683415
0.9020033 0.84394336 0.87006617 0.83033794 1.1056179 0.9283826 0.81347495 0.8351609
1.1339105 0.9525936 0.7315688 0.7782975 0.8009365 0.9442362 0.99200726 0.8322403
1.0460393 0.93842113 0.90219647 0.88771236 0.8474161 0.8465208 0.9174033 1.0874758
0.8877028 0.8265867 0.97541195 0.845148 0.61811125 0.9650494 0.7277699 0.7775708
0.7766165 1.0010538 0.92206854 0.81942564 0.8994995 0.7731767 0.9207783 0.8511025
00000000: 6ffa 7f3f 2eb5 6e3f 9508 563f ab4a 6c3f
00000010: e65a 483f daad 783f beb3 5e3f a14b 5e3f
00000020: b0e9 663f ac0c 583f a8bc 5e3f 0791 543f
00000030: e384 8d3f 7baa 6d3f e53f 503f 1bcd 553f
00000040: fb23 913f 2ddd 733f 1848 3b3f 813e 473f
00000050: 2d0a 4d3f 77b9 713f 30f4 7d3f b30d 553f
00000060: 9ee4 853f 5e3c 703f 59f6 663f 1e41 633f
00000070: 43f0 583f 96b5 583f f1da 6a3f 6832 8b3f
00000080: 7e40 633f 309b 533f 99b4 793f 9f5b 583f
00000090: 8a3c 1e3f 7a0d 773f 214f 3a3f e10e 473f
000000a0: 57d0 463f 8822 803f af0c 6c3f e1c5 513f
000000b0: 9945 663f e9ee 453f 20b8 6b3f dae1 593f

cnn.9.bias f4 [48]
-0.4216554 -0.62565935 -0.50447184 -0.439886 -0.39352557 -0.26678386 -0.40931973 -0.5337482
-0.48047993 -0.60680383 -0.61169046 -0.5294965 -0.7336024 -0.52056146 -0.50309837 -0.3990517
-0.5196794 -0.32962567 -0.32244948 -0.40542907 -0.3609297 -0.20911278 -0.5953568 -0.38072783
-0.6124134 -0.5308963 -0.6048001 -0.5088387 -0.49046358 -0.50955397 -0.66243875 -0.7576902
-0.44174144 -0.36087605 -0.5691933 -0.3148895 -0.09678672 -0.6129207 -0.44092372 -0.3005242
-0.26020125 -0.5675919 -0.5228144 -0.42942214 -0.49723378 -0.32092974 -0.7231455 -0.58571905
00000000: 37e3 d7be 362b 20bf 1125 01bf bd38 e1be
00000010: 2f7c c9be e597 88be 5b92 d1be b9a3 08bf
00000020: 7701 f6be 7f57 1bbf bf97 1cbf 158d 07bf
00000030: 5ecd 3bbf 8443 05bf 0ecb 00bf 8150 ccbe
00000040: b609 05bf b2c4 a8be 1918 a5be 6694 cfbe
00000050: c7cb b8be a921 56be 4e69 18bf c2ee c2be
00000060: 20c7 1cbf d2e8 07bf 2ed4 1abf 4143 02bf
00000070: 0b1e fbbe 2172 02bf 9695 29bf fcf7 41bf
00000080: ef2b e2be bfc4 b8be a7b6 11bf 3239 a1be
00000090: 1e38 c6bd 5fe8 1cbf c1c0 e1be 4fde 99be
000000a0: 1939 85be b44d 11bf 2ad7 05bf 38dd dbbe
000000b0: 6d95 febe e750 a4be 1020 39bf aff1 15bf

cnn.9.running_mean f4 [48]
-1.7292179 -2.0286937 -1.6766595 -1.6303275 -2.2918332 -1.0916331 -1.1892905 -2.0803258
-2.0365028 -1.8577591 -2.5360699 -2.365429 -1.0223188 -1.3729632 -1.7707326 -1.8701756
-1.9340025 -2.725918 -0.6796478 -0.88733715 -0.9807523 -1.4119879 -1.481867 -2.1667612
-2.0640807 -2.1244974 -1.5637681 -1.6101625 -0.7373039 -1.6637146 -1.8221061 -0.9362296
-1.7356826 -1.5681348 -1.9967812 -1.257144 0.61451626 -2.245299 -1.6294409 -0.6831643
-1.0601873 -1.2686877 -1.7297748 -1.5286982 -2.126255 -1.557093 -1.5278529 -1.1994199
00000000: 0357 ddbf 1ed6 01c0 c79c d6bf 92ae d0bf
00000010: 65ad 12c0 a2ba 8bbf ac3a 98bf 0f24 05c0
00000020: 1056 02c0 0dcb edbf f84e 22c0 3063 17c0
00000030: 58db 82bf 42bd afbf 5ea7 e2bf ea61 efbf
00000040: 658d f7bf 7175 2ec0 66fd 2dbf 8728 63bf
00000050: 9512 7bbf 05bc b4bf d1ad bdbf 37ac 0ac0
00000060: e619 04c0 c4f7 07c0 8e29 c8bf ce19 cebf
00000070: f3bf 3cbf 9af4 d4bf c63a e9bf beac 6fbf
00000080: d92a debf a4b8 c8bf 8796 ffbf 18ea a0bf
00000090: f050 1d3f fbb2 0fc0 8591 d0bf dbe3 2ebf
000000a0: 38b4 87bf 5c64 a2bf 4369 ddbf 62ac c3bf
000000b0: 9014 08c0 d34e c7bf af90 c3bf 9786 99bf

cnn.9.running_var f4 [48]
4.115482 2.4730942 2.9535425 3.5116723 2.2866359 3.4715188 3.01836 2.0068443
2.2631984 2.2176347 2.0853271 2.8341365 1.8715253 2.108783 2.7849326 2.677053
2.7301614 3.3083885 2.2221403 2.3455203 2.8943467 3.5315938 2.7383049 2.8792784
4.267585 3.3005018 2.7232244 3.6613016 2.5069025 2.2028432 2.9372096 2.9231787
2.2938004 3.9393036 2.6917372 2.926537 2.2494109 2.7633734 1.9738015 2.2863908
2.7579703 2.8163815 2.379661 2.3116486 2.900031 1.8887202 2.6527662 1.7650992
00000000: 07b2 8340 2d47 1e40 d706 3d40 3dbf 6040
00000010: 3e58 1240 5d2d 5e40 cf2c 4140 2370 0040
00000020: 3ed8 1040 baed 0d40 0076 0540 7e62 3540
00000030: 248e ef3f 4df6 0640 563c 3240 d654 2b40
00000040: f7ba 2e40 a3bc 5340 8c37 0e40 011d 1640
00000050: fa3c 3940 a205 6240 6340 2f40 1946 3840
00000060: 0e90 8840 6c3b 5340 4f49 2e40 c452 6a40
00000070: 1771 2040 62fb 0c40 3efb 3b40 5c15 3b40
00000080: a0cd 1240 8d1d 7c40 6c45 2c40 624c 3b40
00000090: 59f6 0f40 1cdb 3040 87a5 fc3f 3a54 1240
000000a0: 9682 3040 983f 3440 5e4c 1840 0df2 1340
000000b0: 1c9a 3940 95c1 f13f ecc6 2940 c5ee e13f

cnn.12.weight f4 [64, 48, 3, 3]
0.22430944 0.033957515 -0.3460958 0.05505317 -0.010402596 0.05710663 -0.042750638 0.27191833
0.3129498 -0.03509785 -0.5683302 -0.06751247 -0.20559053 0.01913523 0.474979 -0.12988749
0.043178525 0.4251005 -0.0226523 -0.039789252 0.1530802 0.1536565 0.015345677 -0.025667965
0.18391825 0.06689945 0.042249404 -0.029463928 -0.07488359 0.056769844 -0.07249962 0.10050118
-0.024750907 -0.0627309 0.02826167 -0.033075757 -0.1309011 0.021737715 0.21633641 0.057320315
0.0047403285 -0.012227287 0.08636962 -0.032154895 -0.16178112 0.17687815 -0.031709902 -0.10218694
0.053834386 0.038971785 0.18233982 0.05107643 -0.057791907 -0.17304502 -0.07812751 -0.1894524
0.09294086 0.36467454 0.13067773 0.06625857 0.11875844 0.051611748 -0.17029934 0.21771917
-0.13310501 -0.51262087 -0.027425857 0.18292092 0.3128666 0.09508721 0.07586448 0.10573178
-0.06562917 0.0646025 0.023383476 -0.09784439 -0.18803586 -0.10645805 -0.11329388 -0.1260392
0.15097389 0.037827827 -0.29496524 -0.20633113 0.129525 0.07006656 0.29569894 0.014300501
0.025202157 0.22804649 -0.083109975 -0.22589312 0.08122734 0.14301924 0.03930873 0.019662907
-0.062047206 0.1168846 0.23326781 0.048287857 -0.062881425 0.14277723 -0.046008904 -0.04232066
-0.14697027 0.07273729 0.026546003 -0.009908259 -0.13488552 -0.08122525 -0.5721699 -0.1973112
0.08661987 0.11700818 0.19514477 0.24067377 0.40964 0.022878882 0.02105248 -0.10536876
-0.21645232 -0.09919611 0.20428391 -0.20369245 0.07678165 0.27727705 -0.0058099357 -0.15974037
-0.13238046 -0.035027433 0.067408174 0.12403056 -0.04024954 0.08493854 0.019045914 -0.27656603
0.007257485 -0.07427242 -0.13727959 0.065901 0.08681326 -0.13098827 0.02342376 0.08212004
0.17568944 0.019542059 -0.029532816 -0.015567558 0.04538463 -0.27038676 -0.14103708 0.2099919
0.041756008 -0.30096596 0.013428116 0.059052408 0.031041307 0.15884201 -0.0035477239 -0.013217174
0.012486827 -0.20707506 -0.04838912 -0.11974173 -0.2482986 -0.21138747 -0.32468677 -0.07678829
0.079426356 -0.038033687 -0.06762741 -0.049308266 0.033512734 0.09173 -0.018642299 -0.104095384
-0.021457143 -0.055491753 -0.050144322 0.056705702 -0.018876996 -0.34245947 -0.17778069 -0.015266514
0.10198998 0.066960976 -0.099086925 -0.1603246 -0.07122686 -0.02926237 -0.14614423 -0.09695458
0.05148347 0.06726145 0.015083858 -0.13761932 -0.011406426 0.1496112 0.15854551 0.21489966
0.38857347 0.13854188 -0.027738176 -0.18418142 -0.15900247 -0.3590502 -0.333704 0.22063921
0.1952209 0.014320448 -0.019021261 0.15054329 0.015124456 -0.043300547 -0.07901944 -0.02066702
-0.01675415 0.098042965 0.40318355 -0.29167458 -0.1747754 -0.10349103 -0.21088691 0.0025467142
0.11339877 -0.09351555 0.09727273 0.021762662 0.077465355 -0.11337581 -0.03062198 0.060205437
0.19889404 0.17729966 0.17876469 0.005195989 0.2695665 0.2567691 -0.060963273 -0.13645107
0.078416325 -0.042579047 0.06639842 0.049543444 0.14219403 0.16718642 -0.17877367 -0.18500933
0.051144633 0.09131357 0.2256772 0.12717399 0.17185965 0.052296743 0.19341047 0.104551576
00000000: 60b1 653e 0917 0b3d 7833 b1be 6f7f 613d
00000010: a66f 2abc a4e8 693d 4b1b 2fbd e138 8b3e
00000020: f53a a03e c3c2 0fbd 177e 11bf fa43 8abd
00000030: 5386 52be 7cc1 9c3c 7330 f33e 3a01 05be
00000040: f7db 303d c6a6 d93e 5191 b9bc 0efa 22bd
00000050: 0ec1 1c3e 2158 1d3e 6f6c 7b3c a045 d2bc
00000060: 1155 3c3e 9402 893d b60d 2d3d 565e f1bc
00000070: 915c 99bd 7f87 683d ae7a 94bd 90d3 cd3d
00000080: 6ac2 cabc 0f79 80bd 0585 e73c 727a 07bd
00000090: f00a 06be 4b13 b23c 4b87 5d3e b5c8 6a3d
000000a0: c254 9b3b f554 48bc 8ee2 b03d dab4 03bd
000000b0: f3a9 25be 8c1f 353e 3ee2 01bd 6347 d1bd
000000c0: 7281 5c3d e1a0 1f3d 4ab7 3a3e 8535 513d
000000d0: 35b7 6cbd b732 31be 5101 a0bd cfff 41be
000000e0: c757 be3d 9fb6 ba3e 62d0 053e 93b2 873d
000000f0: a037 f33d d766 533d f362 2ebe c6f1 5e3e
00000100: ae4c 08be 1f3b 03bf 31ac e0bc 9f4f 3b3e
00000110: 0d30 a03e 15bd c23d d65e 9b3d e789 d83d
00000120: 9668 86bd 514e 843d b48e bf3c a462 c8bd
00000130: 798c 40be ae06 dabd 9f06 e8bd 6c10 01be
00000140: e698 1a3e 5af1 1a3d af05 97be 7848 53be
00000150: 34a2 043e 0e7f 8f3d da65 973e a64c 6a3c
00000160: c174 ce3c 0585 693e 9035 aabd 8750 67be
00000170: 855a a63d a373 123e 3102 213d 1b14 a13c
00000180: 3625 7ebd 3161 ef3d c2dd 6e3e 7dc9 453d
00000190: fac7 80bd 3234 123e d573 3cbd 6e58 2dbd
000001a0: 607f 16be 4af7 943d 0177 d93c 4056 22bc
000001b0: 6e1f 0abe 6d59 a6bd ba79 12bf f20b 4abe
000001c0: c265 b13d fca1 ef3d 08d4 473e 2f73 763e
000001d0: 56bc d13e 7e6c bb3c 4076 ac3c 94cb d7bd
000001e0: ada5 5dbe 5527 cbbd cd2f 513e c194 50be
000001f0: b33f 9d3d 42f7 8d3e 4661 bebb fb92 23be
00000200: be8e 07be ed78 0fbd 4c0d 8a3d bc03 fe3d
00000210: b4dc 24bd 42f4 ad3d 2d06 9c3c 109a 8dbe
00000220: 32d0 ed3b 231c 98bd 0593 0cbe 1af7 863d
00000230: 27cb b13d ca21 06be 2fe3 bf3c 8d2e a83d
00000240: efe7 333e ab16 a03c ceee f1bc 120f 7fbc
00000250: 3ce5 393d 2270 8abe 066c 10be 1e08 573e
00000260: 5908 2b3d 3618 9abe 9a01 5c3c f0e0 713d
00000270: 574a fe3c 7ba7 223e ee80 68bb d98c 58bc
00000280: 8c95 4c3c 7c0b 54be ab33 46bd 273b f5bd
00000290: fd41 7ebe f575 58be 583d a6be 2e43 9dbd
000002a0: 49aa a23d 36c9 1bbd 3d80 8abd 77f7 49bd
000002b0: a644 093d f0dc bb3d bcb7 98bc f62f d5bd
000002c0: e4c6 afbc 524b 63bd 2264 4dbd 3d44 683d
000002d0: eea3 9abc d956 afbe 240c 36be 6720 7abc
000002e0: 1fe0 d03d d622 893d 16ee cabd 222c 24be
000002f0: 63df 91bd a3b7 efbc d5a6 15be 1f90 c6bd
00000300: 55e0 523d 5fc0 893d 4922 773c 14ec 0cbe
00000310: 05e2 3abc ae33 193e c159 223e a80e 5c3e
00000320: 1af3 c63e ecdd 0d3e 2c3b e3bc 0e9a 3cbe
00000330: 8bd1 22be 6ed5 b7be 40db aabe 3fef 613e
00000340: fde7 473e 50a0 6a3c 7ad2 9bbc 0528 1a3e
00000350: 91cc 773c ea5b 31bd f2d4 a1bd e24d a9bc
00000360: 0040 89bc c0ca c83d 136e ce3e 5f56 95be
00000370: 53f8 32be 1bf3 d3bd bdf2 57be c6e6 263b
00000380: 9d3d e83d 1585 bfbd ed36 c73d 9c47 b23c
00000390: 28a6 9e3d 9431 e8bd f2da fabc fa99 763d
000003a0: e1aa 4b3e 0b8e 353e 170e 373e 1d43 aa3b
000003b0: 9f04 8a3e 3d77 833e a0b4 79bd d4b9 0bbe
000003c0: bd98 a03d 5e67 2ebd e5fb 873d 11ee 4a3d
000003d0: 509b 113e eb32 2b3e 7210 37be 1673 3dbe
000003e0: 097d 513d 9c02 bb3d ed17 673e e639 023e
000003f0: fafb 2f3e 1c35 563d 650d 463e 231f d63d

cnn.12.bias f4 [64]
0.06405945 0.019374019 0.009454997 0.03284092 -0.16015163 0.10262682 0.021047888 -0.056146964
-0.009374815 0.01661139 0.05187797 0.045408368 0.020551853 -0.07281033 0.031119818 0.07459785
-0.087839626 -0.06524412 -0.038650833 0.1441145 0.02344825 -0.057366703 0.114575624 0.05187608
0.004436253 -0.022844052 0.008883671 0.041137103 0.043336183 -0.00869402 -0.07486367 0.06956757
-0.0101309465 -0.0058910777 -0.04852503 0.095735595 0.08380045 -0.022424871 0.0026847622 -0.017522095
0.047848884 -0.027147058 -0.013274234 -0.010240617 0.00054959126 -0.0037706099 0.08442251 -0.13730726
-0.06968968 -0.026093893 -0.08306945 -0.030945098 -0.027081575 0.015081457 0.016989967 -0.053368762
-0.030203296 0.048933208 0.020121971 0.04501828 0.03815064 -0.12791573 0.010149466 0.001813869
00000000: 9a31 833d 43b6 9e3c 22e9 1a3c 3384 063d
00000010: cafe 23be 032e d23d 9f6c ac3c 5cfa 65bd
00000020: d398 19bc 9c14 883c ff7d 543d 20fe 393d
00000030: 5c5c a83c 951d 95bd fdee fe3c c2c6 983d
00000040: 43e5 b3bd b69e 85bd 5650 1ebd c092 133e
00000050: 8b16 c03c 59f9 6abd a0a6 ea3d 037c 543d
00000060: fd5d 913b 7323 bbbc d18c 113c 617f 283d
00000070: 4881 313d 5d71 0ebc 2052 99bd 7179 8e3d
00000080: 45fc 25bc f109 c1bb 2fc2 46bd 0611 c43d
00000090: 929f ab3d 5db4 b7bc d6f2 2f3b 7f8a 8fbc
000000a0: 31fd 433d 8263 debc 2c7c 59bc 43c8 27bc
000000b0: 7212 103a 561c 77bb b5e5 ac3d 469a 0cbe
000000c0: 77b9 8ebd dcc2 d5bc 5120 aabd 9380 fdbc
000000d0: 2eda ddbc 3718 773c 8b2e 8b3c 3499 5abd
000000e0: e76c f7bc 306e 483d d5d6 a43c 1765 383d
000000f0: d843 1c3d 57fc 02be f249 263c 58bf ed3a

cnn.13.weight f4 [64]
0.7568717 0.92703927 0.89407134 0.866817 0.7105251 0.73268807 0.70422935 0.74781686
0.71564746 0.7835152 0.87233967 0.77679825 0.7845991 0.8488465 0.94866294 0.7113096
0.70330983 0.7224918 0.8389785 0.87430143 0.88203675 0.86781824 0.82302237 0.792814
0.7549595 1.0199804 0.7384706 0.805284 0.86211693 0.81987613 0.9309778 0.787621
0.76913166 0.7454814 0.77767533 0.74731344 0.7916292 0.8439776 0.7620533 0.77456367
0.88791794 0.7072767 0.73688793 0.70458066 0.87918013 0.80269766 0.9031262 0.78148144
0.84264475 0.72295624 0.7974182 0.88363236 0.7605942 0.79582906 0.8267444 0.93086904
0.85379016 0.824199 0.9711535 0.8124078 0.8108618 0.77409095 0.7800451 0.8570296
00000000: 58c2 413f 7252 6d3f dce1 643f b8e7 5d3f
00000010: f9e4 353f 7291 3b3f 6048 343f ed70 3f3f
00000020: ac34 373f 7494 483f a751 5f3f 40dc 463f
00000030: 7ddb 483f 014e 593f 93db 723f 6318 363f
00000040: 1d0c 343f 39f5 383f 4cc7 563f 38d2 5f3f
00000050: 29cd 613f 5629 5e3f 98b1 523f dcf5 4a3f
00000060: 0745 413f b88e 823f 690c 3d3f 1827 4e3f
00000070: b2b3 5c3f 67e3 513f 9054 6e3f 88a1 493f
00000080: d0e5 443f ded7 3e3f bb15 473f ef4f 3f3f
00000090: 36a8 4a3f ea0e 583f ed15 433f ce49 463f
000000a0: 974e 633f 1610 353f b0a4 3c3f 665f 343f
000000b0: f311 613f 987d 4d3f 4733 673f 2b0f 483f
000000c0: 91b7 573f a913 393f 9923 4c3f bb35 623f
000000d0: 4db6 423f 74bb 4b3f 85a5 533f 6f4d 6e3f
000000e0: fe91 5a3f b5fe 523f 849d 783f f5f9 4f3f
000000f0: a494 4f3f d32a 463f 09b1 473f 4b66 5b3f

cnn.13.bias f4 [64]
-0.27814344 -0.54091203 -0.36243224 -0.41637328 -0.32919306 -0.46152207 -0.38688257 -0.329183
-0.34917936 -0.38257426 -0.4463266 -0.3352305 -0.34279618 -0.40754324 -0.2460673 -0.3517715
-0.2949371 -0.36739182 -0.4141956 -0.24657859 -0.31908584 -0.21331123 -0.28996697 -0.2316901
-0.31355593 -0.35783833 -0.2330142 -0.2761781 -0.20823306 -0.2742783 -0.43526307 -0.35537806
-0.2595078 -0.43256077 -0.34926224 -0.2363595 -0.42654857 -0.31541485 -0.2502951 -0.35199103
-0.3880249 -0.40465423 -0.3843272 -0.30209067 -0.42043984 -0.32634538 -0.20142095 -0.1798512
-0.35422918 -0.41611728 -0.42978108 -0.27533594 -0.23873398 -0.33452317 -0.38615105 -0.16473392
-0.43228742 -0.40729833 -0.35632652 -0.2711167 -0.26663205 -0.48606977 -0.33931318 -0.5697402
00000000: d168 8ebe 3679 0abf b890 b9be e12e d5be
00000010: fe8b a8be 9f4c ecbe 7915 c6be ad8a a8be
00000020: a3c7 b2be c6e0 c3be ec84 e4be 55a3 abbe
00000030: fb82 afbe 82a9 d0be 11f9 7bbe 651b b4be
00000040: ff01 97be c81a bcbe 7211 d4be 197f 7cbe
00000050: 385f a3be 426e 5abe 8d76 94be 2b40 6dbe
00000060: 678a a0be 9636 b7be 469b 6ebe 3767 8dbe
00000070: 0c3b 55be 356e 8cbe cdda debe 1df4 b5be
00000080: 35de 84be 9b78 ddbe 80d2 b2be 3a08 72be
00000090: 9364 dabe 0e7e a1be ae26 80be 2b38 b4be
000000a0: 33ab c6be d72e cfbe 89c6 c4be a1ab 9abe
000000b0: e443 d7be be16 a7be 4b41 4ebe ea2a 38be
000000c0: 875d b5be 530d d5be 440c dcbe d5f8 8cbe
000000d0: ae76 74be 9f46 abbe 97b5 c5be 02b0 28be
000000e0: c754 ddbe 6889 d0be 6e70 b6be cfcf 8abe
000000f0: ff83 88be 23de f8be 75ba adbe 7eda 11bf

cnn.13.running_mean f4 [64]
-0.8642686 -2.104494 -1.037968 -1.2847149 -1.2990736 -1.1100696 -1.1674271 -1.8241612
-1.7706311 -0.9650149 -1.138809 -0.5005405 -1.3711821 -1.1272813 -1.3100989 -0.78289706
-1.9314487 -1.2719104 -1.4390495 -1.5112033 -1.6585066 -1.0215106 -1.5667882 -1.2435397
-1.3907783 -1.5107361 -1.3287637 -1.5587459 -1.353649 -1.9104947 -1.769607 -1.9095992
-1.6494766 -0.84432715 -1.9420203 -0.7161278 -1.1860546 -2.124389 -1.1807947 -0.6026158
-2.938562 -1.0359429 -1.3336548 -1.1488781 -1.6263293 -1.0089554 -1.8550824 -2.1326828
-1.500879 -0.9752512 -0.8186437 -1.788737 -2.8560777 -0.8127665 -1.2517183 -1.7388948
-1.7309983 -1.4615376 -1.5966024 -2.3110132 -1.7225779 -1.7314161 -0.7485287 -1.6238875
00000000: b540 5dbf 08b0 06c0 23dc 84bf 8a71 a4bf
00000010: 0b48 a6bf c316 8ebf 406e 95bf 1d7e e9bf
00000020: 0aa4 e2bf 370b 77bf 7ec4 91bf 6c23 00bf
00000030: e582 afbf c14a 90bf 52b1 a7bf f16b 48bf
00000040: b639 f7bf f6cd a2bf c632 b8bf 1c6f c1bf
00000050: f249 d4bf dcc0 82bf 848c c8bf 4f2c 9fbf
00000060: 0605 b2bf cd5f c1bf ee14 aabf fc84 c7bf
00000070: 5f44 adbf 178b f4bf 7b82 e2bf bf6d f4bf
00000080: 0d22 d3bf d325 58bf 1f94 f8bf 2754 37bf
00000090: a3d0 97bf fdf5 07c0 4824 97bf 0745 1abf
000000a0: 6611 3cc0 c799 84bf 33b5 aabf 700e 93bf
000000b0: 8f2b d0bf 7325 81bf 5773 edbf e07d 08c0
000000c0: ce1c c0bf 10aa 79bf a292 51bf 56f5 e4bf
000000d0: fac9 36c0 7711 50bf 4e38 a0bf 1b94 debf
000000e0: 5a91 ddbf aa13 bbbf 785d ccbf a4e7 13c0
000000f0: 6f7d dcbf 0b9f ddbf 949f 3fbf 8cdb cfbf

cnn.13.running_var f4 [64]
2.1893556 2.4419346 2.1773102 2.1809418 2.5313463 1.8956352 1.7171599 1.9695576
2.4210308 2.2139316 2.1970735 1.1462222 1.7727686 2.4946392 3.6459248 1.6289988
1.7694478 2.1653895 1.9901352 3.310212 2.3756125 2.2928355 3.3262753 2.1950326
2.4487324 2.9979413 1.8728064 2.3563547 2.8935282 2.2987053 2.5768335 2.3318582
2.616038 1.958957 2.8101141 2.2729075 2.0398598 3.7409449 2.7249882 1.4235355
3.603635 2.2040558 1.8898435 2.4674747 2.369472 1.7720017 2.2993584 3.522655
2.7599072 1.6986756 1.8066754 2.29354 2.3200228 1.5195855 1.8591605 4.2986465
2.51175 1.8571533 3.7822874 2.7311296 3.2531748 1.5354289 2.8706267 2.2584915
00000000: 671e 0c40 a848 1c40 0d59 0b40 8d94 0b40
00000010: 9401 2240 2da4 f23f e5cb db3f 771a fc3f
00000020: 2bf2 1a40 0eb1 0d40 da9c 0c40 69b7 923f
00000030: 15ea e23f 2ba8 1f40 d556 6940 0883 d03f
00000040: 447d e23f be95 0a40 c0bc fe3f 83da 5340
00000050: 090a 1840 d1bd 1240 b2e1 5440 6a7b 0c40
00000060: 08b8 1c40 45de 3f40 1fb8 ef3f 84ce 1640
00000070: 912f 3940 fd1d 1340 d7ea 2440 2a3d 1540
00000080: 2b6d 2740 1abf fa3f e9d8 3340 5177 1140
00000090: 108d 0240 a46b 6f40 3566 2e40 6936 b63f
000000a0: f5a1 6640 400f 0d40 64e6 f13f 1beb 1d40
000000b0: 6ea5 1740 f4d0 e23f b028 1340 2e73 6140
000000c0: 52a2 3040 346e d93f 2441 e73f 5cc9 1240
000000d0: 417b 1440 c781 c23f f9f8 ed3f 838e 8940
000000e0: 83c0 2040 33b7 ed3f ff10 7240 d4ca 2e40
000000f0: 0434 5040 ef88 c43f 59b8 3740 208b 1040

cnn.16.weight f4 [64, 64, 1, 1]
0.089234136 0.25720534 0.12728666 0.20635773 0.07971124 0.07373148 0.105301544 0.03970248
-0.063899204 -0.024105832 -0.095049284 0.07558304 0.07253742 0.18339801 0.1515181 -0.07739545
-0.12773791 0.11446222 -0.114867486 0.11486486 0.040778734 0.07471958 0.22409399 0.20306712
0.26593158 -0.06637085 -0.109443694 0.13707094 -0.18408887 -0.008320386 -0.27255395 -0.031514294
-0.21082313 0.21042591 0.1415874 -0.05797186 -0.033229873 -0.005827572 0.11454702 0.034643587
-0.04455456 0.07865998 0.0044754995 0.19121581 -0.3000526 -0.14154254 -0.0127949845 0.12937772
0.18113136 -0.026344448 -0.0696248 -0.2861837 -0.2283557 0.14038435 -0.10993709 -0.08300904
0.032198496 0.2567943 0.15631332 0.020007804 0.27914074 0.041793466 0.132838 0.24016464
0.06142179 -0.04661451 0.14273515 -0.016150864 -0.26010108 0.09019251 0.019442132 0.18104312
-0.163427 0.13709287 -0.05406565 -0.0466398 0.013511637 -0.25960395 0.20598875 0.029217973
-0.17823024 -0.06035688 0.056016408 0.061157502 -0.0285669 -0.0856936 0.14521016 0.29749268
-0.08348708 0.12233523 0.10389911 -0.020030431 0.14370327 0.2209 0.0004975795 -0.0667191
-0.059850764 -0.005612473 -0.2776703 0.19337234 0.06670746 -0.23426759 -0.10166903 0.1369286
-0.094727844 0.14476672 0.081853755 -0.121961124 0.1068535 -0.070333146 -0.17195727 -0.06913743
-0.08295348 0.020937681 0.06223096 -0.22795828 0.2406542 0.036369607 0.01694334 -0.16255139
0.24984293 -0.05481457 -0.06429063 0.17580876 -0.11750754 0.05650135 -0.10838429 0.09865458
-0.012306616 -0.045873564 -0.05886987 0.18627264 -0.2021962 0.13339525 0.10243039 0.13264745
-0.07095304 -0.08836884 -0.09805854 -0.14922443 0.24178761 -0.07529782 -0.086442694 0.18644716
-0.11312077 0.054039143 0.15067643 0.10374316 -0.012503916 0.00216323 -0.28755027 -0.09044127
0.039579786 0.29595307 0.03446161 0.07311883 -0.03636607 0.20444861 -0.20731463 -0.0023964746
0.1953906 -0.24796396 -0.24496816 -0.013282483 0.003113708 -0.30474323 -0.0045043817 0.12776627
0.2918818 0.0574994 -0.01589205 -0.28420243 -0.17259263 -0.07150449 0.17237602 0.13985817
-0.15773444 -0.076104194 -0.03194092 -0.045763224 0.028227037 -0.043340497 -0.051339444 -0.15035756
-0.123875186 -0.06058389 -0.19576511 -0.012478149 0.21780732 -0.06645597 -0.014325198 0.22075835
0.106851384 -0.12499321 0.020175096 -0.07611434 -0.19685812 0.17273799 0.113341846 0.09873067
-0.14611721 -0.15949723 -0.0381874 -0.0020631985 -0.14714873 0.20378506 0.30256188 0.07956147
-0.14424287 0.12978096 0.016907323 0.03372448 0.03890357 0.066540815 0.1907356 -0.04361823
0.12070797 0.061054535 0.0097488 -0.10060861 -0.03343878 0.015227673 0.15602028 0.1647924
0.12558667 -0.12662913 0.089254685 -0.00025460625 -0.22214398 0.28920084 0.13980131 -0.07275545
0.03929388 0.08071849 0.036973353 0.11892567 0.0007037732 -0.067419864 -0.08703074 -0.20569971
0.21757762 0.024771491 -0.0615398 -0.14726938 -0.09438711 0.08900608 0.030151695 -0.18227707
0.009852023 -0.13296796 -0.1659169 0.09215484 -0.042727157 0.10111083 -0.018928489 0.15344597
00000000: 63c0 b63d 6bb0 833e 6f57 023e 714f 533e
00000010: a63f a33d 8800 973d 56a8 d73d 119f 223d
00000020: 96dd 82bd 9879 c5bc 33a9 c2bd 48cb 9a3d
00000030: 808e 943d b0cc 3b3e 9027 1b3e 8181 9ebd
00000040: bacd 02be 2b6b ea3d a53f ebbd 453e eb3d
00000050: 9a07 273d 9406 993d e578 653e d4f0 4f3e
00000060: 2f28 883e 71ed 87bd 0424 e0bd 535c 0c3e
00000070: cb81 3cbe 3a52 08bc 318c 8bbe 2215 01bd
00000080: 05e2 57be e479 573e 4afc 103e e773 6dbd
00000090: 0c1c 08bd 38f5 bebb a197 ea3d 6fe6 0d3d
000000a0: d87e 36bd 7c18 a13d 36a7 923b 14ce 433e
000000b0: 7fa0 99be 87f0 10be 0ea2 51bc 987b 043e
000000c0: 807a 393e 50d0 d7bc 7297 8ebd ac86 92be
000000d0: 14d6 69be eac0 0f3e b226 e1bd a500 aabd
000000e0: 92e2 033d 8b7a 833e 9910 203e 68e7 a33c
000000f0: 89eb 8e3e a02f 2b3d af06 083e b8ed 753e
00000100: 6a95 7b3d dbee 3ebd 2a29 123e d14e 84bc
00000110: f82b 85be dab6 b83d 1b45 9f3c 5e63 393e
00000120: 6859 27be 1362 0c3e f173 5dbd 6009 3fbd
00000130: ea5f 5d3c cfea 84be b7ee 523e 885a ef3c
00000140: fd81 36be c738 77bd 7671 653d 4a80 7a3d
00000150: 2205 eabc 2080 afbd f9b1 143e f650 983e
00000160: 46fb aabd e58a fa3d 0ec9 d43d dc16 a4bc
00000170: f326 133e 9c33 623e ff6f 023a 06a4 88bd
00000180: 1326 75bd d6e8 b7bb cd2a 8ebe 6603 463e
00000190: ec9d 883d d8e3 6fbe da37 d0bd 0337 0c3e
000001a0: ac00 c2bd ba3d 143e f1a2 a73d c1c6 f9bd
000001b0: 02d6 da3d d30a 90bd 9115 30be ed97 8dbd
000001c0: 84e3 a9bd 8085 ab3c e4e5 7e3d e56d 69be
000001d0: 0e6e 763e 4cf8 143d c2cc 8a3c df73 26be
000001e0: d3d6 7f3e 3e85 60bd ceaa 83bd 3607 343e
000001f0: cba7 f0bd f66d 673d 95f8 ddbd 6a0b ca3d
00000200: b0a1 49bc ebe5 3bbd 8821 71bd 41be 3e3e
00000210: 850c 4fbe c498 083e 06c7 d13d bcd4 073e
00000220: d44f 91bd b9fa b4bd ead2 c8bd 4ace 18be
00000230: 2c97 773e be35 9abd de08 b1bd 01ec 3e3e
00000240: ddab e7bd 2658 5d3d ec4a 1a3e 4b77 d43d
00000250: 3add 4cbc fac4 0d3b ca39 93be 4639 b9bd
00000260: 6a1e 223d 2987 973e 9e27 0d3d 53bf 953d
00000270: 97f4 14bd fa5a 513e 494a 54be 2c0e 1dbb
00000280: 7914 483e 44ea 7dbe efd8 7abe c69e 59bc
00000290: 5a0f 4c3b 4e07 9cbe 7e99 93bb 29d5 023e
000002a0: 8871 953e 7e84 6b3d 0b30 82bc fb82 91be
000002b0: 1fbc 30be f270 92bd 5783 303e fb36 0f3e
000002c0: 2385 21be 84dc 9bbd 7bd4 02bd 3872 3bbd
000002d0: 633c e73c ce85 31bd 4f49 52bd 55f7 19be
000002e0: 46b2 fdbd d026 78bd a676 48be 2671 4cbc
000002f0: e208 5f3e 111a 88bd 3cb4 6abc 7a0e 623e
00000300: e6d4 da3d 71fc ffbd 3e46 a53c d6e1 9bbd
00000310: 2d95 49be 3ae2 303e c51f e83d 4e33 ca3d
00000320: c09f 15be 3e53 23be 646a 1cbd ba36 07bb
00000330: 28ae 16be 08ad 503e 64e9 9a3e 20f1 a23d
00000340: 67b4 13be 4de5 043e 3a81 8a3c ae22 0a3d
00000350: 5a59 1f3d 8d46 883d 3150 433e 07a9 32bd
00000360: bd35 f73d 5214 7a3d 6eb9 1f3c e30b cebd
00000370: 1af7 08bd 7d7d 793c c8c3 1f3e 57bf 283e
00000380: cb99 003e 11ab 01be 29cb b63d ac7c 85b9
00000390: b679 63be 2212 943e 1328 0f3e cf00 95bd
000003a0: 9ff2 203d bc4f a53d 5f71 173d 4d8f f33d
000003b0: 6c7d 383a 6d13 8abd 2c3d b2bd f2a2 52be
000003c0: abcc 5e3e 95ed ca3c 2811 7cbd c9cd 16be
000003d0: 074e c1bd d248 b63d b000 f73c d7a6 3abe
000003e0: 616a 213c c128 08be 1fe6 29be adbb bc3d
000003f0: ac02 2fbd 3213 cf3d eb0f 9bbc f120 1d3e
