models/model_epoch100.pth (torch, 957119 bytes, 61 tensors)

cnn.0.weight f4 [16, 3, 3, 3]
-0.0963332 -0.052733466 -0.045031425 -0.18761544 -0.051430274 0.22126216 -0.0006207754 0.22811595
0.013033374 -0.21602236 -0.3926579 0.082871825 -0.3121654 -0.1169698 0.29352197 -0.02485685
0.22884105 0.4072145 -0.23483154 -0.3067838 0.09225666 -0.005782414 -0.11891874 0.27161115
-0.09376108 0.0776938 0.28315446 -0.2370025 0.0011429652 0.22236902 -0.005306088 -0.1457992
0.072790176 0.24770486 0.021071034 -0.26538408 -0.40515214 0.2811227 0.2780959 -0.065790415
-0.39692345 -0.040137485 0.26707786 -0.021446018 -0.25069317 -0.22344017 0.14327043 0.13090529
-0.07140305 -0.2797924 0.06504042 0.31486478 0.07357167 -0.2058593 0.20047225 0.008055243
-0.18147516 -0.10245324 0.09754372 -0.07903001 0.07121086 0.24374165 -0.2524366 0.2210353
0.14801897 -0.50298357 0.09569282 0.14798824 -0.14163546 0.34614915 0.050629266 -0.38096136
0.08189481 0.13262935 -0.25783345 0.13737057 0.14822385 -0.2863801 0.14550622 0.14849293
-0.2780114 0.086545065 0.31753048 -0.19874755 0.13465355 0.10829892 -0.13995178 -0.07865252
0.0060839257 -0.2367775 0.12406952 0.3396008 0.039431427 0.34005326 0.03352488 -0.2863197
0.07163658 -0.14855513 -0.48145548 -0.058945626 0.3245486 -0.00051055435 0.21552931 0.17634076
-0.28103587 0.08609842 -0.18261182 -0.2675212 0.09344983 -0.028972879 -0.05290628 0.115692094
-0.29066437 0.16160013 0.14169656 -0.3196744 0.15946072 0.27809718 -0.08307399 -0.01627301
0.27009112 -0.17885199 -0.0932549 0.16880497 -0.4429322 0.10348735 0.34587255 -0.1846928
-0.08861509 0.12115669 -0.2528515 -0.013434882 0.03280666 -0.2770619 0.23577227 0.09045031
-0.059176527 -0.095187895 0.21612975 0.16506921 0.10970338 -0.07180063 0.11942229 -0.25778148
-0.13498695 -0.1530784 -0.089534916 0.13754077 0.08255619 -0.31626132 -0.5770869 0.0012007251
-0.32446 0.28756553 0.28180435 -0.13173197 0.16898993 -0.012756089 -0.14646655 -0.44333044
0.082869016 -0.19349469 -0.178503 0.011189771 0.14932424 0.025274985 -0.03682279 0.010586179
-0.28217962 0.04332003 0.28161246 -0.41295925 0.2136837 0.28617436 -0.3715176 0.14680582
0.068055704 -0.37758 0.25365177 0.18574078 -0.25308898 0.0028654668 0.24831556 -0.14788549
0.07095307 0.02814838 -0.24127251 0.10727039 0.15592265 0.16539738 0.10437129 0.20300704
-0.2848183 -0.13811287 -0.29563445 0.12115389 -0.013182006 0.09346567 0.14338964 0.25064507
0.4094035 -0.15128794 -0.31132153 -0.2669036 -0.07754966 0.10491068 -0.11112027 0.24353111
0.14519724 0.20623292 -0.30631557 -0.23886047 -0.20316705 0.0618111 0.081179775 0.015326773
-0.021652466 -0.06260561 0.035682995 -0.28481668 0.0063367104 0.21378025 -0.00089473306 0.12957077
-0.06502143 0.014581003 -0.16500603 -0.2568116 -0.5037688 -0.0415528 0.042360675 -0.057015046
0.24126431 0.4137652 0.30490074 0.023962943 -0.0811664 -0.49630877 -0.13278988 -0.024809238
-0.17873627 0.26796332 0.06475808 0.0722692 0.18463089 -0.13932927 0.10897616 -0.3639233
-0.038541947 -0.06611142 -0.0241786 0.25818598 0.38699242 0.051304564 -0.227118 -0.08511389
00000000: 574a c5bd 0cff 57bd df72 38bd 431e 40be
00000010: 8da8 52bd 8c92 623e 88bb 22ba 3a97 693e
00000020: ef89 553c f734 5dbe 750a c9be b4b8 a93d
00000030: 25d4 9fbe dd8d efbd 8348 963e 98a0 cbbc
00000040: 4f55 6a3e 6b7e d03e ae77 70be c412 9dbe
00000050: 0ff1 bc3d 687a bdbb ab8b f3bd 9e10 8b3e
00000060: cf05 c0bd ed1d 9f3d 9ff9 903e c9b0 72be
00000070: 8ccf 953a b4b4 633e b1de adbb 634c 15be
00000080: 0413 953d 58a6 7d3e 299d ac3c 6ce0 87be
00000090: 1a70 cfbe 51ef 8f3e 9662 8e3e 20bd 86bd
000000a0: 8d39 cbbe 3467 24bd 6ebe 883e 8faf afbc
000000b0: db5a 80be 80cd 64be 7cb5 123e 090c 063e
000000c0: c33b 92bd f340 8fbe e933 853d f535 a13e
000000d0: beac 963d c8cc 52be 9948 4d3e 23fa 033c
000000e0: a0d4 39be 01d3 d1bd 00c5 c73d 7cda a1bd
000000f0: 00d7 913d 6997 793e 5f3f 81be 1457 623e
00000100: 4992 173e 88c3 00bf 99fa c33d 3b8a 173e
00000110: e308 11be 763a b13e a260 4f3d 5e0d c3be
00000120: 77b8 a73d fdcf 073e bf02 84be dfaa 0c3e
00000130: fec7 173e 6aa0 92be 95ff 143e 880e 183e
00000140: 8357 8ebe 8a3e b13d 5b93 a23e 7a84 4bbe
00000150: 9fe2 093e d3cb dd3d 854f 0fbe 9314 a1bd
00000160: ab5b c73b cd75 72be 2918 fe3d 28e0 ad3e
00000170: d982 213d 761b ae3e 6251 093d 7f98 92be
00000180: 33b6 923d d61e 18be 5581 f6be f870 71bd
00000190: 3c2b a63e b9d6 05ba b7b3 5c3e ac92 343e
000001a0: efe3 8fbe 5e54 b03d 98fe 3abe 8af8 88be
000001b0: a062 bf3d 8858 edbc 41b4 58bd faef ec3d
000001c0: f6d1 94be 817a 253e e718 113e 5dac a3be
000001d0: ac49 233e c162 8e3e b222 aabd fa4e 85bc
000001e0: 6249 8a3e fa24 37be 6dfc bebd 36db 2c3e
000001f0: 02c8 e2be 2df1 d33d 3516 b13e 1c20 3dbe
00000200: d47b b5bd 0021 f83d c075 81be fb1d 5cbc
00000210: 4760 063d 0fdb 8dbe 496e 713e 033e b93d
00000220: 1663 72bd dff1 c2bd 1e51 5d3e e707 293e
00000230: 2aac e03d 350c 93bd ac93 f43d effb 83be
00000240: 053a 0abe 96c0 1cbe 155e b7bd 7dd7 0c3e
00000250: 3813 a93d 01ed a1be f8bb 13bf a661 9d3a
00000260: 9f1f a6be ca3b 933e a948 903e bfe4 06be
00000270: b20b 2d3e eafe 50bc 54fb 15be 35fc e2be
00000280: 3bb7 a93d 7923 46be 7ec9 36be 4d55 373c
00000290: 74e8 183e 7c0d cf3c 7ed3 16bd a771 2d3c
000002a0: d979 90be 5870 313d 822f 903e 656f d3be
000002b0: e6cf 5a3e 7285 923e 8e37 bebe 4454 163e
000002c0: ca60 8b3d 2a52 c1be a5de 813e d532 3e3e
000002d0: e194 81be 8eca 3b3b 6f46 7e3e 4b6f 17be
000002e0: d84f 913d 6e97 e63c 2410 77be 94b0 db3d
000002f0: 30aa 1f3e ee5d 293e 9dc0 d53d 14e1 4f3e
00000300: b4d3 91be 766d 0dbe 665d 97be 881f f83d
00000310: 57f9 57bc ee6a bf3d bcd4 123e 8d54 803e
00000320: 569d d13e 3aeb 1abe 8965 9fbe 97a7 88be
00000330: 5bd2 9ebd 69db d63d 0693 e3bd 3860 793e
00000340: 96ae 143e b92e 533e 65d5 9cbe d797 74be
00000350: 060b 50be a32d 7d3d 9541 a63d 251d 7b3c
00000360: 8360 b1bc 5f37 80bd 5528 123d 7ed3 91be
00000370: 2ea4 cf3b 36e9 5a3e 858c 6aba 33ae 043e
00000380: f529 85bd 29e5 6e3c 57f7 28be cf7c 83be
00000390: fef6 00bf 4533 2abd 6382 2d3d 9c88 69bd
000003a0: fe0d 773e 08d9 d33e f31b 9c3e ef4d c43c
000003b0: 923a a6bd 2f1c febe 12fa 07be be3c cbbc
000003c0: a406 37be 7d32 893e e29f 843d e001 943d
000003d0: e10f 3d3e 55ac 0ebe e52e df3d 2854 babe
000003e0: 29de 1dbd 6d65 87bd 3312 c6bc f430 843e
000003f0: df23 c63e bc24 523d 9f91 68be 3150 aebd

cnn.0.bias f4 [16]
0.12081522 0.12742433 -0.2987569 -0.08544112 0.07214632 0.22581749 0.16760589 0.054173667
-0.12924214 -0.41833064 -0.030871512 -0.35581592 -0.30102423 0.4181656 0.17196324 -0.13997981
00000000: f86d f73d 867b 023e aaf6 98be c1fb aebd
00000010: 73c1 933d b33c 673e e1a0 2b3e 35e5 5d3d
00000020: 0d58 04be 6f2f d6be 41e6 fcbc 812d b6be
00000030: d91f 9abe cd19 d63e 2217 303e de56 0fbe

cnn.1.weight f4 [16]
1.1115642 0.60863304 1.1061661 1.0059758 0.62199825 0.48605457 1.0660397 0.97759175
0.4744365 0.62859964 1.2633201 0.94945765 1.0545769 0.7159 0.9548962 1.0124391
00000000: bc47 8e3f 60cf 1b3f da96 8d3f d1c3 803f
00000010: 473b 1f3f 25dc f83e fd73 883f 7443 7a3f
00000020: 57e9 f23e e8eb 203f 79b4 a13f a80f 733f
00000030: 60fc 863f 3945 373f 1474 743f 9b97 813f

cnn.1.bias f4 [16]
-0.12408079 -0.17835788 -0.033361264 -0.0019037528 -0.034247342 0.4778955 -0.052641716 0.023084898
0.9773315 0.37184465 -0.12532975 -0.06553279 -0.05095096 1.0636461 1.7367967 -0.034447167
00000000: 121e febd 73a3 36be d2a5 08bd 5887 f9ba
00000010: f146 0cbd b8ae f43e d79e 57bd 8a1c bd3c
00000020: 6632 7a3f 6c62 be3e 7156 00be 0e36 86bd
00000030: f4b1 50bd 8e25 883f 5b4f de3f 7918 0dbd

cnn.1.running_mean f4 [16]
0.09971438 0.15915446 -0.2986228 -0.06929868 0.08470286 0.2918706 0.15884133 0.08056942
-0.10786795 -0.38970712 -0.062087625 -0.36244664 -0.30098122 0.45285782 0.10299381 -0.12866803
00000000: 0e37 cc3d 63f9 223e 16e5 98be 77ec 8dbd
00000010: b178 ad3d 1070 953e 4da7 223e 9401 a53d
00000020: dfe9 dcbd b187 c7be 984f 7ebd 9b92 b9be
00000030: 361a 9abe fbdc e73e 6bee d23d 8dc1 03be

cnn.1.running_var f4 [16]
0.26722687 0.105457306 0.20380245 0.25271177 0.07493573 0.4432603 0.22709273 0.18095115
0.16947637 0.08567398 0.37645224 0.18605517 0.14718097 0.17095101 0.35358894 0.25049263
00000000: f6d1 883e 00fa d73d 97b1 503e 7063 813e
00000010: e777 993d 04f3 e23e ff8a 683e 424b 393e
00000020: 378b 2d3e d775 af3d 59be c03e 3f85 3e3e
00000030: 9cb6 163e c80d 2f3e 9c09 b53e 9240 803e

cnn.4.weight f4 [32, 16, 3, 3]
-0.09450493 0.050169736 -0.046635326 -0.12654805 -0.08527118 -0.09660823 -0.06417779 -0.07706138
-0.04833702 0.011890161 -0.30308208 0.04643241 0.23109229 -0.13256545 0.1173744 0.07675461
-0.009355947 0.19324715 0.14305699 0.179981 0.14946795 0.033135436 0.16984716 0.21553703
-0.010413987 0.0716652 0.13651185 -0.020686505 0.04491932 -0.033222612 -0.152861 -0.17404808
-0.1571099 -0.10981138 -0.302394 -0.09376473 0.06656563 0.14034568 0.012759215 -0.039475918
-0.024761625 0.09188636 -0.03385348 -0.12960204 0.06835558 -0.09339227 -0.20408112 -0.04416104
-0.0027986837 -0.058181744 -0.038431592 0.32542175 0.1198852 -0.0590811 0.10555199 0.21538094
0.17482784 -0.058763828 0.07959517 0.122655675 -0.08377451 0.03738709 0.11754873 0.014947283
-0.062127836 0.05142696 0.06426049 -0.64243597 0.048943155 -0.2765619 -0.636993 -0.015063
0.05739699 -0.17142226 -0.064019024 -0.0009144337 -0.25472274 -0.060512662 0.121700756 -0.21754259
0.13505441 -0.029684272 0.0026484 -0.04512281 -0.090923324 -0.375481 -0.14797345 0.11927637
-0.37228614 -0.08446265 -0.010152395 -0.1681126 0.066489875 -0.15143032 -1.0738771 0.10094892
0.0119421575 -0.8673602 0.08261644 0.023315093 -0.18027996 0.11943115 0.107094616 -0.038921118
0.22291361 -0.0877719 0.07058543 0.09766197 -0.1737401 -0.37950367 0.11592496 -0.11877489
-0.9820175 -0.019365028 0.018262649 -0.46026346 -0.05357156 0.2292404 0.14523384 0.1024249
0.017507823 0.29845834 0.32844234 -0.11883236 0.20712832 0.09983785 -0.07872295 0.11348478
0.12552987 -0.14783446 0.26344395 0.09655331 -0.0667068 0.10085797 0.056536738 0.12570493
0.072112836 0.049396828 0.14685838 0.1857696 0.09797505 -0.042142645 0.057062376 0.1641721
-0.13495325 0.24753822 0.16279833 0.039991938 0.34277096 0.06604154 0.065652214 -0.09706654
-0.14507444 0.27304307 -0.24387912 -0.11313459 0.14631079 -0.28835407 -0.055704936 -0.093298756
-0.1925151 0.26313514 0.13920984 -0.29594716 -0.013106429 4.6866073e-05 -0.1297641 0.09221584
0.04653116 0.12806158 -0.025022203 -0.21252282 -0.013274459 0.39912343 -0.117231146 0.426716
0.08574646 -0.025227198 0.32673302 -0.11091574 -0.1289536 0.06280431 0.2712213 0.059175093
0.17616263 0.0949117 0.0848126 0.21942839 -0.121167496 0.13453929 -0.013274503 -0.19087383
-0.046157297 -0.3615726 0.22095883 -0.07884535 -0.001974436 0.3408791 0.114482 0.29942188
0.10683902 0.0401872 0.053464793 -0.27091715 -0.019073404 -0.15801348 0.044247344 0.08900517
-0.23177361 -0.032419004 -0.052398868 -0.07829077 0.046587586 0.017597064 0.074886315 -0.20335925
-0.11976682 0.35365012 -0.12587462 0.042112645 -0.09121933 -0.04215486 -0.049536534 -0.14950724
0.2106071 -0.16030988 0.22298013 0.108704425 0.11976193 -0.03660316 0.16337462 -0.04191166
-0.10863039 -0.12416509 -0.09113456 0.19256434 -0.18865569 0.09169477 0.09684305 -0.2233619
-0.009313763 -0.494136 -0.07868229 0.050322514 -0.25166628 -0.2546632 -0.016998133 -0.7518545
-0.13943508 -0.0649859 -0.063028894 0.15979035 0.043479275 -0.3006488 0.114927895 -0.0102033345
00000000: cd8b c1bd c87e 4d3d af04 3fbd d095 01be
00000010: a8a2 aebd 89da c5bd a56f 83bd 5bd2 9dbd
00000020: 0afd 45bd f3ce 423c 932d 9bbe e92f 3e3d
00000030: 75a3 6c3e 3dbf 07be fd61 f03d 8531 9d3d
00000040: b049 19bc 95e2 453e 887d 123e f04c 383e
00000050: 200e 193e 06b9 073d 6aec 2d3e bdb5 5c3e
00000060: 6d9f 2abc 34c5 923d c3c9 0b3e bf76 a9bc
00000070: 52fd 373d 6f14 08bd 9887 1cbe a939 32be
00000080: 6be1 20be cae4 e0bd 63d3 9abe b907 c0bd
00000090: 9053 883d c7b6 0f3e 070c 513c 80b1 21bd
000000a0: e4d8 cabc ea2e bc3d f2a9 0abd 66b6 04be
000000b0: 03fe 8b3d 7244 bfbd a4fa 50be 35e2 34bd
000000c0: 1f6a 37bb fb4f 6ebd 726a 1dbd ae9d a63e
000000d0: 5f86 f53d 06ff 71bd a42b d83d d28c 5c3e
000000e0: 1206 333e 57b2 70bd cb02 a33d e632 fb3d
000000f0: f891 abbd 3523 193d 63bd f03d 73e5 743c
00000100: c279 7ebd 13a5 523d 019b 833d af76 24bf
00000110: 9e78 483d 8599 8dbe f911 23bf cdca 76bc
00000120: 1b19 6b3d 5189 2fbe 681c 83bd 9bb6 6fba
00000130: 056b 82be 20dc 77bd 3f3e f93d 7cc3 5ebe
00000140: b44b 0a3e 6e2c f3bc c790 2d3b b2d2 38bd
00000150: 0236 babd 0c3f c0be 5a86 17be 2b47 f43d
00000160: 4a9c bebe c1fa acbd 3b56 26bc b625 2cbe
00000170: d82b 883d 8d10 1bbe ce74 89bf 4fbe ce3d
00000180: 0aa9 433c 510b 5ebf cf32 a93d 4bff be3c
00000190: 4f9b 38be 5298 f43d 6c54 db3d c06b 1fbd
000001a0: 7743 643e c1c1 b3bd 188f 903d 0003 c83d
000001b0: ede8 31be 4e4e c2be 116a ed3d 4040 f3bd
000001c0: 8065 7bbf 68a3 9ebc 8d9b 953c a7a7 ebbe
000001d0: da6d 5bbd ffbd 6a3e 2eb8 143e 25c4 d13d
000001e0: 916c 8f3c 88cf 983e 9829 a83e 615e f3bd
000001f0: 7219 543e c977 cc3d 7f39 a1bd b56a e83d
00000200: e78a 003e eb61 17be 20e2 863e bebd c53d
00000210: 939d 88bd a08e ce3d 1193 673d cbb8 003e
00000220: e5af 933d 5454 4a3d 0b62 163e 633a 3e3e
00000230: 25a7 c83d c49d 2cbd 3dba 693d bb1c 283e
00000240: 2f31 0abe a97a 7d3e 9bb4 263e 96ce 233d
00000250: ad7f af3e c940 873d ab74 863d d2ca c6bd
00000260: 658e 14be 4dcc 8b3e 73bb 79be 1cb3 e7bd
00000270: 7fd2 153e 25a3 93be dc2a 64bd 6b13 bfbd
00000280: ae22 45be a6b9 863e 068d 0e3e 6386 97be
00000290: 59bc 56bc 1092 4438 e1e0 04be a9db bc3d
000002a0: 7597 3e3d 9322 033e 5dfb ccbc 959f 59be
000002b0: 1e7d 59bc e859 cc3e e216 f0bd 857a da3e
000002c0: d79b af3d 45a9 cebc 8d49 a73e cb27 e3bd
000002d0: 6a0c 04be 8c9f 803d 85dd 8a3e 9561 723d
000002e0: fa63 343e 1161 c23d 3ab2 ad3d d6b1 603e
000002f0: aa26 f8bd abc4 093e 4d7d 59bc 6e74 43be
00000300: 6f0f 3dbd 0b20 b9be 0843 623e ac79 a1bd
00000310: 8a65 01bb b587 ae3e 8a75 ea3d d34d 993e
00000320: 6bce da3d 559b 243d e6fd 5a3d a7b5 8abe
00000330: d43f 9cbc 49ce 21be b43c 353d 5848 b63d
00000340: 1056 6dbe cac9 04bd 32a0 56bd e956 a0bd
00000350: a0d2 3e3d b827 903c ff5d 993d 683d 50be
00000360: 4e48 f5bd a111 b53e 47e5 00be 4f7e 2c3d
00000370: 33d1 babd 93aa 2cbd d2e6 4abd 6d18 19be
00000380: 63a9 573e 4628 24be e754 643e 6da0 de3d
00000390: be45 f53d 32ed 15bd ad4b 273e 90ab 2bbd
000003a0: 9c79 debd 444a febd c2a4 babd 962f 453e
000003b0: f52e 41be 78ca bb3d a655 c63d fbb8 64be
000003c0: c198 18bc 65ff fcbe 2e24 a1bd fb1e 4e3d
000003d0: 67da 80be 3763 82be ab3f 8bbc 8979 40bf
000003e0: 12c8 0ebe 5417 85bd 4b15 81bd 15a0 233e
000003f0: 5317 323d a4ee 99be 515f eb3d e32b 27bc

cnn.4.bias f4 [32]
0.1358638 -0.08369321 -0.2012282 -0.17815481 0.08339381 -0.10282286 -0.08099737 -0.14891198
-0.053016137 0.11040049 -0.027218452 -0.1758091 0.25197327 -0.13275446 -0.1311302 0.09488461
0.04464678 -0.14965329 -0.06953827 -0.32469037 0.102506295 -0.11724242 0.12055721 -0.09526327
0.040714 0.07390702 0.208146 0.0055974186 0.27531123 0.0039038872 -0.0775617 0.14697504
00000000: e11f 0b3e 5867 abbd c40e 4ebe 376e 36be
00000010: 60ca aa3d cb94 d2bd f3e1 a5bd 627c 18be
00000020: 7327 59bd a719 e23d 3bf9 debc 4d07 34be
00000030: a402 813e c9f0 07be ff46 06be dd52 c23d
00000040: 8bdf 363d b63e 19be 156a 8ebd d13d a6be
00000050: d2ee d13d cb1c f0bd b3e6 f63d 6419 c3bd
00000060: b9c3 263d 905c 973d 3a24 553e 8d6a b73b
00000070: 98f5 8c3e 5cd8 7f3b abd8 9ebd a080 163e

cnn.5.weight f4 [32]
1.1073906 0.87602377 0.9946086 1.0470589 0.9053059 0.74635303 0.78553337 1.0851065
0.94212633 0.7449626 1.0935781 0.99807674 0.870958 0.97586554 0.96931297 0.9646441
1.0782254 1.120509 0.66844124 0.85678434 0.91115713 1.0754819 0.8835531 0.7597204
0.7663073 1.032198 0.9003676 1.0071596 1.014277 1.1590834 1.0154969 1.0816046
00000000: fabe 8d3f 1843 603f ab9e 7e3f 0706 863f
00000010: 21c2 673f fe10 3f3f b718 493f c5e4 8a3f
00000020: 312f 713f deb5 3e3f 5efa 8b3f f581 7f3f
00000030: 1af7 5e3f 53d2 793f e524 783f eaf2 763f
00000040: 4a03 8a3f d76c 8f3f f71e 2b3f 3856 5b3f
00000050: 9841 693f 64a9 893f 8930 623f 097d 423f
00000060: b72c 443f 101f 843f 7e7e 663f 9bea 803f
00000070: d4d3 813f d85c 943f cdfb 813f 0572 8a3f

cnn.5.bias f4 [32]
-0.46164516 -0.22616206 -0.3737656 -0.37654147 -0.22114447 0.100644805 -0.20123231 -0.52353555
-0.33473837 -0.17210469 -0.15155688 -0.4159099 -0.35948554 -0.4124646 -0.41153282 -0.035040412
-0.5406421 -0.14337036 -0.22376601 -0.26134878 -0.3482538 -0.46067333 -0.21739948 -0.13235536
0.108267255 -0.39149183 -0.2855791 -0.43712848 -0.34299037 -0.341769 -0.24095267 -0.3364494
00000000: c15c ecbe 0797 67be 345e bfbe 0bca c0be
00000010: b273 62be dd1e ce3d d80f 4ebe 6d06 06bf
00000020: d462 abbe 363c 30be ba31 1bbe 24f2 d4be
00000030: 7d0e b8be 8f2e d3be 6eb4 d2be 8986 0fbd
00000040: 8567 0abf aecf 12be eb22 65be 82cf 85be
00000050: 524e b2be 60dd ebbe f89d 5ebe 2a88 07be
00000060: 39bb dd3d 9e71 c8be 6c37 92be 4ecf dfbe
00000070: 6f9c afbe 59fc aebe 4cbc 76be 1943 acbe

cnn.5.running_mean f4 [32]
-0.7959227 -2.1605065 -0.54635066 -0.5466136 -2.7929788 -0.6025011 -1.4328028 -3.54739
-3.186091 -1.0113952 1.42166 0.29436964 -1.2534524 -1.2782184 -2.084221 0.039919183
-3.2038662 0.35360906 0.276874 -0.7896953 -1.6332898 -0.22513698 -2.390205 -2.1267462
0.53527516 1.0262431 -1.1628501 -1.2619836 -3.5889704 0.13672528 -1.2131847 -1.1038934
00000000: 97c1 4bbf bd45 0ac0 a3dd 0bbf deee 0bbf
00000010: 2ac0 32c0 833d 1abf 1566 b7bf 7008 63c0
00000020: eae8 4bc0 6675 81bf f4f8 b53f 9eb7 963e
00000030: 2171 a0bf a99c a3bf e063 05c0 4c82 233d
00000040: 250c 4dc0 3f0c b53e 6ec2 8d3e 7929 4abf
00000050: a40f d1bf 4f8a 66be 1ef9 18c0 9c1c 08c0
00000060: cb07 093f ef5b 833f 46d8 94bf ae88 a1bf
00000070: b1b1 65c0 b601 0c3e a349 9bbf 614c 8dbf

cnn.5.running_var f4 [32]
8.570777 3.3666337 5.919728 2.405837 4.691239 3.1743717 11.971505 8.721466
5.1525054 2.7882009 3.5017016 9.704945 5.249451 10.253874 7.829802 5.806835
8.16799 3.1402519 3.743571 6.758451 8.091299 6.662309 10.279332 15.19314
2.0899832 4.4133563 5.133176 5.711223 9.723231 8.094395 7.120139 13.399167
00000000: e721 0941 ed76 5740 696e bd40 3cf9 1940
00000010: a11e 9640 e828 4b40 498b 3f41 208b 0b41
00000020: 53e1 a440 e271 3240 e11b 6040 7447 1b41
00000030: 81fb a740 de0f 2441 bd8d fa40 98d1 b940
00000040: 16b0 0241 e3f9 4840 ab96 6f40 3b45 d840
00000050: f675 0141 a331 d540 2578 2441 1a17 7341
00000060: 49c2 0540 373a 8d40 fa42 a440 57c2 b640
00000070: 5b92 1b41 a482 0141 2ed8 e340 fd62 5641

cnn.8.weight f4 [48, 32, 3, 3]
-0.3351168 -0.2863948 0.45522875 0.057782654 -0.32662404 0.12900873 0.04185183 -0.33782765
0.15381087 -0.16987242 -0.28757995 0.123297416 -0.09463556 -0.15130779 0.13025312 0.027952662
0.17615336 -0.11067574 -0.14024659 0.11043351 0.2287662 -0.17246823 0.2194263 0.20269343
-0.13004278 -0.0449401 0.21285957 0.01637853 0.15460415 0.2648096 0.077182084 0.08054456
0.30691323 -0.093713194 0.16754101 0.3374379 0.12604645 -0.19942968 0.31811726 -0.15361556
-0.24277343 0.36099568 0.054620724 -0.18170677 0.33843338 -0.047763877 -0.16623172 -0.029884003
0.091476314 0.0048118667 -0.12219928 0.24811558 -0.11501755 -0.089982934 0.17628378 -0.3647042
-0.44511753 0.17838673 -0.35006872 -0.38641462 0.4487813 -0.315673 -0.27478334 0.2479694
0.08044499 0.028973572 0.08769951 -0.3044318 -0.3475139 0.21622047 -0.0520108 -0.053312548
-0.05157672 -0.116817184 -0.3271039 0.17061658 -0.24354021 -0.25565597 0.16351609 0.08549449
0.041756984 -0.07961109 -0.25438905 -0.08173334 -0.134792 -0.14559132 -0.03910349 0.099277005
0.16000478 -0.028217694 -0.06919376 0.049683515 -0.039964367 -0.028795924 -0.041391723 -0.15950318
0.2804542 0.019649573 -0.34039313 -0.019645253 0.10693859 0.09196514 -0.26684105 0.01068561
0.04172709 -0.028850706 -0.0130318 0.12111192 0.21718447 0.04257065 -0.516912 -0.1976295
0.038360234 -0.035948694 0.07080147 0.070343524 -0.13803612 -0.27309725 -0.0033983835 0.44764784
-0.06348031 -0.12451427 0.23117809 0.02405417 -0.1781313 0.12480774 -0.075649664 -0.17796542
0.07629313 -0.13258164 -0.05519682 0.33888295 -0.21560891 -0.09081458 -0.051534988 -0.033650264
0.0849004 0.23660466 -0.29970214 -0.096310675 0.007557341 0.039766528 -0.0483376 -0.15149632
-0.2131003 0.22050457 -0.105002195 0.14458191 0.040866528 -0.06849695 -0.100497164 -0.110676415
0.18241656 0.050380196 -0.37868357 -0.13730273 0.04238084 -0.546095 -0.24531175 -0.14600244
-0.40734378 0.034416996 0.19413261 -0.041532155 0.017910764 -0.04548424 -0.084440514 0.08443262
-0.15803549 0.0027551767 0.11580808 0.048761006 0.03045005 -0.108143196 -0.17551307 0.03443273
-0.040720686 0.15275574 0.09709943 -0.094874844 -0.1510548 -0.13945392 0.22911444 -0.21473816
-0.017637454 0.29469162 -0.08722909 -0.14500752 0.04818493 -0.061257273 -0.34201294 0.18762852
-0.032938223 0.08194761 0.23465632 -0.22904086 0.013329524 0.31987157 0.17978358 0.07331449
-0.19407023 0.036061004 0.10402933 -0.4183758 -0.035370793 0.21816607 -0.09487598 -0.18014905
-0.13236971 0.16019048 -0.25901052 -0.14669476 0.060061425 0.15607645 0.0457601 -0.031039856
-0.08202763 0.105603606 0.16169295 -0.23890568 0.04214444 0.2241733 -0.32176432 -0.05708162
0.29302305 -0.25732085 -0.2104887 -0.8144936 0.037202235 -0.44879597 0.029676309 0.1199637
-0.28083014 -0.05894463 -0.20522411 0.24704446 -0.008049469 -0.26286206 -0.21553847 0.07787625
-0.26133594 -0.07789908 -0.16438136 0.21359949 -0.06708667 -0.009962165 -0.046666965 -0.12907752
0.11807604 -0.0022975442 0.11244308 0.09431892 -0.14360863 -0.027497917 -0.14310569 -0.32490504
00000000: 6e94 abbe 57a2 92be be13 e93e 81ad 6c3d
00000010: 443b a7be dd1a 043e d36c 2b3d bff7 acbe
00000020: 9980 1d3e 09f3 2dbe ae3d 93be 5b83 fc3d
00000030: 4ad0 c1bd 6ef0 1abe 1361 053e fbfc e43c
00000040: 8c61 343e f6a9 e2bd cd9c 0fbe f72a e23d
00000050: b041 6a3e 839b 30be 4ab1 603e de8e 4f3e
00000060: ef29 05be 1c13 38bd dcf7 593e 442c 863c
00000070: 8d50 1e3e 2095 873e a411 9e3d 8cf4 a43d
00000080: bb23 9d3e b4ec bfbd df8f 2b3e a9c4 ac3e
00000090: 5212 013e 4b37 4cbe 44e0 a23e 664d 1dbe
000000a0: 9999 78be 6dd4 b83e fbb9 5f3d 5711 3abe
000000b0: 2447 ad3e 0ea4 43bd a638 2abe 4ccf f4bc
000000c0: ef57 bb3d ddac 9d3b 9e43 fabd 0312 7e3e
000000d0: 528e ebbd f948 b8bd bc83 343e 82ba babe
000000e0: 72e6 e3be 03ab 363e 353c b3be 23d8 c5be
000000f0: aac6 e53e e49f a1be 67b0 8cbe b1eb 7d3e
00000100: 58c0 a43d fc59 ed3c cd9b b33d 7cde 9bbe
00000110: 58ed b1be e668 5d3e 4709 55bd 425e 5abd
00000120: 1c42 53bd d93d efbd 2a7a a7be 1db6 2e3e
00000130: 9b62 79be 57e5 82be c370 273e bc17 af3d
00000140: 5f09 2b3d 240b a3bd 483f 82be cf63 a7bd
00000150: ea06 0abe e415 15be fb2a 20bd be51 cb3d
00000160: 4bd8 233e cb28 e7bc 75b5 8dbd f180 4b3d
00000170: adb1 23bd 6ee5 ebbc 5e8a 29bd cd54 23be
00000180: b197 8f3e 24f8 a03c 0248 aebe 15ef a0bc
00000190: 9f02 db3d 3858 bc3d 649f 88be b212 2f3c
000001a0: 06ea 2a3d 5158 ecbc 5583 55bc 8709 f83d
000001b0: 9b65 5e3e 905e 2e3d 5854 04bf 635f 4abe
000001c0: 9f1f 1d3d f03e 13bd 5c00 913d 4410 903d
000001d0: 5759 0dbe 67d3 8bbe 6ab7 5ebb 1932 e53e
000001e0: f701 82bd 5601 ffbd f3b9 6c3e 400d c53c
000001f0: 0d68 36be 339b ff3d 36ee 9abd 913c 36be
00000200: 933f 9c3d 7bc3 07be 1016 62bd 1182 ad3e
00000210: 95c8 5cbe fffc b9bd 5a16 53bd dcd4 09bd
00000220: 43e0 ad3d 7e48 723e 8f72 99be 883e c5bd
00000230: 92a3 f73b 3ae2 223d a6fd 45bd da21 1bbe
00000240: f736 5abe f3cb 613e 640b d7bd 480d 143e
00000250: a963 273d 2148 8cbd 75d1 cdbd 51aa e2bd
00000260: 68cb 3a3e 775b 4e3d d0e2 c1be 1699 0cbe
00000270: 8897 2d3d e2cc 0bbf 0133 7bbe aa81 15be
00000280: 5d8f d0be d6f8 0c3d b3ca 463e 9f1d 2abd
00000290: 98b9 923c af4d 3abd 26ef acbd 02eb ac3d
000002a0: 0ed4 21be 3290 343b c92c ed3d 9fb9 473d
000002b0: 6272 f93c 2e7a ddbd b3b9 33be 5609 0d3d
000002c0: bcca 26bd 006c 1c3e 11dc c63d be4d c2bd
000002d0: 1cae 1abe 02cd 0ebe fa9c 6a3e 52e4 5bbe
000002e0: 6c7c 90bc d2e1 963e 2aa5 b2bd da7c 14be
000002f0: 905d 453d e8e8 7abd 521c afbe b121 403e
00000300: 3bea 06bd 26d4 a73d bf49 703e b089 6abe
00000310: 1364 5a3c 35c6 a33e 3019 383e e825 963d
00000320: 59ba 46be b4b4 133d 540d d53d 5a35 d6be
00000330: f7e0 10bd ed66 5f3e 564e c2bd fe78 38be
00000340: ed8b 07be f908 243e 079d 84be 2737 16be
00000350: f802 763d 81d2 1f3e f16e 3b3d 4c47 febc
00000360: 1afe a7bd b446 d83d d692 253e b1a3 74be
00000370: a69f 2c3d b08d 653e 4bbe a4be 6bce 69bd
00000380: 1e07 963e 8fbf 83be 5a8a 57be a782 50bf
00000390: 5f61 183d 96c8 e5be bb1b f33c 87af f53d
000003a0: f8c8 8fbe ed6f 71bd 4526 52be 39f9 7c3e
000003b0: ece1 03bc db95 86be 1eb6 5cbe 957d 9f3d
000003c0: d3cd 85be 8e89 9fbd 9653 28be d3b9 5a3e
000003d0: bc64 89bd 5938 23bc dc25 3fbd e62c 04be
000003e0: dad1 f13d 6592 16bb 8f48 e63d 472a c13d
000003f0: 240e 13be 5043 e1bc 4c8a 12be f459 a6be

cnn.8.bias f4 [48]
-0.11519215 0.062477212 -0.22133422 0.020858372 0.08697521 0.036036495 0.047584284 -0.09685017
-0.08100543 -0.14090702 -0.01611481 -0.03006967 -0.075092316 -0.07070656 -0.049884897 -0.11017987
-0.062317606 -0.23658791 0.003598159 0.13319595 0.10126443 0.016518718 -0.03479187 0.037686896
-0.021607256 -0.058817107 -0.03344709 -0.17774975 0.16261464 -0.046992723 0.2026952 0.25959325
0.0805249 0.002362124 0.020714566 -0.054805346 -0.012132173 -0.13156234 -0.11112698 -0.10165905
-0.00646371 0.07381119 -0.09330518 0.051720314 0.17264777 0.082253136 0.046887845 -0.08596065
00000000: dde9 ebbd 1be8 7f3d 70a5 62be 2ddf aa3c
00000010: 0f20 b23d 019b 133d bde7 423d 6259 c6bd
00000020: 2de6 a5bd ee49 10be 3503 84bc ab54 f6bc
00000030: 00ca 99bd 9ace 90bd 1b54 4cbd fca5 e1bd
00000040: bf40 7fbd 1a44 72be 17cf 6b3b 8564 083e
00000050: ba63 cf3d 4352 873c eb81 0ebd 935d 1a3d
00000060: b301 b1bc 35ea 70bd d1ff 08bd 0804 36be
00000070: 7484 263e 717b 40bd 558f 4f3e 68e9 843e
00000080: 3dea a43d ddcd 1a3b 98b1 a93c 927b 60bd
00000090: 06c6 46bc 47b8 06be 8b96 e3bd 9f32 d0bd
000000a0: 88cd d3bb 522a 973d c916 bfbd aed8 533d
000000b0: 94ca 303e 5574 a83d 780d 403d 230c b0bd

cnn.9.weight f4 [48]
0.98428106 0.9378714 0.84548366 0.9132745 0.762155 0.91634464 0.8657376 0.84838104
0.8750374 0.82601285 0.8876763 0.80230707 1.0679004 0.94252527 0.786271 0.83900607
1.1225431 0.9421877 0.69682235 0.7636922 0.7978564 0.8826627 1.0155287 0.79475844
1.0604633 0.910104 0.8830813 0.90778285 0.8341937 0.8779387 0.9547713 1.1053208
0.86982256 0.8434197 0.9814888 0.8063245 0.53874373 1.0169889 0.73659956 0.7245524
0.7502245 0.99749756 0.9135601 0.83025265 0.8910923 0.7461798 0.942641 0.84598154
00000000: d8f9 7b3f 5718 703f 9e71 583f 5ccc 693f
00000010: 971c 433f 9095 6a3f fba0 5d3f 802f 593f
00000020: 7302 603f 9475 533f c13e 633f ff63 4d3f
00000030: f6b0 883f 5649 713f 0e49 493f 1ac9 563f
00000040: 7eaf 8f3f 3733 713f f362 323f 5581 433f
00000050: 5140 4c3f 2ff6 613f d8fc 813f 4a75 4b3f
00000060: 43bd 873f 93fc 683f 9e11 623f 7564 683f
00000070: b88d 553f 97c0 603f e46b 743f 277b 8d3f
00000080: b1ac 5e3f 5aea 573f da42 7b3f 486b 4e3f
00000090: 1ceb 093f b12c 823f ca91 3c3f 447c 393f
000000a0: b60e 403f 005c 7f3f 13df 693f 708b 543f
000000b0: a01e 643f a405 3f3f ec50 713f 3f92 583f

cnn.9.bias f4 [48]
-0.40030196 -0.7062574 -0.4756315 -0.46749938 -0.42954898 -0.26252776 -0.4159155 -0.55859137
-0.5142525 -0.65459454 -0.67303765 -0.55770487 -0.8132333 -0.60005414 -0.5177866 -0.37338877
-0.5910641 -0.31931803 -0.35411498 -0.36892042 -0.3233803 -0.15025482 -0.6444007 -0.42815417
-0.64361995 -0.5066909 -0.6117682 -0.56201595 -0.50472224 -0.59117496 -0.7523426 -0.82648337
-0.53605694 -0.37011355 -0.6035825 -0.30573943 -0.08237658 -0.64653444 -0.4116094 -0.2825132
-0.29649982 -0.6313002 -0.54518545 -0.4645954 -0.52273124 -0.34557682 -0.7538715 -0.6312116
00000000: 61f4 ccbe 49cd 34bf f985 f3be 145c efbe
00000010: d8ed dbbe 0a6a 86be e0f2 d4be d8ff 0ebf
00000020: 0da6 03bf 8293 27bf 324c 2cbf bfc5 0ebf
00000030: 0f30 50bf 269d 19bf aa8d 04bf d02c bfbe
00000040: fa4f 17bf a77d a3be 8f4e b5be 23e3 bcbe
00000050: 1a92 a5be 66dc 19be 72f7 24bf 0637 dbbe
00000060: 47c4 24bf 7fb6 01bf d79c 1cbf 47e0 0fbf
00000070: 7a35 01bf 3e57 17bf 8699 40bf 6a94 53bf
00000080: 073b 09bf 867f bdbe 6284 1abf e189 9cbe
00000090: 0db5 a8bd 4883 25bf 78be d2be 92a5 90be
000000a0: d3ce 97be e49c 21bf 4691 0bbf 73df edbe
000000b0: b7d1 05bf 72ef b0be b9fd 40bf 1597 21bf

cnn.9.running_mean f4 [48]
-2.0062506 -2.400576 -1.829832 -1.6620023 -2.6616535 -1.1601089 -1.3496165 -2.521452
-2.454484 -2.3656027 -2.9425466 -2.6353323 -1.6175946 -1.6492406 -2.2276795 -2.3027654
-2.1596687 -2.5601902 -1.0261649 -1.1070852 -1.0330402 -1.5321423 -1.9439622 -2.5477312
-2.341396 -2.543095 -1.7743239 -1.9814242 -0.6979702 -2.0903332 -2.4795172 -1.2913687
-2.1150908 -1.6903803 -2.077301 -1.4169104 0.61758685 -2.4961624 -1.9589618 -0.7068468
-1.4939479 -1.6548557 -1.9404774 -1.6173403 -2.018883 -1.9311569 -1.8415524 -1.5466105
00000000: 6966 00c0 0aa3 19c0 ef37 eabf 7ebc d4bf
00000010: 8858 2ac0 737e 94bf 3cc0 acbf 785f 21c0
00000020: 4416 1dc0 0966 17c0 af52 3cc0 49a9 28c0
00000030: 570d cfbf 511a d3bf 4d92 0ec0 8260 13c0
00000040: 0338 0ac0 28da 23c0 5f59 83bf f8b4 8dbf
00000050: a93a 84bf 3d1d c4bf c1d3 f8bf 070e 23c0
00000060: 6fd9 15c0 12c2 22c0 0c1d e3bf 4f9f fdbf
00000070: 2dae 32bf 05c8 05c0 69b0 1ec0 924b a5bf
00000080: a65d 07c0 625e d8bf 80f2 04c0 525d b5bf
00000090: 2c1a 1e3f 20c1 1fc0 43bf fabf e9f3 34bf
000000a0: af39 bfbf 50d2 d3bf 9061 f8bf 0205 cfbf
000000b0: 6135 01c0 2630 f7bf fdb7 ebbf 55f7 c5bf

cnn.9.running_var f4 [48]
5.739006 3.4544413 4.263059 5.0171223 3.0094588 4.4416533 4.0577426 2.6066287
3.4289787 3.2483978 2.8875504 3.7811565 2.247451 3.2268543 3.9371588 4.067231
3.4152377 4.1813655 2.7753735 3.2925417 3.8647726 4.543425 3.8247266 3.7930655
5.397544 4.5420256 3.3387542 4.827381 3.1464849 3.0834045 4.1108427 4.20595
3.2088883 4.6289725 3.4020414 3.8455508 3.0802493 4.0278707 2.6006956 2.448175
3.745098 3.8874862 3.606105 2.9749312 3.764207 2.5579967 3.715547 2.4780097
00000000: f0a5 b740 9115 5d40 fb6a 8840 448c a040
00000010: f99a 4040 0622 8e40 07d9 8140 01d3 2640
00000020: 6374 5b40 c0e5 4f40 a0cd 3840 78fe 7140
00000030: 3dd6 0f40 c884 4e40 69fa 7b40 c226 8240
00000040: 4193 5a40 bfcd 8540 b89f 3140 01b9 5240
00000050: 6f58 7740 bd63 9140 52c8 7440 96c1 7240
00000060: aeb8 ac40 4658 9140 26ae 5540 e879 9a40
00000070: 0260 4940 8056 4540 068c 8340 2497 8640
00000080: 6d5e 4d40 8b20 9440 0cbb 5940 811d 7640
00000090: ce22 4540 51e4 8040 cc71 2640 e6ae 1c40
000000a0: b0af 6f40 93cc 7840 6dca 6640 4665 3e40
000000b0: c4e8 7040 38b6 2340 86cb 6d40 b697 1e40

cnn.12.weight f4 [64, 48, 3, 3]
0.25222316 -0.097023346 -0.36892104 0.059062123 -0.035539597 0.084301315 -0.09350096 0.28828046
0.2613936 -0.008949366 -0.77334154 -0.3721342 -0.18258236 0.055709857 0.55124724 -0.06910318
-0.016459506 0.38790002 0.02839496 0.0141201895 0.14203714 0.18116845 -0.04711658 0.051858455
0.26367736 -0.041556083 -0.07623897 -0.034196515 -0.07127297 0.018378284 -0.12128045 0.10990926
-0.13052809 -0.13735566 -0.07658038 -0.14261648 -0.23436984 -0.010822054 0.23048864 0.1398514
0.008537318 0.026105758 0.07753404 -0.06746056 -0.17040569 0.1888942 -0.063568704 -0.27653176
0.09490494 0.1370532 0.19425294 0.09566631 -0.02161524 -0.19102906 -0.11021169 -0.24356592
0.052813813 0.37403312 0.22288299 0.118921116 0.122369565 0.0832174 -0.1435486 0.31196225
-0.19116703 -0.63105196 0.023246208 0.17320098 0.32523054 0.11010698 0.06256791 0.09787765
-0.035097513 0.13405435 0.15685816 -0.13975723 -0.33350483 -0.13150147 -0.11775764 -0.1515406
0.0897022 0.08083035 -0.40998915 -0.2038345 0.14142095 0.054866463 0.2910677 0.045974035
0.021747412 0.29397652 -0.17450424 -0.30091932 0.082847945 0.09651079 0.0008701908 -0.05132722
-0.00409546 0.10622514 0.31674498 0.016754879 -0.05417857 -0.004395144 0.01504231 0.07903698
-0.2760027 0.062180135 -0.06797151 -0.13298829 -0.19675833 0.011580454 -0.59922993 -0.27970067
0.04626104 0.035228245 0.25582024 0.22663099 0.40273222 -0.08958809 0.054369535 0.0012958273
-0.2501111 -0.22363378 0.2575517 -0.2763368 0.08898071 0.2954892 -0.01282745 -0.08094312
-0.036605395 -0.094276264 0.08448402 0.060224958 -0.15915638 -0.059862945 -0.10256135 -0.21777634
0.15014385 0.03950257 -0.17081389 0.16301103 0.19480795 -0.1277874 -0.041681234 0.122428514
0.09180141 0.16890773 0.011641338 -0.043902654 0.060039848 -0.22315218 -0.18159273 0.17373714
0.020946048 -0.22218975 0.026867488 0.07000955 0.044006355 0.3020841 0.046743874 -0.024666555
0.011942725 -0.2532607 -0.15258154 -0.07547955 -0.37195793 -0.053586625 -0.40539524 -0.21113287
-0.009902183 -0.042485513 -0.11007374 0.031315982 0.08719932 -0.0098247975 -0.048850972 -0.14887679
-0.047571555 -0.0615255 -0.08819746 0.15517716 -0.09053919 -0.366001 -0.041480094 -0.019261928
0.103877306 0.16846257 -0.15471919 -0.12535854 -0.040833022 0.0037236 -0.13974419 -0.13337106
0.03873579 0.06469758 0.015582404 -0.018998072 -0.0393664 0.19464523 0.29560435 0.32131338
0.4944681 0.17430522 0.011936034 -0.18346626 -0.2925694 -0.4528393 -0.4279892 0.28942662
0.21200867 -0.015726358 0.063930586 0.21540153 -0.105096735 0.07382389 -0.013231894 -0.062330954
-0.018608812 0.18502282 0.51095015 -0.2922568 -0.10898001 -0.059452668 -0.23230088 -0.03448244
0.05918074 -0.18919866 -0.017297158 -0.10011669 0.16641337 -0.16737391 -0.124929205 0.061014257
0.23121436 0.16779126 0.088385224 -0.17037499 0.17645273 0.26558393 -0.16297626 -0.20040555
0.18609178 0.014982684 -0.027144391 0.16932441 0.18319938 0.15024805 -0.18787342 -0.21439539
0.057987846 0.04541987 0.21666183 0.13302636 0.06378315 0.024238827 0.09818101 0.011939412
00000000: 6523 813e 2db4 c6bd 38e3 bcbe 20eb 713d
00000010: f891 11bd 2ba6 ac3d 6e7d bfbd 7f99 933e
00000020: 62d5 853e 5da0 12bc b6f9 45bf 6088 bebe
00000030: dff6 3abe 0530 643d 8a1e 0d3f f885 8dbd
00000040: 16d6 86bc d59a c63e 8c9c e83c 5e58 673c
00000050: 2f72 113e 3984 393e 51fd 40bd 8869 543d
00000060: b800 873e b636 2abd 2d23 9cbd a511 0cbd
00000070: 90f7 91bd 0e8e 963c e261 f8bd 1b18 e13d
00000080: 28a9 05be f6a6 0cbe 2dd6 9cbd 0e0a 12be
00000090: a6fe 6fbe fc4e 31bc 3705 6c3e 3535 0f3e
000000a0: 1be0 0b3c bedb d53c 2bca 9e3d c328 8abd
000000b0: d47e 2ebe 7b6d 413e 4f30 82bd 9295 8dbe
000000c0: 855d c23d ad57 0c3e 3eea 463e b3ec c33d
000000d0: 7212 b1bc 1f9d 43be abb6 e1bd 5869 79be
000000e0: 4c53 583d 4581 bf3e 703b 643e ea8c f33d
000000f0: e59c fa3d e26d aa3d 67fe 12be 84b9 9f3e
00000100: 4ac1 43be 9f8c 21bf d56e be3c 995b 313e
00000110: 9e84 a63e c57f e13d 9b23 803d 1474 c83d
00000120: 69c2 0fbd 8b45 093e 6d9f 203e 851c 0fbe
00000130: 25c1 aabe 52a8 06be eb2a f1bd 762d 1bbe
00000140: c9b5 b73d 628a a53d 19ea d1be feb9 50be
00000150: a7d0 103e a8bb 603d d306 953e 454f 3c3d
00000160: a127 b23c 1784 963e 3db1 32be 1912 9abe
00000170: 2fac a93d 73a7 c53d 841d 643a 7e3c 52bd
00000180: 3533 86bb 918c d93d 662c a23e 8741 893c
00000190: 59ea 5dbd 2405 90bb 0574 763c 24de a13d
000001a0: 3a50 8dbe 99b0 7e3d a634 8bbd 152e 08be
000001b0: 047b 49be f2bb 3d3c 2267 19bf ed34 8fbe
000001c0: 377c 3d3d 7e4b 103d dffa 823e f411 683e
000001d0: eb32 ce3e f679 b7bd 97b2 5e3d c0d8 a93a
000001e0: 900e 80be 4100 65be d1dd 833e 047c 8dbe
000001f0: 853b b63d 5c4a 973e 3a2a 52bc 82c5 a5bd
00000200: 8aef 15bd ea13 c1bd f505 ad3d 72ae 763d
00000210: e4f9 22be d932 75bd af0b d2bd c300 5fbe
00000220: 4fbf 193e 72cd 213d d6e9 2ebe 5dec 263e
00000230: bc7b 473e b3da 02be f1b9 2abd cdbb fa3d
00000240: 6102 bc3d 26f6 2c3e 4fbb 3e3c 45d3 33bd
00000250: 58ec 753d 0182 64be 72f3 39be 26e8 313e
00000260: 0c97 ab3c b685 63be 3519 dc3c 2b61 8f3d
00000270: 0240 343d c4aa 9a3e 8176 3f3d 8411 cabc
00000280: 6bab 433c 63ab 81be 563e 1cbe 0695 9abd
00000290: 4571 bebe a67d 5bbd f78f cfbe 3733 58be
000002a0: c43c 22bc 4a05 2ebd 576e e1bd 3045 003d
000002b0: 8f95 b23d 30f8 20bc f517 48bd 2873 18be
000002c0: 64da 42bd 2a02 7cbd dfa0 b4bd c3e6 1e3e
000002d0: 9c6c b9bd 7c64 bbbe 08e7 29bd 31cb 9dbc
000002e0: a0bd d43d 7481 2c3e b56e 1ebe fd5d 00be
000002f0: 8740 27bd a407 743b 1a19 0fbe 6c92 08be
00000300: 6ba9 1e3d 2a80 843d 574d 7f3c d8a1 9bbc
00000310: aa3e 21bd 1451 473e 7459 973e 3083 a43e
00000320: ec2a fd3e 117d 323e 5b8f 433c 94de 3bbe
00000330: a8cb 95be 8dda e7be 6721 dbbe ba2f 943e
00000340: cd18 593e 90d4 80bc 0aee 823d 3892 5c3e
00000350: f53c d7bd fb30 973d 96ca 58bc be4e 7fbd
00000360: 8271 98bc 9f76 3d3e a1cd 023f afa2 95be
00000370: e930 dfbd a484 73bd 48e0 6dbe 763d 0dbd
00000380: 8167 723d 4bbd 41be c5b2 8dbc fb09 cdbd
00000390: 4468 2a3e 1164 2bbe e2da ffbd 16ea 793d
000003a0: 75c3 6c3e 79d1 2b3e 5003 b53d c876 2ebe
000003b0: 06b0 343e 9efa 873e 40e3 26be 1d37 4dbe
000003c0: d88e 3e3e ee79 753c ea5d debc 6163 2d3e
000003d0: 9e98 3b3e a0da 193e e461 40be 778a 5bbe
000003e0: aa84 6d3d 300a 3a3d 99dc 5d3e 1038 083e
000003f0: bda0 823d 8190 c63c 2013 c93d 869d 433c

cnn.12.bias f4 [64]
0.06354806 -0.033918183 0.027724698 0.029816782 -0.20389977 0.07747711 0.015359435 -0.021301145
-0.05866155 0.09622662 0.061664898 0.13608094 0.033290867 -0.07131459 -0.013459952 0.10931259
-0.102515705 -0.06413138 -0.03164882 0.13002431 0.08236195 -0.006413766 0.120981485 0.019862324
0.0041734646 0.039992098 0.0467721 0.10074685 0.05521641 -0.009245244 -0.04673727 0.086538136
-0.027004646 -0.043425407 -0.0420326 0.0678957 0.050700806 -0.059013072 0.05021751 0.0008113197
0.105473205 -0.020648878 -0.0014153117 0.034874342 0.012362358 0.040668946 0.10520835 -0.14914061
-0.010188539 -0.003176457 -0.0773122 -0.015570536 -0.006211228 -0.010246053 -0.019213168 -0.016567761
0.026020313 0.12471282 0.032425787 0.043080572 0.0051421467 -0.16780557 0.012895794 -0.04095031
00000000: 7c25 823d cbed 0abd e81e e33c 5342 f43c
00000010: 1acb 50be 52ac 9e3d 24a6 7b3c bd7f aebc
00000020: 1847 70bd 7612 c53d 5594 7c3d cd58 0b3e
00000030: 015c 083d 620d 92bd 2187 5cbc 47df df3d
00000040: c1f3 d1bd 5057 83bd 31a2 01bd 1825 053e
00000050: 62ad a83d 922a d2bb 24c5 f73d 50b6 a23c
00000060: 8fc1 883b c1ce 233d 1a94 3f3d 5d54 ce3d
00000070: 9a2a 623d 5d79 17bc 946f 3fbd e83a b13d
00000080: d938 ddbc d7de 31bd 602a 2cbd e70c 8b3d
00000090: a6ab 4f3d b1b7 71bd e0b0 4d3d beae 543a
000000a0: 5602 d83d d627 a9bc fb81 b9ba 66d8 0e3d
000000b0: 7d8b 4a3c 7b94 263d 7a77 d73d 51b8 18be
000000c0: d4ed 26bc 1b2c 50bb dc55 9ebd 901b 7fbc
000000d0: 8f87 cbbb 10df 27bc ef64 9dbc 1db9 87bc
000000e0: 8d28 d53c 6f69 ff3d e7d0 043d 4175 303d
000000f0: 747f a83b 39d5 2bbe e148 533c 83bb 27bd

cnn.13.weight f4 [64]
0.7113512 0.9147263 0.86871004 0.8389236 0.6849446 0.68812364 0.6776774 0.69227576
0.671364 0.7384011 0.8579542 0.72558135 0.715673 0.80299675 0.90063083 0.6587651
0.66811067 0.6811701 0.7859637 0.83615404 0.787997 0.8231711 0.7723547 0.7548253
0.6913515 1.0044605 0.69592804 0.71493423 0.788247 0.76635075 0.90335494 0.7439153
0.6848673 0.72361904 0.7296682 0.67043453 0.7496107 0.8128254 0.72469634 0.71984416
0.8746947 0.68228 0.6874452 0.6631595 0.8654605 0.7611706 0.8587682 0.7399337
0.7867084 0.6813488 0.75967854 0.8358301 0.7005683 0.7184213 0.77250075 0.9001753
0.8193552 0.76060736 0.93520355 0.7902725 0.7940059 0.73587495 0.7291713 0.82922965
00000000: 1d1b 363f 812b 6a3f c863 5e3f b2c3 563f
00000010: 8858 2f3f df28 303f 447c 2d3f fc38 313f
00000020: 83de 2b3f db07 3d3f e3a2 5b3f b3bf 393f
00000030: 5936 373f 3291 4d3f be8f 663f d4a4 283f
00000040: 4d09 2b3f 2a61 2e3f eb34 493f 310e 563f
00000050: 2cba 493f 57bb 523f 0ab9 453f 3b3c 413f
00000060: 69fc 303f 2992 803f 5728 323f ee05 373f
00000070: 8eca 493f 902f 443f 4542 673f 3c71 3e3f
00000080: 7753 2f3f 193f 393f 89cb 3a3f 99a1 2b3f
00000090: 7de6 3f3f 5315 503f b385 393f b547 383f
000000a0: feeb 5f3f e7a9 2e3f 69fc 2f3f d2c4 293f
000000b0: d28e 5d3f 14dc 423f 3cd8 5b3f 4c6c 3d3f
000000c0: b965 493f e06c 2e3f 4b7a 423f f6f8 553f
000000d0: 7258 333f 75ea 373f 9cc2 453f e371 663f
000000e0: 43c1 513f 2ab7 423f 8069 6f3f 4c4f 4a3f
000000f0: f843 4b3f 4d62 3c3f f8aa 3a3f 6548 543f

cnn.13.bias f4 [64]
-0.31747547 -0.61245966 -0.39634442 -0.48054296 -0.31815577 -0.5025643 -0.46492067 -0.36825803
-0.32896566 -0.3924183 -0.47724938 -0.41697082 -0.38051695 -0.4459599 -0.32236928 -0.39387518
-0.37806797 -0.3925524 -0.4612415 -0.2549211 -0.35196802 -0.23545945 -0.31295782 -0.20784293
-0.31911954 -0.43121096 -0.22604324 -0.28318772 -0.27529183 -0.3260172 -0.49320623 -0.4300682
-0.31311363 -0.42707044 -0.3338777 -0.26504624 -0.4437133 -0.32810912 -0.22605863 -0.34796458
-0.43765965 -0.3995495 -0.40910628 -0.2690659 -0.46314555 -0.37768278 -0.21138261 -0.2502502
-0.42298892 -0.44536328 -0.4459203 -0.34251332 -0.28794578 -0.49325946 -0.41806278 -0.18900605
-0.50078154 -0.50611264 -0.42942595 -0.25371882 -0.29082847 -0.57336605 -0.34994647 -0.64000237
00000000: 258c a2be 28ca 1cbf a8ed cabe ba09 f6be
00000010: 50e5 a2be 0ea8 00bf 150a eebe 518c bcbe
00000020: 306e a8be 0deb c8be 085a f4be 337d d5be
00000030: 1ed3 c2be db54 e4be 960d a5be 02aa c9be
00000040: 2092 c1be a1fc c8be d927 ecbe 0585 82be
00000050: 2735 b4be 481c 71be 023c a0be c7d4 54be
00000060: a363 a3be afc7 dcbe e177 67be fbfd 90be
00000070: 0df3 8cbe baeb a6be 8785 fcbe e631 dcbe
00000080: 6e50 a0be faa8 dabe 05f2 aabe 24b4 87be
00000090: 642e e3be ebfd a7be ea7b 67be 6a28 b2be
000000a0: ed14 e0be c191 ccbe 6176 d1be 01c3 89be
000000b0: 6a21 edbe a35f c1be af74 58be cb20 80be
000000c0: 0192 d8be a806 e4be aa4f e4be e85d afbe
000000d0: a16d 93be 818c fcbe 530c d6be cd8a 41be
000000e0: 3833 00bf 9990 01bf b8dd dbbe 6fe7 81be
000000f0: 78e7 94be 1ec8 12bf 2f2c b3be 32d7 23bf

cnn.13.running_mean f4 [64]
-0.93120337 -2.000318 -1.1681858 -1.3461683 -1.5680636 -1.16632 -1.3918598 -2.066043
-1.7190053 -1.0484657 -1.3676335 -0.93028283 -1.640951 -1.4203596 -1.5907984 -1.373867
-1.8239131 -1.6251353 -1.5545497 -1.7401469 -1.835438 -1.2324739 -1.7902347 -1.3828254
-1.7458136 -1.7057958 -1.6034986 -1.5942765 -1.6558293 -1.8554268 -1.9882578 -2.17428
-1.4494028 -1.056066 -2.1388927 -1.1502336 -1.5668226 -2.0731955 -1.4566528 -1.1323595
-2.9666028 -1.4727039 -1.5361934 -1.4527564 -1.4336134 -0.9352251 -2.3752365 -2.179384
-1.6216928 -1.142367 -1.1359282 -1.7585104 -2.9290323 -1.0062288 -1.5210888 -1.667475
-2.0258722 -1.473824 -1.6848493 -2.1940389 -1.9968059 -1.7834641 -0.87642497 -2.083119
00000000: 5863 6ebf 3605 00c0 1d87 95bf 3e4f acbf
00000010: 4fb6 c8bf f949 95bf 7628 b2bf 0c3a 04c0
00000020: 5e08 dcbf 2034 86bf 9d0e afbf 0427 6ebf
00000030: af0a d2bf 58ce b5bf 489f cbbf e0da afbf
00000040: fc75 e9bf 6f04 d0bf 7cfb c6bf 22bd debf
00000050: a2ef eabf b4c1 9dbf 6926 e5bf 6c00 b1bf
00000060: d276 dfbf 8457 dabf 713f cdbf 4111 ccbf
00000070: 37f2 d3bf a07e edbf 3b7f febf 6727 0bc0
00000080: 0886 b9bf 2c2d 87bf 9ee3 08c0 db3a 93bf
00000090: a58d c8bf 3caf 04c0 9973 babf 28f1 90bf
000000a0: d2dc 3dc0 9081 bcbf fca1 c4bf ecf3 b9bf
000000b0: a580 b7bf ea6a 6fbf e003 18c0 077b 0bc0
000000c0: a193 cfbf 1539 92bf 1866 91bf de16 e1bf
000000d0: 4475 3bc0 1bcc 80bf 0ab3 c2bf d26f d5bf
000000e0: e4a7 01c0 44a6 bcbf 24a9 d7bf 226b 0cc0
000000f0: 5697 ffbf 8d48 e4bf 635d 60bf d251 05c0

cnn.13.running_var f4 [64]
2.8081899 2.6935132 2.713621 2.5795429 2.7290957 2.2939172 2.0715902 2.4155214
2.805152 2.6017694 2.6648858 1.6136041 1.8582363 2.937966 4.7181406 2.036639
1.9311881 2.5511682 2.4916046 4.3332477 2.8985188 2.9393492 3.723855 2.6044204
3.2165892 3.6880274 2.591559 2.7310398 3.3761232 3.0534785 2.9739487 2.6393428
2.7352045 2.4013991 3.6295736 2.885543 2.2942955 4.760823 3.5221226 1.8146932
4.4554944 2.4944303 2.2475975 3.1391084 2.9576585 2.250659 2.9170525 4.095702
2.9139202 1.9620259 2.1444376 2.5518513 3.1398084 1.7588049 2.2984397 4.9554543
3.0233507 2.178895 4.2281427 3.2658153 3.789999 1.8003612 3.1433313 3.1380243
00000000: 62b9 3340 8562 2c40 f7ab 2d40 3b17 2540
00000010: 81a9 2e40 8acf 1240 ef94 0440 e797 1a40
00000020: 9c87 3340 6483 2640 7d8d 2a40 948a ce3f
00000030: b0da ed3f a307 3c40 02fb 9640 4b58 0240
00000040: 2c31 f73f 5746 2340 7376 1f40 f7a9 8a40
00000050: 5581 3940 4c1e 3c40 a453 6e40 d3ae 2640
00000060: 99dc 4d40 a408 6c40 1adc 2540 5bc9 2e40
00000070: 6712 5840 316c 4340 2d55 3e40 feea 2840
00000080: 970d 2f40 86b0 1940 ef4a 6840 bdac 3840
00000090: bdd5 1240 a958 9840 756a 6140 de47 e83f
000000a0: 6993 8e40 bfa4 1f40 a3d8 0f40 27e7 4840
000000b0: 474a 3d40 cc0a 1040 fdb0 3a40 fe0f 8340
000000c0: ab7d 3a40 aa23 fb3f 773e 0940 8851 2340
000000d0: 9ff2 4840 8520 e13f a319 1340 1593 9e40
000000e0: 947e 4140 0473 0b40 f24c 8740 1e03 5140
000000f0: 588f 7240 3c72 e63f 572c 4940 64d5 4840

cnn.16.weight f4 [64, 64, 1, 1]
0.061950237 0.2948575 0.083093725 0.19654228 0.08820714 -0.026362432 0.08901785 0.056826007
-0.08680308 0.045423668 -0.06509973 0.01300739 0.059276678 0.20702195 0.13917328 -0.14220443
-0.17746426 0.16408405 -0.13476273 0.16277239 0.019220663 0.04167956 0.2279728 0.26678836
0.24222118 -0.062463563 -0.16633378 0.10397362 -0.21622367 -0.04702365 -0.30249184 -0.0877767
-0.24426807 0.22587901 0.20076653 -0.05052569 -0.0007531057 -0.040494148 0.20492966 0.059014726
-0.071508944 0.086234935 -0.05471462 0.23458736 -0.30410567 -0.13207556 -0.056938965 0.14013849
0.19481783 -0.059329335 -0.012156287 -0.29066825 -0.2243192 0.16393746 -0.077667 -0.089137875
-0.009724689 0.23234308 0.15099894 0.0635788 0.39143264 0.07671532 0.16112737 0.29166466
0.055767044 -0.05504701 0.20038697 0.0194217 -0.28060198 0.07785762 0.067241095 0.20043746
-0.18730229 0.18103625 -0.077848524 -0.08018794 0.011543161 -0.29806176 0.25288308 0.035240505
-0.2657331 -0.08771054 0.033130985 0.0732683 -0.0067411796 -0.11313828 0.13127612 0.30037442
-0.086649515 0.11143184 0.10718102 -0.022288168 0.12111953 0.2713499 0.028026901 -0.11240784
-0.0427345 -0.051106896 -0.28484163 0.22231561 0.1305533 -0.23231173 -0.15085727 0.11826725
-0.1058921 0.10608057 0.087485276 -0.12108207 0.09096865 -0.00411343 -0.1788808 -0.08126009
-0.123800464 -0.025705203 0.06864652 -0.25973302 0.29195204 -0.02273349 -0.012441912 -0.18661286
0.29015464 -0.081500836 -0.090727575 0.26110753 -0.14386122 0.14459956 -0.11131405 0.15308687
-0.033540774 -0.034690946 -0.07200751 0.24118796 -0.22481273 0.14402555 0.026292313 0.20796761
-0.048616525 -0.070959754 -0.12340334 -0.1686319 0.274094 -0.022962831 -0.08445686 0.20829831
-0.11916634 -0.012862366 0.14685927 0.11602085 -0.012030714 -0.019511854 -0.29215235 -0.078676775
0.0515991 0.30814502 0.046177156 0.07346482 -0.03676372 0.178746 -0.23074423 -0.006277979
0.19057062 -0.30683124 -0.24865125 -0.062138107 -0.0022563993 -0.35462412 -0.02737952 0.14555795
0.34534752 0.080773346 0.0054677026 -0.31345046 -0.2269744 -0.028489754 0.168369 0.15756999
-0.1966444 -0.10484487 -0.036824074 -0.0365934 0.03418416 0.015504839 -0.0456176 -0.19388436
-0.13652174 -0.04211811 -0.2385504 0.0401803 0.2210068 -0.045099366 -0.035335448 0.2549523
0.07827566 -0.11991276 0.05066422 -0.011704577 -0.22926253 0.18208596 0.11615352 0.106112115
-0.1430284 -0.16874945 -0.038089596 0.0058014044 -0.10036549 0.22189896 0.3409216 0.09094534
-0.12427958 0.15079968 -0.023871405 0.06034559 0.06585033 0.02031639 0.1755617 -0.023178304
0.12035031 0.056530382 0.06989833 -0.11734234 -0.06297736 0.00013023842 0.1931465 0.17932022
0.14539902 -0.13650566 0.06992409 0.0093780495 -0.2729192 0.31058466 0.12384587 -0.10051205
0.014118855 0.10900793 0.040233746 0.17105973 0.05557909 -0.002111307 -0.09186274 -0.22244063
0.24051876 -0.012890702 -0.061870016 -0.16164318 -0.123690054 0.105899684 0.004528008 -0.16706589
-0.00741811 -0.15397856 -0.20146398 0.12296761 -0.008375704 0.05510276 -0.04112663 0.16152689
00000000: 88bf 7d3d 90f7 963e 0b2d aa3d 6142 493e
00000010: f2a5 b43d 07f6 d7bc fe4e b63d 63c2 683d
00000020: d0c5 b1bd 2b0e 3a3d 0253 85bd f31c 553c
00000030: 1acc 723d 90fd 533e 7183 0e3e 0a9e 11be
00000040: 31b9 35be a605 283e 3eff 09be cead 263e
00000050: a774 9d3c 30b8 2a3d b471 693e 7c98 883e
00000060: d408 783e cbd9 7fbd 6753 2abe 1ff0 d43d
00000070: bd69 5dbe df9b 40bd 36e0 9abe 45c4 b3bd
00000080: 6921 7abe d44c 673e be95 4d3e 07f4 4ebd
00000090: 116c 45ba 31dd 25bd 15d9 513e 6db9 713d
000000a0: 4873 92bd f19b b03d 701c 60bd ab37 703e
000000b0: bdb3 9bbe d13e 07be d538 69bd 7780 0f3e
000000c0: 537e 473e 5103 73bd 2a2b 47bc 78d2 94be
000000d0: efb3 65be 39df 273e e00f 9fbd eb8d b6bd
000000e0: 4d54 1fbc 58eb 6d3e 779f 1a3e 9a35 823d
000000f0: dc69 c83e ec1c 9d3d 93fe 243e 1255 953e
00000100: fc6b 643d f978 61bd 3e32 4d3e 421a 9f3c
00000110: 10ab 8fbe d173 9f3d b3b5 893d 7a3f 4d3e
00000120: 2ccc 3fbe 9161 393e 0c6f 9fbd 9339 a4bd
00000130: 871f 3d3c 8d9b 98be e479 813e 5958 103d
00000140: 2b0e 88be 95a1 b3bd 5bb4 073d b10d 963d
00000150: 1de5 dcbb 0bb5 e7bd 3f6d 063e adca 993e
00000160: 4d75 b1bd 6036 e43d b981 db3d ad95 b6bc
00000170: 840d f83d 60ee 8a3e ac98 e53c 1536 e6bd
00000180: 5f0a 2fbd 7755 51bd c3d6 91be b4a6 633e
00000190: c4af 053e 20e3 6dbe 547a 1abe 1a36 f23d
000001a0: f5dd d8bd c540 d93d 7b2b b33d e0f9 f7bd
000001b0: c64d ba3d f4c9 86bb 872c 37be b16b a6bd
000001c0: 198b fdbd b893 d2bc 8c96 8c3d bafb 84be
000001d0: bd7a 953e 963b babc 29d9 4bbc 7117 3fbe
000001e0: 268f 943e e9e9 a6bd 61cf b9bd e3af 853e
000001f0: 5b50 13be e811 143e 9ff8 e3bd cec2 1c3e
00000200: 0d62 09bd 1818 0ebd ac78 93bd faf9 763e
00000210: 4f35 66be 6f7b 133e fa62 d73c 76f5 543e
00000220: 1f22 47bd 5953 91bd e4ba fcbd d7ad 2cbe
00000230: 0c56 8c3e 8c1c bcbc b8f7 acbd 274c 553e
00000240: 7b0d f4bd acbc 52bc 4762 163e 579c ed3d
00000250: 791c 45bc 53d7 9fbc fe94 95be 4a21 a1bd
00000260: 9459 533d 2fc5 9d3e 4224 3d3d b974 963d
00000270: 8e95 16bd 3109 373e 3748 6cbe 81b7 cdbb
00000280: f224 433e fc18 9dbe 6f9e 7ebe 8784 7ebd
00000290: 19e0 13bb 4b91 b5be 044b e0bc 250d 153e
000002a0: 64d1 b03e 7f6c a53d 6a2a b33b 947c a0be
000002b0: fa6b 68be 5863 e9bc ec68 2c3e 075a 213e
000002c0: 265d 49be e8b8 d6bd d7d4 16bd f6e2 15bd
000002d0: b104 0c3d 0208 7e3c 85d9 3abd 9f89 46be
000002e0: 5bcc 0bbe 0a84 2cbd 8e46 74be 1994 243d
000002f0: 9b4f 623e 1dba 38bd e7bb 10bd 1c89 823e
00000300: fd4e a03d d294 f5bd 4985 4f3d 8ec4 3fbc
00000310: ccc3 6abe be74 3a3e e6e1 ed3d 4f51 d93d
00000320: 0976 12be a8cc 2cbe d603 1cbd b519 be3b
00000330: 6c8c cdbd 7b39 633e 478d ae3e 8d41 ba3d
00000340: 4b86 febd 3b6b 1a3e f78d c3bc f02c 773d
00000350: 8adc 863d 8f6e a63c 72c6 333e 6de0 bdbc
00000360: 397a f63d 678c 673d db26 8f3d 2e51 f0bd
00000370: 46fa 80bd 9c90 0839 32c8 453e b89f 373e
00000380: 7be3 143e 24c8 0bbe 5c34 8f3d 64a6 193c
00000390: 11bc 8bbe f404 9f3e e7a2 fd3d 43d9 cdbd
000003a0: c552 673c 8d3f df3d 24cc 243d 482a 2f3e
000003b0: e6a6 633d db5d 0abb 8822 bcbd 7ac7 63be
000003c0: 8d4a 763e 8633 53bc 6a6b 7dbd ca85 25be
000003d0: 3651 fdbd efe1 d83d af5f 943b 5213 2bbe
000003e0: 9e13 f3bb 8eac 1dbe 934c 4ebe 71d6 fb3d
000003f0: 403a 09bc 6fb3 613d 6674 28bd 4e67 253e
