models/model_epoch50.pth (torch, 957119 bytes, 61 tensors)

cnn.0.weight f4 [16, 3, 3, 3]
-0.11648201 0.00054244534 -0.077363715 -0.155053 -0.014360763 0.18907402 -0.022324206 0.20764676
0.010277861 -0.1632898 -0.24459952 0.067639396 -0.24892081 -0.0631745 0.18296756 -0.027718708
0.1926621 0.30751643 -0.2659982 -0.2451673 0.088608935 0.05762356 -0.06253686 0.23436755
-0.09401662 0.05510369 0.22365403 -0.28423792 -0.010052157 0.19853571 -0.07650129 0.08684943
0.045442626 0.14330795 -0.006653863 -0.3297835 -0.3541702 0.19466203 0.19525394 -0.03136842
-0.1742021 -0.06239189 0.193826 -0.08999913 -0.2686256 -0.24449337 0.0570857 0.058421858
-0.11572594 -0.15160896 0.05325902 0.28149006 0.061221227 -0.14223279 0.2137519 -0.0442115
-0.117558405 -0.07653711 0.032065082 -0.08886836 0.11119326 0.18497853 -0.2084416 0.15766543
0.083082534 -0.38523647 0.08694896 0.105224594 -0.069053315 0.3117935 -0.0351472 -0.28400517
0.06735278 0.083402745 -0.17562816 0.18946695 0.10860607 -0.27430123 0.159875 0.06028481
-0.23836866 0.15645023 0.28138345 -0.21732637 0.08542298 0.07951914 -0.10069566 -0.11956628
0.03822843 -0.21781293 0.11326325 0.23998855 0.015180247 0.23257796 -0.025938677 -0.22861241
0.08067266 -0.039128933 -0.36894155 -0.03237619 0.2860799 -0.0147015955 0.14111096 0.14417723
-0.24175958 0.082381904 -0.12296754 -0.2404107 0.0838104 0.00025195663 -0.07831416 0.16916507
-0.22518422 0.16478866 0.13577911 -0.3156587 0.056925323 0.17355512 -0.026294764 0.0034825217
0.23849794 -0.08745662 -0.08242179 0.14411283 -0.36789104 0.0138539225 0.25604743 -0.10936944
-0.07934569 0.09223618 -0.15442306 -0.00089333183 -0.0022336878 -0.20822768 0.18340245 0.022860585
-0.008082829 -0.063808076 0.144393 0.17485185 0.12480613 -0.024685154 0.14626633 -0.10200391
-0.22590119 -0.10752529 -0.004533597 0.047196053 0.03919307 -0.2733288 -0.5127336 -0.076859176
-0.1221063 0.18069835 0.24349013 -0.13641441 0.11436766 -0.061775144 -0.12735547 -0.38526377
-0.0007103976 -0.11326592 -0.14156625 -0.03291093 0.11196254 0.009333273 -0.05532244 0.06111829
-0.24876931 0.016549714 0.27862105 -0.28905743 0.20225695 0.20619734 -0.32900047 0.12593423
0.038578346 -0.26980168 0.21509914 0.0917827 -0.20074113 -0.03491842 0.21225995 -0.12408325
0.07251759 0.079194605 -0.18527979 0.061113797 0.10284357 0.15712874 0.1328434 0.18649052
-0.2284528 -0.12700634 -0.25712362 0.08056469 -0.023462707 0.08441389 0.062261816 0.1800284
0.29739073 -0.0392783 -0.27408004 -0.21040395 -0.08307095 0.11852454 -0.100398116 0.19818066
0.12135335 0.14461434 -0.21691184 -0.1994949 -0.1357407 0.021838497 0.056236815 0.011080343
-0.017432768 -0.09511121 0.1101438 -0.23491621 -0.013256012 0.23776202 0.0022978717 0.0845324
-0.043947335 0.06716304 -0.2316983 -0.16615164 -0.3287285 -0.07299114 0.06031097 -0.027667273
0.11943928 0.3671063 0.24944018 -0.11973028 -0.022392685 -0.3312555 -0.13321948 0.049207907
-0.0860393 0.21880153 0.07351809 0.08001248 0.14482312 -0.17237152 0.10072786 -0.2940489
0.0013035475 -0.076738246 -0.047436867 0.24489023 0.34224978 0.012598507 -0.18949586 -0.06559291
00000000: 1f8e eebd e432 0e3a de70 9ebd 37c6 1ebe
00000010: 6849 6bbc 9f9c 413e 41e1 b6bc 5aa1 543e
00000020: 7964 283c 7135 27be 4c78 7abe 8686 8a3d
00000030: 19e5 7ebe a261 81bd d95b 3b3e 5812 e3bc
00000040: 3749 453e cb72 9d3e eb30 88be 230d 7bbe
00000050: 9a78 b53d af06 6c3d 5313 80bd 0cfe 6f3e
00000060: c98b c0bd 68b4 613d 9005 653e a287 91be
00000070: cdb1 24bc f24c 4b3e b5ac 9cbd 1dde b13d
00000080: 0c22 3a3d 52bf 123e a608 dabb 62d9 a8be
00000090: cc55 b5be 7c55 473e a6f0 473e 2c7c 00bd
000000a0: 0962 32be a38e 7fbd 537a 463e 7751 b8bd
000000b0: 4b89 89be 785c 7abe b2d2 693d c24b 6f3d
000000c0: b901 edbd 613f 1bbe 2126 5a3d 771f 903e
000000d0: 1cc3 7a3d 79a5 11be c7e1 5a3e 1e17 35bd
000000e0: 76c2 f0bd 7dbf 9cbd ad56 033d 9d00 b6bd
000000f0: 4bb9 e33d 036b 3d3e b771 55be 0c73 213e
00000100: 2d27 aa3d b73d c5be 4c12 b23d fe7f d73d
00000110: d36b 8dbd 66a3 9f3e 83f6 0fbd 2069 91be
00000120: 41f0 893d 0fcf aa3d ded7 33be a003 423e
00000130: dc6c de3d 3671 8cbe 46b6 233e 34ed 763d
00000140: ea16 74be 7d34 203e 7e11 903e ce8a 5ebe
00000150: 3ef2 ae3d eeda a23d 8739 cebd 2adf f4bd
00000160: 6a95 1c3d 5a0a 5fbe 90f6 e73d 8fbf 753e
00000170: 92b6 783c eb28 6e3e 597d d4bc 5f19 6abe
00000180: b537 a53d a945 20bd e8e5 bcbe e59c 04bd
00000190: 1179 923e f6de 70bc 647f 103e 32a3 133e
000001a0: d38f 77be d8b7 a83d 68d6 fbbd 392e 76be
000001b0: c9a4 ab3d 0c19 8439 2d63 a0bd 9c39 2d3e
000001c0: b196 66be 5cbe 283e ae09 0b3e 049e a1be
000001d0: 872a 693d 6fb8 313e 1e68 d7bc 053b 643b
000001e0: ce38 743e 751c b3bd c1cc a8bd 5092 133e
000001f0: 375c bcbe 90fb 623c a618 833e 16fd dfbd
00000200: fe7f a2bd 53e6 bc3d 1421 1ebe 7c2e 6aba
00000210: 1063 12bb a339 55be dacd 3b3e 1f46 bb3c
00000220: d86d 04bc cfad 82bd c2db 133e 5d0c 333e
00000230: 5b9a ff3d 8538 cabc d7c6 153e 6de7 d0bd
00000240: a452 67be 3836 dcbd 918e 94bb a650 413d
00000250: ea88 203d c1f1 8bbe 8242 03bf 5868 9dbd
00000260: de12 fabd fd08 393e 7a55 793e 38b0 0bbe
00000270: 9739 ea3d ef07 7dbd 7969 02be 4b41 c5be
00000280: fa39 3aba f6f7 e7bd bef6 10be 9dcd 06bd
00000290: 9e4c e53d 96ea 183c c899 62bd 2c57 7a3d
000002a0: 62bd 7ebe 4493 873c 6ba7 8e3e 56ff 93be
000002b0: 721c 4f3e 6525 533e c072 a8be e7f4 003e
000002c0: 5404 1e3d 7223 8abe f342 5c3e 91f8 bb3d
000002d0: 158f 4dbe 9e06 0fbd ac5a 593e 5c1f febd
000002e0: 1a84 943d c830 a23d fcb9 3dbe 7652 7a3d
000002f0: a69f d23d 5be6 203e 1a08 083e 5ff7 3e3e
00000300: 88ef 69be f30d 02be b5a5 83be 1aff a43d
00000310: dd34 c0bc 31e1 ac3d 3f06 7f3d 5d59 383e
00000320: 9943 983e 48e2 20bd 3854 8cbe 2274 57be
00000330: 1a21 aabd febc f23d 879d cdbd dfef 4a3e
00000340: 1b88 f83d c815 143e 231e 5ebe 6448 4cbe
00000350: 9cff 0abe a6e6 b23c 9358 663d 548a 353c
00000360: 2acf 8ebc abc9 c2bd 1393 e13d e08d 70be
00000370: bf2f 59bc e377 733e e497 163b 531f ad3d
00000380: 1f02 34bd c78c 893d 5242 6dbe a823 2abe
00000390: 1a4f a8be 617c 95bd a308 773d 7aa6 e2bc
000003a0: 959c f43d 5bf5 bb3e 3f6d 7f3e 2635 f5bd
000003b0: dd70 b7bc 529a a9be b06a 08be 3b8e 493d
000003c0: 5f35 b0bd 820d 603e a790 963d 95dd a33d
000003d0: 834c 143e 2982 30be 694a ce3d 948d 96be
000003e0: ccdb aa3a f128 9dbd 294d 42bd 81c4 7a3e
000003f0: 5d3b af3e f869 4e3c 340b 42be 9355 86bd

cnn.0.bias f4 [16]
0.04196406 0.013061171 -0.20212741 -0.027478334 0.22376311 0.11525607 0.14170009 -0.03834285
-0.27429694 -0.32663196 -0.034268804 -0.19202428 -0.29117802 0.15432113 -0.031379268 -0.14497998
00000000: 82e2 2b3d 86fe 553c 7dfa 4ebe 3e1a e1bc
00000010: 2822 653e 600b ec3d d419 113e 640d 1dbd
00000020: a670 8cbe 4e3c a7be 725d 0cbd 03a2 44be
00000030: 4915 95be 5c06 1e3e 8c87 00bd a275 14be

cnn.1.weight f4 [16]
1.1574745 0.64167434 1.0952371 1.0060852 0.64938635 0.5207911 1.0661182 1.0885422
0.5338386 0.64062744 1.2852038 0.96316504 1.0909035 0.6947925 0.8612133 1.0461372
00000000: 2028 943f c544 243f bb30 8c3f 66c7 803f
00000010: 2f3e 263f 9152 053f 9076 883f 5a55 8b3f
00000020: a6a9 083f 2900 243f 8f81 a43f fc91 763f
00000030: baa2 8b3f ecdd 313f 7a78 5c3f d3e7 853f

cnn.1.bias f4 [16]
-0.13598797 -0.40917006 -0.04516598 -0.013185436 -0.06815742 0.14967531 -0.034644935 0.028351394
0.6349335 0.24547204 -0.12981303 -0.025311816 -0.06304575 0.7052635 0.94015604 -0.039484426
00000000: 6e40 0bbe bd7e d1be f6ff 38bd ba07 58bc
00000010: 1e96 8bbd 7c44 193e d9e7 0dbd 2f41 e83c
00000020: 008b 223f 065d 7b3e b5ed 04be ba5a cfbc
00000030: 211e 81bd 268c 343f 11ae 703f 6cba 21bd

cnn.1.running_mean f4 [16]
0.025151808 0.06956116 -0.1998842 -0.024839642 0.23466924 0.16838562 0.1331112 -0.017051574
-0.2612847 -0.30865607 -0.056204334 -0.18708163 -0.28767538 0.17868091 -0.07348264 -0.13533907
00000000: 2a0b ce3c 1576 8e3d 72ae 4cbe 817c cbbc
00000010: 224d 703e 486d 2c3e 4d4e 083e beaf 8bbc
00000020: 1cc7 85be 2b08 9ebe 8436 66bd 5492 3fbe
00000030: 304a 93be 21f8 363e 117e 96bd 5396 0abe

cnn.1.running_var f4 [16]
0.17617969 0.16416039 0.15555269 0.1716209 0.05454687 0.34636977 0.15310451 0.114713
0.09055295 0.040723838 0.23242074 0.12590802 0.09350088 0.076427236 0.13275032 0.15492377
00000000: 7368 343e a919 283e 3449 1f3e 64bd 2f3e
00000010: 8a6c 5f3d 6157 b13e 6ec7 1c3e a6ee ea3d
00000020: d373 b93d 0ace 263d b4ff 6d3e 08ee 003e
00000030: 647d bf3d e285 9c3d b3ef 073e 56a4 1e3e

cnn.4.weight f4 [32, 16, 3, 3]
-0.10533186 0.0362715 -0.035076756 -0.12665853 0.011600371 0.032597132 -0.08881201 -0.0039351485
0.00020326907 0.11539979 -0.20626605 0.094944134 0.114717655 -0.11208204 0.06455712 0.074657574
0.024678973 0.097582 0.089782596 0.021463268 0.03521364 -0.052841187 0.033209108 0.16516948
0.039781854 0.0593552 0.0676308 -0.074629836 -0.009688051 -0.06933473 -0.12502985 -0.08797494
-0.055296056 -0.061179664 -0.17778617 -0.060068823 -0.019112231 0.0028437765 -0.06758767 0.007850458
0.016242325 0.05619609 0.017614078 -0.06985682 0.07839637 -0.078398295 -0.08714281 0.004661764
0.0109075345 -0.09183623 0.08447329 0.28435186 0.0006346784 0.027585685 0.06603276 0.16550441
0.13225561 -0.06858093 0.052082755 0.09723894 -0.056521874 0.05102354 0.042276982 0.0050062565
-0.120814584 0.0045303106 0.019705154 -0.56954634 0.040044673 -0.30824184 -0.4549806 -0.056666307
0.12340585 -0.06461165 -0.040543225 -0.03078175 -0.20503758 -0.045523066 0.09476439 -0.15743802
0.032393284 -0.065523215 -0.034642525 -0.059049796 -0.13053651 -0.18669815 -0.020258037 0.09308247
-0.19305979 -0.024233153 -0.09003576 -0.1179211 0.026405709 -0.20524523 -0.81395566 -0.001830638
-0.09338033 -0.6188257 0.07318157 0.093726695 -0.093511924 0.14207022 0.058126464 -0.12012461
0.095284544 -0.06348842 0.027428532 0.10036228 -0.14934193 -0.28003117 0.12952785 -0.1256493
-0.7455591 -0.010407632 -0.005017849 -0.3310996 -0.07473271 0.14962114 0.02673185 0.060969587
0.010493126 0.16732799 0.19112659 -0.044241037 0.11951732 0.08463864 -0.055389468 0.12456647
0.101281166 -0.14630622 0.17874977 0.10144848 -0.043226626 0.119184405 0.060979296 0.12799305
0.083888285 0.149407 0.08652233 0.046168894 0.09611666 0.012904288 0.014916919 0.06989015
-0.10527719 0.24285926 0.11387983 0.021262636 0.20766866 0.1068655 0.06535643 -0.09945101
-0.07856587 0.14500691 -0.27065474 -0.1404185 0.086816594 -0.32161856 0.05591872 -0.04960243
-0.15231092 0.2098905 0.09962908 -0.28380343 0.0074483 -0.043203957 -0.03551281 0.054739367
0.03154868 0.066157885 -0.0032986603 -0.13105212 -0.0021566679 0.29446366 -0.1643986 0.26701152
0.07311129 -0.08493003 0.25012174 -0.054988828 -0.15764567 0.048670497 0.20039478 0.024574818
0.15563574 0.081967875 0.07260699 0.15430415 -0.07958638 0.081854165 -0.0055163167 -0.09452261
-0.112790704 -0.23352921 0.09273793 -0.044126317 -0.013227367 0.28768364 0.07388366 0.22335896
0.089811385 0.031541843 0.035923425 -0.22431134 0.003317483 -0.16835395 -0.031006783 0.07564574
-0.14944182 -0.023321267 -0.00066410017 -0.015473464 0.051458873 -0.024242617 0.08369628 -0.1614755
-0.080285676 0.28500533 -0.108494505 0.056333862 0.004852111 -0.06519913 0.044584926 -0.16884384
0.13753718 -0.09949041 0.19572428 0.12455408 0.081452064 -0.09780261 0.10981408 0.008460818
-0.029166702 -0.11052274 -0.022482403 0.14227264 -0.19540218 0.10173291 -0.0055602207 -0.3142888
0.05126195 -0.36779758 -0.08738511 0.09451959 -0.17953081 -0.15271838 0.0077931997 -0.5010805
-0.08677048 -0.024313964 -0.006761015 0.14226754 -0.055937685 -0.17556648 0.07076765 -0.044389926
00000000: 3bb8 d7bd 6d91 143d a5ac 0fbd c6b2 01be
00000010: 7c0f 3e3c 9284 053d 12e3 b5bd 6bf2 80bb
00000020: a024 5539 ba56 ec3d 6837 53be 1272 c23d
00000030: 17f1 ea3d 458b e5bd 8636 843d 12e6 983d
00000040: 8f2b ca3c 12d9 c73d f0df b73d bcd3 af3c
00000050: 2e3c 103d 0070 58bd 4606 083d 3022 293e
00000060: 4cf2 223d 701e 733d 0482 8a3d 87d7 98bd
00000070: a2ba 1ebc 5eff 8dbd d307 00be 352c b4bd
00000080: 1e7e 62bd 8797 7abd 940d 36be ba0a 76bd
00000090: 4191 9cbc a75e 3a3b 686b 8abd 359f 003c
000000a0: a00e 853c df2d 663d 664b 903c 1811 8fbd
000000b0: 478e a03d 498f a0bd ee77 b2bd b6c1 983b
000000c0: 84b5 323c a214 bcbd 5500 ad3d 9196 913e
000000d0: 8c60 263a 60fb e13c 2f3c 873d fd79 293e
000000e0: 046e 073e 2974 8cbd ba54 553d 3625 c73d
000000f0: 7b83 67bd 0ffe 503d a12a 2d3d 860b a43b
00000100: a36d f7bd 0073 943b b46c a13c cacd 11bf
00000110: e205 243d e0d1 9dbe 38f3 e8be ee1a 68bd
00000120: 35bc fc3d 1d53 84bd a710 26bd 022a fcbc
00000130: 5ff5 51be 6576 3abd d513 c23d 6f37 21be
00000140: d2ae 043d 0931 86bd 52e5 0dbd 33de 71bd
00000150: 5dab 05be cd2d 3fbe 2ff4 a5bc 06a2 be3d
00000160: 77b1 45be 9b84 c6bc ab64 b8bd 9e80 f1bd
00000170: c950 d83c ce2b 52be 665f 50bf 05f2 efba
00000180: 303e bfbd 5c6b 1ebf 38e0 953d c8f3 bf3d
00000190: 2e83 bfbd db7a 113e 0416 6e3d e403 f6bd
000001a0: 8b24 c33d 3706 82bd cdb1 e03c bd8a cd3d
000001b0: 17ed 18be 3f60 8fbe f3a2 043e 36aa 00be
000001c0: f6dc 3ebf c684 2abc c56c a4bb e385 a9be
000001d0: 770d 99bd 4936 193e c1fc da3c 3fbb 793d
000001e0: 5ceb 2b3c 0758 2b3e b0b6 433e 1736 35bd
000001f0: 7fc5 f43d 0657 ad3d 11e0 62bd b51c ff3d
00000200: 806c cf3d 4cd1 15be 2e0a 373e 38c4 cf3d
00000210: 670e 31bd f416 f43d 6dc5 793d 9c10 033e
00000220: 9fcd ab3d 26fe 183e 9f32 b13d 981b 3d3d
00000230: d0d8 c43d 826c 533c 1866 743c 9122 8f3d
00000240: 919b d7bd 19b0 783e d439 e93d fb2e ae3c
00000250: 18a7 543e 4ddc da3d 98d9 853d f9ac cbbd
00000260: 25e7 a0bd b17c 143e 4293 8abe dec9 0fbe
00000270: e6cc b13d 30ab a4be 070b 653d eb2b 4bbd
00000280: 65f7 1bbe 89ed 563e 550a cc3d af4e 91be
00000290: de10 f43b a2f6 30bd e175 11bd 6336 603d
000002a0: 3039 013d c97d 873d 562e 58bb 8732 06be
000002b0: e256 0dbb f1c3 963e 1b58 28be bcb5 883e
000002c0: 5fbb 953d ccef adbd f50f 803e f73b 61bd
000002d0: de6d 21be b75a 473d 4a34 4d3e 2151 c93c
000002e0: fa5e 1f3e c6de a73d f9b2 943d e801 1e3e
000002f0: 2ffe a2bd 28a3 a73d 38c2 b4bb 1295 c1bd
00000300: d0fe e6bd 4822 6fbe 62ed bd3d ccbd 34bd
00000310: 99b7 58bc 454b 933e 5150 973d 36b8 643e
00000320: 08ef b73d 0532 013d 7124 133d dfb1 65be
00000330: 216a 593b fa64 2cbe f001 febc 27ec 9a3d
00000340: 4707 19be 3e0c bfbc 0217 2eba 6984 7dbc
00000350: 8ac6 523d 7498 c6bc f568 ab3d d559 25be
00000360: d16c a4bd 38ec 913e 5e32 debd 56be 663d
00000370: 75fe 9e3b 1f87 85bd af9e 363d 66e5 2cbe
00000380: 8cd6 0c3e a1c1 cbbd f26b 483e 3616 ff3d
00000390: 57d0 a63d bc4c c8bd 34e6 e03d 3e9f 0a3c
000003a0: 02ef eebc bf59 e2bd 042d b8bc ebaf 113e
000003b0: 8217 48be 5859 d03d 8332 b6bb 76ea a0be
000003c0: 0df8 513d f74f bcbe f7f6 b2bd 7d93 c13d
000003d0: edd6 37be 3562 1cbe 195e ff3b d046 00bf
000003e0: b9b4 b1bd 142e c7bc 818b ddbb 95ae 113e
000003f0: ea1e 65bd b3c7 33be a1ee 903d 36d2 35bd

cnn.4.bias f4 [32]
0.11524909 0.019397473 -0.13965432 -0.03632566 0.07690895 0.08291121 -0.1346998 -0.07597442
-0.07801785 0.111440174 0.15245305 -0.046123948 0.10029543 -0.061673917 -0.015169557 0.07196123
-0.013242504 -0.09442701 -0.17263162 -0.18348433 0.01982141 -0.06620742 0.07694779 -0.15386964
0.09058017 -0.03496634 0.08341828 0.038053945 0.0729039 -0.068771325 -0.06782252 0.097295076
00000000: b707 ec3d 73e7 9e3c 8b01 0fbe 37ca 14bd
00000010: 7182 9d3d 5acd a93d bfee 09be 7a98 9bbd
00000020: d3c7 9fbd bf3a e43d a71c 1c3e 77ec 3cbd
00000030: b167 cd3d ca9d 7cbd bc89 78bc 6960 933d
00000040: 16f7 58bc f362 c1bd 58c6 30be 51e3 3bbe
00000050: 8260 a23c c197 87bd ce96 9d3d 0190 1dbe
00000060: 1982 b93d dd38 0fbd 34d7 aa3d 74de 1b3d
00000070: a44e 953d fbd7 8cbd 89e6 8abd a442 c73d

cnn.5.weight f4 [32]
1.0244292 0.9001645 0.9977402 1.0303087 0.9249474 0.7827046 0.7323746 1.0223038
0.95990425 0.79469144 1.0565639 0.93318915 0.81970483 0.9645185 0.97931015 0.98089606
1.0482981 1.089442 0.6766598 0.9332255 0.88182086 1.0000589 0.88317776 0.77219653
0.8355641 0.9965826 0.9678567 0.9854932 1.0377878 1.0884606 1.0177919 1.0509995
00000000: 7f20 833f 2e71 663f e76b 7f3f 28e1 833f
00000010: 5ac9 6c3f 545f 483f e77c 3b3f dada 823f
00000020: 49bc 753f e670 4b3f 7c3d 873f 7ce5 6e3f
00000030: 2dd8 513f afea 763f 12b4 7a3f 011c 7b3f
00000040: a22e 863f d672 8b3f 9439 2d3f dee7 6e3f
00000050: 03bf 613f ee01 803f f017 623f acae 453f
00000060: 87e7 553f 0a20 7f3f 75c5 773f 4849 7c3f
00000070: 3bd6 843f ad52 8b3f 0147 823f 2787 863f

cnn.5.bias f4 [32]
-0.4173088 -0.24726385 -0.39681652 -0.3327815 -0.22763525 0.10903336 -0.19060382 -0.46257216
-0.3436786 -0.12758274 -0.010005989 -0.4005238 -0.30326018 -0.32054436 -0.41075537 0.06790994
-0.494028 -0.105938844 -0.19616206 -0.31063893 -0.33998147 -0.40442505 -0.25336862 -0.1277896
0.11227368 -0.39528912 -0.3082347 -0.38968712 -0.32209682 -0.34842575 -0.2918402 -0.3892038
00000000: 80a9 d5be bc32 7dbe 892b cbbe 5662 aabe
00000010: 3719 69be e24c df3d a62d 43be 42d6 ecbe
00000020: a4f6 afbe 0da5 02be 29f0 23bc 7511 cdbe
00000030: eb44 9bbe 641e a4be 874e d2be 5e14 8b3d
00000040: 3df1 fcbe 77f6 d8bd b5de 48be 110c 9fbe
00000050: 0d12 aebe cd10 cfbe 88b9 81be 47db 02be
00000060: beef e53d 5663 cabe f0d0 9dbe 1285 c7be
00000070: e0e9 a4be dc64 b2be 146c 95be b845 c7be

cnn.5.running_mean f4 [32]
-1.3037373 -1.1850647 -1.1188462 -0.48681673 -1.5994875 -0.1614262 -1.1846981 -2.23609
-1.7943388 -0.51789886 0.4492882 -0.4743135 -0.9583416 -1.3330685 -1.4776416 -0.5661065
-1.9655739 -0.100655496 -0.282399 -1.3316884 -1.72859 -0.3935346 -1.9070522 -2.1276257
0.47090325 -0.11466104 -1.2276659 -1.0303961 -2.2264059 -0.21129721 -1.3394548 -1.1255081
00000000: dde0 a6bf 33b0 97bf 5a36 8fbf 0b40 f9be
00000010: 02bc ccbf e94c 25be 30a4 97bf 191c 0fc0
00000020: e5ac e5bf 0595 04bf 1a09 e63e 38d9 f2be
00000030: e055 75bf fda1 aabf 5c23 bdbf 5bec 10bf
00000040: ed97 fbbf 7824 cebd 9a96 90be c474 aabf
00000050: 7042 ddbf 5e7d c9be 491a f4bf 052b 08c0
00000060: 3b1a f13e 68d3 eabd 2824 9dbf 05e4 83bf
00000070: 6f7d 0ec0 4c5e 58be 4173 abbf a610 90bf

cnn.5.running_var f4 [32]
5.9952474 2.2588024 4.643195 1.3901944 2.7184265 2.0355546 5.5638123 6.420152
3.5637774 1.8333632 1.957307 5.422061 3.6666806 6.1079235 5.1507177 3.6098864
4.754589 1.7844392 1.942923 4.512213 5.735783 4.430822 6.4988623 10.078987
1.355493 2.8006577 3.2588398 3.381413 6.175244 5.38533 4.778952 7.5625205
00000000: 11d9 bf40 3890 1040 0e95 9440 e4f1 b13f
00000010: b3fa 2d40 8746 0240 c00a b240 e371 cd40
00000020: ee14 6440 a5ab ea3f 0989 fa3f 8681 ad40
00000030: e5aa 6a40 1c74 c340 aed2 a440 6108 6740
00000040: 9825 9840 8168 e43f b3b1 f83f 0d64 9040
00000050: 898b b740 4bc9 8d40 aef6 cf40 8843 2141
00000060: cb80 ad3f fa3d 3340 d590 5040 1269 5840
00000070: 999b c540 a054 ac40 2ded 9840 2b00 f240

cnn.8.weight f4 [48, 32, 3, 3]
-0.22657217 -0.27075225 0.29410067 0.0029195065 -0.1215602 0.091957696 -0.01445541 -0.0708166
0.11798778 -0.20452307 -0.14956193 0.03474715 -0.03486246 -0.117599934 0.12061377 0.026510617
0.052237764 -0.081938334 -0.077769436 0.16500258 0.09132879 -0.059587844 0.22084326 0.1484081
-0.20236452 -0.042888436 0.21951026 -0.063042924 -0.016840786 0.23324516 -0.04712483 0.083577044
0.23151386 -0.08866275 0.12036012 0.1723756 0.021581952 -0.09687128 0.2516041 -0.11138243
-0.09313676 0.24841467 0.03127785 -0.11718367 0.22603096 -0.040756386 -0.021717932 -0.0076063424
-0.020048907 -0.076610446 -0.07588666 0.12729113 -0.008416001 -0.036567256 0.067123435 -0.22459014
-0.19528931 0.033256352 -0.30299795 -0.22091253 0.22502406 -0.34543 -0.11151336 0.110069044
0.038671255 -0.078386724 0.1568966 -0.2383403 -0.3335211 0.21170267 -0.054210298 -0.073755644
-0.096207134 -0.23799263 -0.25996956 0.05590959 -0.18657486 -0.12116316 0.07668355 0.13957317
0.074283995 -0.077316746 -0.2566701 0.02569378 0.04275934 -0.05720355 0.034982827 0.06290679
0.07491544 -0.047092594 -0.105958015 0.042365205 -0.04649163 -0.061371252 -0.043402277 -0.05671087
0.19877753 0.07165048 -0.2632901 -0.02300981 0.10415691 0.12781686 -0.18269575 -0.01851429
0.017466128 -0.048215527 -0.061844155 8.2515064e-05 0.21053939 0.023632608 -0.39750975 -0.170797
-0.028415821 0.122603096 -0.046708897 -0.025943205 0.037380293 -0.21050222 0.056918114 0.3350067
-0.02511737 -0.11852964 0.10433507 -0.049115695 -0.10791357 0.10198398 -0.11505837 -0.089954406
0.10986888 -0.15929767 0.0011675229 0.13851808 -0.14622222 0.008391536 -0.04308038 -0.113414586
0.10819315 0.21850266 -0.22493145 -0.061032347 0.058967758 0.025394872 0.0013511144 -0.009915343
-0.07975089 0.20974256 0.03383935 -0.014847944 0.02167803 0.029849607 -0.19464548 0.040994782
0.0897957 0.09341467 -0.33623886 -0.06797746 0.06569881 -0.45337483 -0.11546947 -0.062301546
-0.3813468 -0.05934073 0.039026342 -0.10436688 0.21556011 -0.027708514 -0.068925954 0.12890886
-0.1641547 0.031435713 0.18669006 0.06056656 0.06590755 -0.06758008 0.07335732 0.0912643
-0.096814886 0.118176006 0.104166836 -0.08196973 -0.17336978 -0.048173975 0.13441744 -0.23732986
-0.0795861 0.21875411 -0.14609814 -0.07094594 0.06786243 -0.1935105 -0.19261123 0.14055364
-0.029651757 0.12134209 0.058383554 -0.15621579 -0.050035268 0.25727347 0.11916988 0.08407646
-0.11836411 -0.04362192 0.04201453 -0.19227001 0.03102853 0.15930411 0.00405815 -0.12543403
-0.09587572 -0.013432007 -0.2744156 -0.05186559 -0.04101213 0.1397529 0.037904225 -0.09011928
-0.10225835 0.05519342 0.16451883 -0.19743657 -0.07165494 0.080265105 -0.23327711 -0.038968973
0.16270095 -0.060417876 -0.12154649 -0.43817547 -0.07683611 -0.21709383 0.08260116 0.055135403
-0.26516923 -0.014400966 -0.103588015 0.119944915 0.08683233 -0.24316317 -0.16188341 0.044508103
-0.16038091 -0.09973419 -0.15354712 0.18599913 -0.0029420168 0.102080874 0.02382701 -0.10139768
-0.0107532125 -0.05447604 -0.0038051675 0.025229031 -0.008980786 -0.15111513 -0.035867848 -0.12924372
00000000: 8902 68be 0aa0 8abe 5d94 963e 3155 3f3b
00000010: 8ef4 f8bd 5154 bc3d 62d6 6cbc 4b08 91bd
00000020: 94a3 f13d 7f6e 51be c326 19be 0753 0e3d
00000030: f0cb 0ebd 3cd8 f0bd 5a04 f73d cb2c d93c
00000040: 44f7 553d 49cf a7bd 9545 9fbd 70f6 283e
00000050: 970a bb3d 6212 74bd bc24 623e 4bf8 173e
00000060: a538 4fbe c9ab 2fbd 4cc7 603e a61c 81bd
00000070: b0f5 89bc d2d7 6e3e f705 41bd 712a ab3d
00000080: f811 6d3e d194 b5bd 5e7f f63d 3b83 303e
00000090: a2cc b03c 7364 c6bd 41d2 803e 791c e4bd
000000a0: 7cbe bebd 6a60 7e3e 341d 003d fefd efbd
000000b0: a974 673e 2bf0 26bd cee9 b1bc a03e f9bb
000000c0: 9b3d a4bc f0e5 9cbd 776a 9bbd 9b58 023e
000000d0: 44e3 09bc 8cc7 15bd 0378 893d f5fa 65be
000000e0: ecf9 47be d037 083d 8c22 9bbe e536 62be
000000f0: b56c 663e 33dc b0be 1e61 e4bd e16b e13d
00000100: c065 1e3d 3889 a0bd 81a9 203e 7b0f 74be
00000110: 47c3 aabe 96c8 583e 9e0b 5ebd 330d 97bd
00000120: 3f08 c5bd 57b4 73be bb1a 85be 7401 653d
00000130: 7b0d 3fbe 6424 f8bd 440c 9d3d 45ec 0e3e
00000140: 3522 983d 3e58 9ebd 436a 83be c37b d23c
00000150: 6b24 2f3d 454e 6abd 274a 0f3d 46d5 803d
00000160: 446d 993d 2ae4 40bd 8400 d9bd 2387 2d3d
00000170: 026e 3ebd 6c60 7bbd 96c6 31bd a849 68bd
00000180: 568c 4b3e 7dbd 923d f6cd 86be 127f bcbc
00000190: 3850 d53d 6ce2 023e 9814 3bbe 48ab 97bc
000001a0: 2015 8f3c a57d 45bd 4c50 7dbd f00b ad38
000001b0: a397 573e 2c99 c13c 6686 cbbe 69e5 2ebe
000001c0: 4cc8 e8bc 5517 fb3d d451 3fbd d886 d4bc
000001d0: 141c 193d e58d 57be f822 693d 0086 ab3e
000001e0: f1c2 cdbc abbf f2bd a0ad d53d 8a2d 49bd
000001f0: ca01 ddbd fadc d03d b9a3 ebbd 043a b8bd
00000200: ef02 e13d ee1e 23be 9107 993a afd7 0d3e
00000210: 47bb 15be a77c 093c 0d75 30bd e845 e8bd
00000220: 5f94 dd3d 29bf 5f3e 6e54 66be 0efd 79bd
00000230: 2d88 713d e808 d03c e017 b13a f673 22bc
00000240: 6f54 a3bd c1c6 563e 219b 0a3d ca44 73bc
00000250: 2096 b13c 2a87 f43c 2551 47be 25ea 273d
00000260: cfe6 b73d 3150 bf3d 8027 acbe c437 8bbd
00000270: 198d 863d bf20 e8be 427b ecbd e82f 7fbd
00000280: e33f c3be 440f 73bd 16da 1f3d 4ebe d5bd
00000290: cabb 5c3e f7fc e2bc 0d29 8dbd af00 043e
000002a0: 2b18 28be bcc2 003d ae2b 3f3e a414 783d
000002b0: 8afa 863d 6d67 8abd 5d3c 963d c7e8 ba3d
000002c0: e246 c6bd 4306 f23d 6c55 d53d bfdf a7bd
000002d0: d987 31be 1352 45bd baa4 093e 9906 73be
000002e0: 0afe a2bd 1401 603e c09a 15be 1b4c 91bd
000002f0: 75fb 8a3d 9e27 46be e13b 45be 4bed 0f3e
00000300: 3ee8 f2bc 3482 f83d 9823 6f3d 08f7 1fbe
00000310: c8f1 4cbd 59b9 833e 570f f43d 4730 ac3d
00000320: e268 f2bd e6ac 32bd 6e17 2c3d 6ee2 44be
00000330: 8b2f fe3c 9e20 233e 3bfa 843b c771 00be
00000340: 7d5a c4bd ec11 5cbc 3480 8cbe 0371 54bd
00000350: 56fc 27bd 621b 0f3e 7641 1b3d 7590 b8bd
00000360: d36c d1bd 7f12 623d a077 283e d02c 4abe
00000370: d3bf 92bd 0862 a43d 32e0 6ebe ee9d 1fbd
00000380: 149b 263e bc78 77bd 5eed f8bd 8958 e0be
00000390: 405c 9dbd d84d 5ebe cc2a a93d a9d5 613d
000003a0: 43c4 87be 08f2 6bbc f425 d4bd aea5 f53d
000003b0: 26d5 b13d c4ff 78be c4c4 25be 214e 363d
000003c0: e53a 24be 7041 ccbd 753b 1dbe 8e76 3e3e
000003d0: dace 40bb c70f d13d dd30 c33c 96a9 cfbd
000003e0: 3e2e 30bc 4522 5fbd 1e60 79bb 1dad ce3c
000003f0: 2624 13bc edbd 1abe 2aea 12bd 7758 04be

cnn.8.bias f4 [48]
-0.071478635 -0.061826956 -0.06250562 0.002740198 0.08098848 0.00049542484 0.07640252 -0.0191251
-0.16608106 -0.06379116 -0.064384334 -0.030016834 0.029920166 -0.081714876 0.067584164 -0.061467495
-0.05784872 -0.106653094 0.012602941 0.10405731 0.15614228 0.042148434 -0.04697988 -0.018604122
0.02316387 -0.10109608 0.0694295 -0.093760125 0.09368632 -0.07073137 0.07854525 0.19104475
-0.0329547 -0.06266921 -0.013843795 -0.012829425 0.0056158397 -0.025672322 -0.081029564 -0.058595594
-0.067195795 -0.009674057 -0.13585046 0.102201685 0.13089696 0.032669432 -0.06438535 -0.036370464
00000000: 6463 92bd 433e 7dbd f202 80bd e594 333b
00000010: 4add a53d 66df 013a ed78 9c3d 3eac 9cbc
00000020: 2711 2abe f1a4 82bd efdb 83bd dde5 f5bc
00000030: 231b f53c 215a a7bd 9169 8a3d 57c5 7bbd
00000040: c8f2 6cbd f06c dabd 917c 4e3c 001c d53d
00000050: c3e3 1f3e d6a3 2c3d fa6d 40bd ac67 98bc
00000060: 28c2 bd3c 760b cfbd 0e31 8e3d 4f05 c0bd
00000070: 9dde bf3d 9cdb 90bd 55dc a03d 3ca1 433e
00000080: 82fb 06bd b758 80bd 16d1 62bc 8232 52bc
00000090: 1405 b83b c34e d2bc d4f2 a5bd ef01 70bd
000000a0: f39d 89bd f07f 1ebc 621c 0bbe 1e4f d13d
000000b0: da09 063e 62d0 053d 77dc 83bd 32f9 14bd

cnn.9.weight f4 [48]
1.0438148 0.9300773 0.8638275 0.9295406 0.7908948 0.999605 0.88677084 0.8612635
0.913335 0.83421403 0.87855005 0.8471524 1.1014171 0.9418224 0.8273839 0.8539371
1.1202707 0.97465575 0.76799417 0.7989386 0.787816 0.96080136 0.9842324 0.8338703
1.0332268 0.95492727 0.90511674 0.8683477 0.8452502 0.8526616 0.8881022 1.0899686
0.8942607 0.8668677 0.9762713 0.8367201 0.7074799 0.9655129 0.7465138 0.8292844
0.8023392 0.9927238 0.9140268 0.78444636 0.916236 0.80032074 0.89870524 0.8725298
00000000: b99b 853f 8c19 6e3f cd23 5d3f 5ff6 6d3f
00000010: 1578 4a3f 1de6 7f3f 6a03 633f c47b 5c3f
00000020: 53d0 693f 0d8f 553f a8e8 603f fbde 583f
00000030: 3cfb 8c3f 461b 713f 6ecf 533f 9f9b 5a3f
00000040: 0865 8f3f 0a83 793f 449b 443f 3d87 4c3f
00000050: 4fae 493f 14f7 753f a8f6 7b3f 8678 553f
00000060: c740 843f 1d76 743f bbb5 673f 094c 5e3f
00000070: 5162 583f 0848 5a3f aa5a 633f 1784 8b3f
00000080: 45ee 643f 0beb 5d3f eaec 793f 4a33 563f
00000090: 671d 353f da2b 773f 871b 3f3f fc4b 543f
000000a0: 1a66 4d3f 2623 7e3f a9fd 693f 7ad1 483f
000000b0: 718e 6a3f d2e1 4c3f 8c11 663f 1d5e 5f3f

cnn.9.bias f4 [48]
-0.4201012 -0.54589397 -0.48640853 -0.39638346 -0.37652987 -0.2429216 -0.368422 -0.501182
-0.46195933 -0.5947633 -0.51849896 -0.50361747 -0.68617976 -0.45356092 -0.51424855 -0.41888088
-0.48959747 -0.33682406 -0.30816364 -0.41232198 -0.37760442 -0.3042177 -0.5492426 -0.38840038
-0.5799133 -0.5426412 -0.5836247 -0.48374456 -0.44817916 -0.48016983 -0.60725546 -0.6838064
-0.3702047 -0.34556147 -0.5284486 -0.28739256 -0.17439502 -0.5805695 -0.4204936 -0.3081925
-0.29651424 -0.5263404 -0.48946065 -0.44858646 -0.46029207 -0.31485987 -0.6889578 -0.5230108
00000000: 8117 d7be b5bf 0bbf 8a0a f9be c6f2 cabe
00000010: 86c8 c0be 71c0 78be cfa1 bcbe 774d 00bf
00000020: ef85 ecbe 6842 18bf 59bc 04bf 13ed 00bf
00000030: 7aa9 2fbf 2339 e8be cba5 03bf 8e77 d6be
00000040: 85ac fabe 3474 acbe a0c7 9dbe de1b d3be
00000050: 5e55 c1be 6cc2 9bbe 2a9b 0cbf 6adc c6be
00000060: 3375 14bf 89ea 0abf 6e68 15bf 5ead f7be
00000070: bd77 e5be d2d8 f5be 1875 1bbf f00d 2fbf
00000080: 788b bdbe 6fed b0be 6848 07bf 1e25 93be
00000090: 9c94 32be 34a0 14bf f04a d7be 68cb 9dbe
000000a0: b7d0 97be 3fbe 06bf 969a fabe 20ad e5be
000000b0: 67ab ebbe 5035 a1be 8a5f 30bf 09e4 05bf

cnn.9.running_mean f4 [48]
-1.5871173 -1.8201379 -1.1894996 -1.1033926 -2.0277228 -0.7507 -0.9797712 -1.7876672
-1.883358 -1.4446459 -2.1457455 -2.2427258 -0.7608242 -1.1503764 -1.569703 -1.7892474
-1.4516222 -2.4647202 -0.2955149 -0.8361042 -0.7671483 -1.3421642 -1.242553 -1.7827498
-1.7156792 -1.8013159 -1.3905814 -1.2603549 -0.49200076 -1.2088196 -1.6885178 -0.60660493
-1.6263865 -1.1832595 -1.8172903 -1.0702342 0.5311721 -1.8173946 -1.5068117 -0.50976
-0.72292644 -0.79840666 -1.2023995 -1.2225789 -1.7100087 -1.0493929 -1.3697459 -0.9466867
00000000: a926 cbbf 47fa e8bf 8641 98bf f83b 8dbf
00000010: 36c6 01c0 e02d 40bf 49d2 7abf 47d2 e4bf
00000020: e011 f1bf 28ea b8bf e553 09c0 d288 0fc0
00000030: 60c5 42bf 893f 93bf 07ec c8bf 0f06 e5bf
00000040: c2ce b9bf fabd 1dc0 bb4d 97be ed0a 56bf
00000050: d563 44bf 09cc abbf fa0b 9fbf 2531 e4bf
00000060: 609b dbbf 8591 e6bf 92fe b1bf 4f53 a1bf
00000070: 86e7 fbbe 9aba 9abf 5a21 d8bf 764a 1bbf
00000080: 6f2d d0bf 0c75 97bf f89c e8bf 6ffd 88bf
00000090: e5fa 073f 63a0 e8bf 35df c0bf a27f 02bf
000000a0: b511 39bf 6164 4cbf 3ae8 99bf 777d 9cbf
000000b0: 91e1 dabf 8252 86bf d553 afbf 0f5a 72bf

cnn.9.running_var f4 [48]
3.040652 1.8611633 2.2226264 2.6860878 1.8542733 2.5098493 2.1523597 1.4065391
1.6222271 1.7303146 1.606787 2.4656312 1.3541615 1.568055 2.1440175 2.0431817
1.9375988 2.3689966 1.6079421 2.1814258 2.0940714 2.641738 2.029225 2.1702325
3.0398784 2.4549248 2.0007823 2.3498302 1.68438 1.6998048 2.071608 2.216965
1.86633 2.5062485 1.8640261 2.124314 1.8319055 2.083144 1.5818653 1.6000496
1.9245158 1.9580934 1.717486 1.6504669 2.256508 1.5476955 2.007458 1.4195716
00000000: 0b9a 4240 993a ee3f 833f 0e40 dde8 2b40
00000010: d458 ed3f 5fa1 2040 43c0 0940 7909 b43f
00000020: 23a5 cf3f f37a dd3f 32ab cd3f e7cc 1d40
00000030: 2a55 ad3f 07b6 c83f 9537 0940 7dc3 0240
00000040: 3d03 f83f a49d 1740 0cd1 cd3f 7b9c 0b40
00000050: 4405 0640 3c12 2940 d3de 0140 17e5 0a40
00000060: 5e8d 4240 7d1d 1d40 d10c 0040 9e63 1640
00000070: c499 d73f 3493 d93f 3a95 0440 c1e2 0d40
00000080: e7e3 ee3f 6066 2040 6898 ee3f c3f4 0740
00000090: e17b ea3f 3b52 0540 907a ca3f 6dce cc3f
000000a0: 8956 f63f cea2 fa3f 95d6 db3f 8042 d33f
000000b0: a16a 1040 e31a c63f 317a 0040 86b4 b53f

cnn.12.weight f4 [64, 48, 3, 3]
0.1619299 0.11229414 -0.2215907 0.01705503 -0.03536646 0.07711165 0.05186519 0.19638321
0.2432463 -0.047495726 -0.3519151 0.00023439107 -0.113576 -0.021700509 0.34242797 -0.15949602
0.0602504 0.35571337 -0.00244474 -0.009176342 0.1417061 0.1281608 0.008584862 0.032679666
0.13911162 0.117974475 -0.0949821 -0.017681722 -0.0050864248 0.10445203 -0.093979284 0.037816767
0.008558205 -0.04934181 0.044461228 0.047632363 -0.023418114 0.059640657 0.073892646 0.008796094
0.024544798 -0.006417434 0.058079664 -0.03315705 -0.07831864 0.20466095 -0.008661803 -0.042412348
0.056861613 0.005718727 0.2172127 0.08107762 0.00711569 -0.070031345 -0.031729218 -0.114226095
0.14319561 0.28655046 0.07952804 0.012096286 -0.057107404 0.029751986 -0.064418666 0.1888663
0.0036425418 -0.293156 -0.058930118 0.2075592 0.28452018 0.008304899 0.02590226 0.13014607
-0.070373885 -0.042397276 -0.04661842 -0.061999887 -0.16297582 -0.12762986 -0.096132405 -0.056445435
0.13479814 0.03401192 -0.12005207 -0.19786339 0.084097706 0.08360419 0.25202477 -0.0057852906
-0.06298061 0.21448845 -0.097433515 -0.13991715 0.017545167 0.17102815 -0.018006068 -0.03533979
-0.10859811 0.04831528 0.14654197 0.044420462 -0.06987124 0.18619406 -0.0452437 -0.07648476
-0.10542446 0.105872735 -0.024414677 0.05336303 -0.10181637 -0.04559493 -0.37616116 -0.09589972
0.05473822 0.059762355 0.13012071 0.2278602 0.38837135 0.05205312 0.036315285 -0.06289864
-0.21835494 -0.072718464 0.18076208 -0.19573471 0.058581192 0.22287959 -0.043626264 -0.16669357
-0.18405211 -0.029018622 0.12880696 0.19128564 0.005301706 -0.002391844 -0.007098767 -0.2126444
-0.0717733 -0.15447949 -0.12504779 0.04982584 0.031985395 -0.1657617 0.033882614 0.045681555
0.052829422 0.05311232 -0.06515236 0.055270795 0.07067136 -0.26550838 -0.08922651 0.1919717
0.08889959 -0.23874511 -0.054731674 0.07214598 0.05636044 0.0116018085 -0.02605113 0.028639188
-0.050906833 -0.1932465 -0.051903356 -0.20060602 -0.24620716 -0.21420857 -0.2371306 -0.007056747
0.110480875 -0.115664974 -0.044975903 -0.07539732 -0.102994196 0.011726998 -0.07106621 -0.0699132
0.08744701 -0.09302751 -0.033909284 0.10216659 -0.008831669 -0.29270804 -0.1792616 -0.033367187
0.092335805 0.0022066266 -0.058912832 -0.1708453 -0.07220501 -0.03672231 -0.11450252 -0.07563621
0.05094292 0.06288452 0.004387708 -0.049713667 -0.0066169077 0.19554427 0.10917045 0.20492448
0.22200197 0.13232057 -0.06000456 -0.23168877 -0.13354866 -0.34647584 -0.37223136 0.21615349
0.08132331 0.043163158 -0.040691502 0.11533934 0.14024588 -0.05313926 -0.08978926 0.008719502
-0.04463059 0.06384482 0.33075377 -0.21832515 -0.16714008 -0.14032803 -0.12085722 0.08421154
0.14503986 0.013135502 0.12965026 0.12327309 0.082605675 -0.054849513 0.001980773 0.14792216
0.15909252 0.16038771 0.21738501 0.09063037 0.3293327 0.19661132 0.004165833 -0.1557228
-0.03015414 -0.14722037 0.114045575 0.042006567 0.13627756 0.18185636 -0.15364571 -0.1683182
0.06619754 0.07669204 0.18633848 0.15604153 0.08601129 0.04702073 0.14329067 0.106005795
00000000: f4d0 253e 78fa e53d ace8 62be feb6 8b3c
00000010: 6cdc 10bd b6ec 9d3d 9870 543d ae18 493e
00000020: 8f15 793e e18a 42bd 372e b4be e0c6 7539
00000030: 899a e8bd 44c5 b1bc b852 af3e ed52 23be
00000040: 20c9 763d 1020 b63e ee37 20bb 5e58 16bc
00000050: 671b 113e 963c 033e 85a7 0c3c 1ddb 053d
00000060: 4773 0e3e 9a9c f13d fa85 c2bd 42d9 90bc
00000070: 06ac a6bb f2ea d53d 3678 c0bd c1e5 1a3d
00000080: b737 0c3c a31a 4abd fa1c 363d 271a 433d
00000090: 58d7 bfbc c349 743d 0755 973d 7e1d 103c
000000a0: 2c12 c93c 5749 d2bb f1e4 6d3d b0cf 07bd
000000b0: 8665 a0bd a492 513e 3cea 0dbc 92b8 2dbd
000000c0: b9e7 683d 2964 bb3b 026d 5e3e 060c a63d
000000d0: bc2a e93b 986c 8fbd 7ff6 01bd 5fef e9bd
000000e0: dfa1 123e beb6 923e 99df a23d 802f 463c
000000f0: 74e9 69bd 70ba f33c efed 83bd 2b66 413e
00000100: b6b7 6e3b 8b18 96be b560 71bd 668a 543e
00000110: a1ac 913e 4511 083c fa30 d43c 0345 053e
00000120: 2f20 90bd c4a8 2dbd f5f2 3ebd 98f3 7dbd
00000130: 22e3 26be 67b1 02be 11e1 c4bd 5433 67bd
00000140: 8608 0a3e 1550 0b3d dcdd f5bd b39c 4abe
00000150: 6b3b ac3d ac38 ab3d 6409 813e 8992 bdbb
00000160: fafb 80bd dca2 5b3e 398b c7bd 7146 0fbe
00000170: e2ba 8f3c 0122 2f3e 7681 93bc 75c0 10bd
00000180: b068 debd 3ee6 453d 190f 163e 3bf2 353d
00000190: a718 8fbd a8a9 3e3e 7551 39bd 0ba4 9cbd
000001a0: c7e8 d7bd ced3 d83d 4a01 c8bc 3193 5a3d
000001b0: 1a85 d0bd c0c1 3abd 3298 c0be 1367 c4bd
000001c0: 2f35 603d 5fc9 743d 5d3e 053e 2f54 693e
000001d0: 9cd8 c63e a735 553d 56bf 143d 01d1 80bd
000001e0: 7098 5fbe 6bed 94bd b219 393e ae6e 48be
000001f0: d5f2 6f3d 8c3a 643e 74b1 32bd b8b1 2abe
00000200: 2878 3cbe 76b8 edbc f9e5 033e 62e0 433e
00000210: efb9 ad3b 7cc0 1cbb c69c e8bb 74bf 59be
00000220: e1fd 92bd df2f 1ebe 870c 00be 2e16 4c3d
00000230: 1e03 033d 6fbd 29be 7fc8 0a3d 951c 3b3d
00000240: aa63 583d 4e8c 593d 9a6e 85bd a163 623d
00000250: 25bc 903d b7f0 87be 63bc b6bd 3b94 443e
00000260: fd10 b63d 9979 74be 522e 60bd 46c1 933d
00000270: 34da 663d 8315 3e3c 2e69 d5bc bb9c ea3c
00000280: af83 50bd 69e2 45be 9d98 54bd aa6b 4dbe
00000290: bb1d 7cbe 7e59 5bbe 5dd2 72be 493c e7bb
000002a0: cc43 e23d c2e1 ecbd a738 38bd e969 9abd
000002b0: 9fee d2bd 9822 403c 298b 91bd a72e 8fbd
000002c0: 6b17 b33d 3585 bebd 76e4 0abd b83c d13d
000002d0: b4b2 10bc d4dd 95be 5a90 37be 08ac 08bd
000002e0: 8e1a bd3d 0d9d 103b 954e 71bd 12f2 2ebe
000002f0: 38e0 93bd 226a 16bd 4c80 eabd 28e7 9abd
00000300: 86a9 503d 99c9 803d c3c6 8f3b 8fa0 4bbd
00000310: a5d2 d8bb c23c 483e c294 df3d b9d7 513e
00000320: 7c54 633e 0b7f 073e 57c7 75bd d23f 6dbe
00000330: fbc0 08be 4865 b1be 1c95 bebe 5757 5d3e
00000340: d68c a63d dacb 303d 22ac 26bd 0837 ec3d
00000350: 9e9c 0f3e 8da8 59bd 6ee3 b7bd 3edc 0e3c
00000360: 91ce 36bd 13c1 823d 8f58 a93e a190 5fbe
00000370: c526 2bbe 27b2 0fbe fd83 f7bd 1a77 ac3d
00000380: 5485 143e 4a36 573c 0ac3 043e 9a76 fc3d
00000390: 2a2d a93d e2a9 60bd dbcf 013b e878 173e
000003a0: 26e9 223e ad3c 243e 2d9a 5e3e 6a9c b93d
000003b0: 4c9e a83e 7a54 493e 8a81 883b cc75 1fbe
000003c0: d105 f7bc f0c0 16be ba90 e93d 140f 2c3d
000003d0: 588c 0b3e 8e38 3a3e 4d55 1dbe 9b5b 2cbe
000003e0: 9392 873d b710 9d3d 84cf 3e3e 5ac9 1f3e
000003f0: b026 b03d cf98 403d caba 123e 9119 d93d

cnn.12.bias f4 [64]
-0.009531759 -0.052834976 -0.012865579 0.039667282 -0.14394423 0.082401596 0.017291365 -0.062234364
0.012244657 0.0022652282 0.03767906 0.027762149 0.015849963 -0.040232114 0.04881644 0.033917494
-0.08376444 -0.022156147 -0.056510612 0.0864364 -0.0059250137 0.0077648633 0.06418749 0.063002884
0.0010024236 -0.02604456 0.0055394657 0.024760922 0.050399624 -0.03698572 -0.042975537 0.07335624
-0.044740785 -0.0060549686 -0.02182572 0.06291461 0.06832292 -0.0297572 -0.037287574 -0.006834425
0.043675322 -0.0021036302 -0.0048254374 -0.017865494 0.020389158 -0.0040109633 0.045018043 -0.15896855
-0.002790269 -0.045462906 -0.057367437 -0.03286338 -0.017053353 0.011198537 0.060432047 -0.049104996
-0.04880253 0.05829105 0.061037164 0.07759681 0.027957443 -0.11678325 0.018521078 -0.019840786
00000000: 182b 1cbc 7d69 58bd 26ca 52bc 297a 223d
00000010: 1e66 13be 2bc2 a83d 9fa6 8d3c 76e9 7ebd
00000020: d09d 483c 3974 143b 5c55 1a3d 726d e33c
00000030: c8d7 813c 6eca 24bd bff3 473d 12ed 0a3d
00000040: b18c abbd cf80 b5bc ac77 67bd 9105 b13d
00000050: 9e26 c2bb 6570 fe3b bb74 833d a807 813d
00000060: c163 833a 675b d5bc 6884 b53b 6bd7 ca3c
00000070: d66f 4e3d 577e 17bd 1e07 30bd cc3b 963d
00000080: 1d42 37bd c268 c6bb dacb b2bc 60d9 803d
00000090: e3ec 8b3d 5fc5 f3bc dbba 18bd 50f3 dfbb
000000a0: e5e4 323d 0fdd 09bb b41e 9ebb a85a 92bc
000000b0: 2a07 a73c 666e 83bb d764 383d a7c8 22be
000000c0: f2dc 36bb 5037 3abd 1efa 6abd c09b 06bd
000000d0: 79b3 8bbc 127a 373c 9887 773d 5222 49bd
000000e0: 29e5 47bd 99c2 6e3d 1b02 7a3d 14eb 9e3d
000000f0: 0207 e53c 0e2c efbd 84b9 973c 2589 a2bc

cnn.13.weight f4 [64]
0.80821306 0.936571 0.904401 0.9008692 0.73600346 0.7646788 0.74199986 0.7696796
0.7701958 0.80125177 0.915717 0.8218433 0.83501524 0.8900462 0.9664285 0.752863
0.768668 0.760466 0.87407213 0.88936853 0.90711254 0.89477026 0.8539994 0.82933515
0.811943 1.0113142 0.7810564 0.86308426 0.91571915 0.85483813 0.96495616 0.8305485
0.8277867 0.7435893 0.79602236 0.8122265 0.84941506 0.8804949 0.8202169 0.8567486
0.8867399 0.73913586 0.796493 0.7303907 0.866232 0.8306366 0.9492742 0.8151033
0.872477 0.78590804 0.83148277 0.9315594 0.81028396 0.86276615 0.8705762 0.94261086
0.89787215 0.86909944 1.0026697 0.8491186 0.8422137 0.82360196 0.8259505 0.9163168
00000000: 0de7 4e3f 1ec3 6f3f d386 673f 5d9f 663f
00000010: b96a 3c3f fdc1 433f b4f3 3d3f b909 453f
00000020: 8d2b 453f d61e 4d3f 6e6c 6a3f 5364 523f
00000030: 8fc3 553f 11da 633f dc67 773f a1bb 403f
00000040: 6dc7 443f e6ad 423f 31c3 5f3f a8ad 633f
00000050: 8738 683f aa0f 653f b49f 5a3f 4f4f 543f
00000060: 7fdb 4f3f be72 813f 50f3 473f 17f3 5c3f
00000070: 926c 6a3f acd6 5a3f 5e07 773f d49e 543f
00000080: d4e9 533f de5b 3e3f 1fc8 4b3f 13ee 4f3f
00000090: 4473 593f 1d68 613f bcf9 513f e053 5b3f
000000a0: 6301 633f 0238 3d3f f7e6 4b3f e3fa 3a3f
000000b0: 61c1 5d3f 9aa4 543f a203 733f 9caa 503f
000000c0: a75a 5f3f 4531 493f 0edc 543f ad7a 6e3f
000000d0: c56e 4f3f 3ede 5c3f 15de 5e3f f24e 713f
000000e0: f3da 653f 4d7d 5e3f 7b57 803f d65f 593f
000000f0: 519b 573f 94d7 523f 7e71 533f bd93 6a3f

cnn.13.bias f4 [64]
-0.24268933 -0.40450537 -0.32222468 -0.33288336 -0.3097558 -0.42486447 -0.3272336 -0.3030191
-0.37385866 -0.3533395 -0.3894543 -0.25690657 -0.29352108 -0.35464242 -0.23526318 -0.32171842
-0.24813505 -0.33864337 -0.34424302 -0.23956062 -0.29003355 -0.20297906 -0.249716 -0.24685216
-0.33368465 -0.29199523 -0.21729742 -0.27753642 -0.16284499 -0.2337141 -0.36039504 -0.30547485
-0.20661758 -0.4259058 -0.35841167 -0.20333767 -0.3727386 -0.2867962 -0.20900501 -0.2957848
-0.35663265 -0.39403963 -0.33288515 -0.30348736 -0.38730258 -0.28303024 -0.16752544 -0.14737271
-0.30191237 -0.36123353 -0.39569947 -0.20754112 -0.1787141 -0.23540124 -0.2984804 -0.17657135
-0.34649703 -0.30928466 -0.29930118 -0.26171014 -0.2282182 -0.39868 -0.31259924 -0.44441548
00000000: 8d83 78be 541b cfbe a2fa a4be b06f aabe
00000010: 5098 9ebe d687 d9be 2a8b a7be 5225 9bbe
00000020: 676a bfbe eae8 b4be 8e66 c7be 4289 83be
00000030: 6548 96be b193 b5be d5e8 70be 47b8 a4be
00000040: 1d17 7ebe aa62 adbe 9f40 b0be 614f 75be
00000050: 477f 94be bed9 4fbe 8db5 7fbe d0c6 7cbe
00000060: b7d8 aabe 6680 95be 3783 5ebe 4119 8ebe
00000070: d6c0 26be c052 6fbe b385 b8be 3367 9cbe
00000080: 8f93 53be 5310 dabe bc81 b7be c037 50be
00000090: 98d7 bebe f4d6 92be 6905 56be 1b71 97be
000000a0: 8e98 b6be 90bf c9be ec6f aabe b262 9bbe
000000b0: 864c c6be 57e9 90be ca8b 2bbe dfe8 16be
000000c0: 4294 9abe 9af3 b8be 1f99 cabe a985 54be
000000d0: d400 37be 060d 71be 6cd2 98be 1fcf 34be
000000e0: 0f68 b1be 8f5a 9ebe 013e 99be dffe 85be
000000f0: 08b2 69be c91f ccbe 020d a0be 6d8a e3be

cnn.13.running_mean f4 [64]
-0.965008 -1.7327652 -1.0804632 -0.99723226 -1.0706633 -0.68016905 -0.83031076 -1.6183282
-1.6940196 -0.96961015 -1.0495222 -0.14157239 -1.008055 -0.9731512 -1.4195733 -0.81218684
-1.7788314 -1.0411446 -1.1476471 -1.3013469 -1.6308776 -0.8567641 -1.5468527 -0.954414
-1.226522 -1.4744625 -0.98247546 -1.554076 -1.2136481 -1.8144222 -1.6317506 -1.5545597
-1.4682449 -1.0826086 -1.6462735 -0.7453781 -1.2831132 -1.858406 -1.2695844 -0.44968015
-2.2987235 -0.78706664 -1.09233 -0.834323 -1.5833677 -1.0521634 -1.7408278 -2.0594199
-1.1392438 -0.96339524 -0.43175006 -1.5207604 -2.473691 -0.8717632 -0.8148104 -1.7303032
-1.4681424 -1.2743708 -0.9688454 -2.4372287 -1.2851934 -1.5885117 -0.34851962 -1.3374425
00000000: c40a 77bf 40cb ddbf 9e4c 8abf 9d4a 7fbf
00000010: 7f0b 89bf 8f1f 2ebf 3f8f 54bf 6125 cfbf
00000020: a2d5 d8bf 5f38 78bf be56 86bf 5af8 10be
00000030: f207 81bf 7020 79bf 94b4 b5bf 7aeb 4fbf
00000040: bfb0 e3bf 3a44 85bf 1ae6 92bf 8992 a6bf
00000050: 99c0 d0bf e454 5bbf 45ff c5bf 7a54 74bf
00000060: acfe 9cbf 30bb bcbf 8383 7bbf f6eb c6bf
00000070: d258 9bbf fd3e e8bf 34dd d0bf d0fb c6bf
00000080: 73ef bbbf eb92 8abf 17b9 d2bf 19d1 3ebf
00000090: 0e3d a4bf 3fe0 edbf be81 a2bf 7a3c e6be
000000a0: 491e 13c0 337d 49bf 78d1 8bbf 3196 55bf
000000b0: cbab cabf 4aad 86bf 72d3 debf 89cd 03c0
000000c0: bed2 91bf 12a1 76bf 580e ddbe 47a8 c2bf
000000d0: f450 1ec0 e02b 5fbf 6a97 50bf 937a ddbf
000000e0: 17ec bbbf 951e a3bf 4106 78bf 8efb 1bc0
000000f0: 3881 a4bf 5a54 cbbf 2a71 b2be 5131 abbf

cnn.13.running_var f4 [64]
1.8609289 1.8557748 2.0658584 1.5092402 1.9595076 1.4628444 1.3412113 1.5331066
1.9812347 1.9175382 2.0394564 1.2584772 1.368805 1.9575499 2.8055182 1.5822862
1.7917392 1.8133091 1.7553695 2.399568 2.4614227 2.173294 2.696728 1.6830974
1.7468883 2.5631785 1.4984581 2.1269712 2.1567512 2.114055 2.0642562 2.2389462
2.2566597 1.9643893 2.4938216 1.9170008 1.8422953 2.921657 2.3086848 1.2384442
2.8939984 1.7726654 1.4864082 2.0815468 1.8705012 1.4255642 2.0525835 2.2506952
2.0463102 1.435872 1.4042928 1.8785601 2.1519887 1.6091878 1.7674124 2.8415825
2.3662968 1.6824431 3.077483 2.2165048 2.455459 1.488718 2.0095098 1.7935097
00000000: eb32 ee3f 078a ed3f 0637 0440 c82e c13f
00000010: 25d1 fa3f 7c3e bb3f d0ac ab3f d63c c43f
00000020: 1999 fd3f e471 f53f 7486 0240 c815 a13f
00000030: 0135 af3f ff90 fa3f 9c8d 3340 5b88 ca3f
00000040: b657 e53f 831a e83f f3af e03f 8692 1940
00000050: f387 1d40 4017 0b40 3197 2c40 bc6f d73f
00000060: 099a df3f 1e0b 2440 7acd bf3f 4c20 0840
00000070: 3608 0a40 ad4c 0740 c61c 0440 e54a 0f40
00000080: 1d6d 1040 1c71 fb3f c69a 1f40 4860 f53f
00000090: 55d0 eb3f 6efc 3a40 7ec1 1340 5785 9e3f
000000a0: 4537 3940 b3e6 e23f a042 be3f 1038 0540
000000b0: 956c ef3f e378 b63f 875d 0340 640b 1040
000000c0: bff6 0240 a7ca b73f debf b33f a874 f03f
000000d0: 2fba 0940 def9 cd3f 923a e23f 7ddc 3540
000000e0: 6871 1740 4c5a d73f 7bf5 4440 37db 0d40
000000f0: 3e26 1d40 508e be3f cf9b 0040 ba91 e53f

cnn.16.weight f4 [64, 64, 1, 1]
0.09678582 0.21732502 0.13892882 0.20849518 0.054468207 0.08223991 0.10041256 0.045204155
-0.093446895 -0.029881522 -0.09279591 0.060452472 0.08316775 0.1677386 0.14787038 0.008190456
-0.08250993 0.085853 -0.12790431 0.124885276 0.04463065 0.11309972 0.187105 0.19000879
0.2487869 -0.08379277 -0.09896611 0.14901797 -0.17422609 -0.0043538953 -0.23856977 -0.01617839
-0.1511746 0.15409291 0.1150323 -0.091022864 -0.08108635 0.014668932 0.074780166 0.008634044
-0.047458548 0.067123465 -0.010582057 0.1348799 -0.24780111 -0.09373737 0.017030725 0.13617082
0.12668933 -0.06836075 -0.069855906 -0.27571896 -0.19540478 0.10795103 -0.06631075 -0.06126652
0.053946666 0.2100031 0.13609736 -0.030415533 0.21265186 0.07402536 0.068901196 0.1879839
0.014507817 -0.043331433 0.08620684 -0.00036480284 -0.16732925 0.08735876 0.014955809 0.14844994
-0.13209113 0.06594843 -0.062401056 -0.08950514 -0.016366873 -0.25224823 0.16343382 0.045949437
-0.15303805 -0.055937126 0.046730943 0.027294058 -0.039037026 -0.079987094 0.12947008 0.2496544
-0.121321335 0.06494797 0.087468155 -0.00932456 0.1542617 0.17183575 0.007586832 -0.081810825
-0.051970676 0.07459594 -0.25641355 0.20405582 0.076444015 -0.20292252 -0.08415595 0.14020386
-0.099042416 0.16355594 0.07662137 -0.03675147 0.10162841 -0.11879333 -0.16539073 -0.062451877
-0.07996982 0.012765979 0.024699496 -0.20849723 0.17525098 0.01020869 0.001341742 -0.15614139
0.19446173 -0.055181183 -0.09432004 0.17499499 -0.0947388 0.039148454 -0.08831557 0.10831319
-0.018171933 -0.05428117 -0.06312406 0.1663817 -0.14073583 0.12135791 0.089701824 0.023541752
-0.083623834 -0.099669695 -0.12697232 -0.127115 0.21296974 -0.09539303 -0.09729903 0.14769669
-0.11065145 0.04453491 0.15329485 0.11651606 -0.049020473 0.009114091 -0.23125662 -0.10876276
0.062437315 0.25525263 0.0053021153 0.032006387 0.0111711295 0.17780219 -0.17073067 0.008525763
0.18937682 -0.14826259 -0.1706093 0.001927948 0.018842855 -0.2916508 -0.017103912 0.12551394
0.22189902 0.06474935 -0.030247923 -0.21022768 -0.11294915 -0.10540477 0.15197136 0.09927775
-0.18905126 -0.042221736 -0.056245893 -0.007840462 -0.010359337 -0.081439726 -0.08402644 -0.1301603
-0.12728636 -0.008582921 -0.1932824 -0.017765183 0.1513843 -0.12364963 0.017354533 0.22027488
0.10337329 -0.109274015 0.0052563795 -0.13575552 -0.16845718 0.17031327 0.14152141 0.079047255
-0.12986434 -0.13530102 -0.03905714 -0.013770468 -0.14670536 0.19984578 0.27026582 0.0801657
-0.14480418 0.09940734 0.024200693 0.034966167 -0.024600385 0.090204574 0.17653975 -0.11611329
0.14408648 0.08894122 -0.008944513 -0.109989144 -0.016587874 0.049963437 0.12678033 0.16318358
0.13217144 -0.082583666 0.104564644 -0.018183805 -0.16567864 0.24548614 0.122222245 -0.054569807
0.03992847 0.06401273 0.06886993 0.118928574 -0.0058762017 -0.1046752 -0.086821 -0.16146728
0.17358315 -0.0160485 -0.07795428 -0.15312034 -0.073167115 0.088444084 0.030675892 -0.21452281
0.035107657 -0.09480461 -0.13375421 0.109373555 -0.022946503 0.12780605 -0.003547077 0.13009132
00000000: a537 c63d 738a 5e3e 5b43 0e3e c37f 553e
00000010: 0e1a 5f3d 666d a83d 1aa5 cd3d fe27 393d
00000020: 1661 bfbd 18ca f4bc c80b bebd 039d 773d
00000030: da53 aa3d abc3 2b3e 556b 173e 4331 063c
00000040: f7fa a8bd b3d3 af3d 59f9 02be dac3 ff3d
00000050: a1ce 363d d3a0 e73d 7498 3f3e aa91 423e
00000060: fec1 7e3e 8b9b abbd beae cabd 2b98 183e
00000070: 5368 32be 1fab 8ebb a24b 74be 8b88 84bc
00000080: 84cd 1abe 88ca 1d3e 0e96 eb3d 326a babd
00000090: 9a10 a6bd f655 703c 5826 993d ce75 0d3c
000000a0: e563 42bd 0778 893d 5d60 2dbc f51d 0a3e
000000b0: 93bf 7dbe 61f9 bfbd 0584 8b3c 5d70 0b3e
000000c0: d9ba 013e b900 8cbd 9d10 8fbd 092b 8dbe
000000d0: 3118 48be 6e15 dd3d eecd 87bd 9af2 7abd
000000e0: 2ef7 5c3d 0d0b 573e 1b5d 0b3e ff29 f9bc
000000f0: 69c1 593e 9c9a 973d 121c 8d3d da7e 403e
00000100: 32b2 6d3c 4d7c 31bd 368d b03d 0243 bfb9
00000110: 5c58 2bbe 26e9 b23d 3609 753c 4303 183e
00000120: e642 07be f80f 873d 4098 7fbd 794e b7bd
00000130: d213 86bc ae26 81be 325b 273e 7a35 3c3d
00000140: 02b6 1cbe 541e 65bd f268 3f3d ca97 df3c
00000150: 4ae5 1fbd 46d0 a3bd ce93 043e 67a5 7f3e
00000160: 5277 f8bd 7103 853d 8122 b33d 0ac6 18bc
00000170: c7f6 1d3e b6f5 2f3e f69a f83b 6f8c a7bd
00000180: 34df 54bd c2c5 983d a348 83be 02f4 503e
00000190: ae8e 9c3d ecca 4fbe f459 acbd 9a91 0f3e
000001a0: c0d6 cabd 357b 273e aaeb 9c3d b688 16bd
000001b0: 8e22 d03d eb49 f3bd 305c 29be 8acd 7fbd
000001c0: 38c7 a3bd 6628 513c 9956 ca3c 4c80 55be
000001d0: fe74 333e 5942 273c 64dd af3a 87e3 1fbe
000001e0: fa20 473e aa05 62bd dd2a c1bd e331 333e
000001f0: 6a06 c2bd 215a 203d cbde b4bd 4ed3 dd3d
00000200: 4edd 94bc ef55 5ebd 3047 81bd f75f 2a3e
00000210: 0e1d 10be 7f8a f83d 97b5 b73d a2da c03c
00000220: f942 abbd a01f ccbd 0805 02be 6f2a 02be
00000230: bd14 5a3e 6c5d c3bd b744 c7bd cd3d 173e
00000240: 3a9d e2bd 3d6a 363d 53f9 1c3e f99f ee3d
00000250: b1c9 48bd 4553 153c 89ce 6cbe 03bf debd
00000260: 45be 7f3d 79b0 823e 5ebd ad3b 2119 033d
00000270: 1d07 373c c711 363e 05d4 2ebe a4af 0b3c
00000280: ffeb 413e 26d2 17be 34b4 2ebe 33b3 fc3a
00000290: 555c 9a3c 4153 95be 811d 8cbc ba86 003e
000002a0: 7f39 633e 4f9b 843d 7eca f7bc ed45 57be
000002b0: e251 e7bd 75de d7bd 619e 1b3e 2252 cb3d
000002c0: a796 41be b3f0 2cbd 1862 66bd 4875 00bc
000002d0: 35ba 29bc dfc9 a6bd 0e16 acbd be48 05be
000002e0: 5b57 02be 619f 0cbc d2eb 45be 4a88 91bc
000002f0: 7c04 1b3e 043c fdbd 182b 8e3c bd8f 613e
00000300: 60b5 d33d 0ecb dfbd b53d ac3b 7f03 0bbe
00000310: 0a80 2cbe 9a66 2e3e fdea 103e 87e3 a13d
00000320: 28fb 04be 5a8c 0abe 61fa 1fbd 879d 61bc
00000330: ee39 16be 5fa4 4c3e 4860 8a3e ea2d a43d
00000340: 8c47 14be 1396 cb3d 8840 c63c af38 0f3d
00000350: bf86 c9bc 2dbd b83d d6c6 343e cecc edbd
00000360: 688b 133e d026 b63d 028c 12bc fd41 e1bd
00000370: 4be3 87bc 76a6 4c3d b4d2 013e 9919 273e
00000380: f357 073e a021 a9bd fd25 d63d 34f6 94bc
00000390: a9a7 29be b860 7b3e a84f fa3d 9784 5fbd
000003a0: 098c 233d 1b19 833d ae0b 8d3d d390 f33d
000003b0: 278d c0bb f45f d6bd 35cf b1bd ae57 25be
000003c0: c8bf 313e 2578 83bc 7ea6 9fbd 94cb 1cbe
000003d0: a4d8 95bd 2c22 b53d 024c fb3c deab 5bbe
000003e0: 0ccd 0f3d eb28 c2bd ddf6 08be 3eff df3d
000003f0: 4efa bbbc 97df 023e 1476 68bb a936 053e
