models/model_epoch10.pth (torch, 957119 bytes, 61 tensors)

cnn.0.weight f4 [16, 3, 3, 3]
-0.038714513 0.07457496 -0.11921032 -0.13323095 -0.061228793 0.116521835 -0.020640112 0.14632152
0.032395836 0.0005393814 -0.07478088 0.04534876 -0.19023511 -0.1047553 0.026674451 -0.024686614
0.08303406 0.21200216 -0.22482617 -0.14574237 0.10409882 0.08989194 -0.07954425 0.18464375
-0.12710628 -0.036080297 0.2037151 -0.25075138 -0.16778073 -0.042373646 -0.16265589 0.1003916
-0.17795005 -0.2459786 -0.30159408 -0.37239143 -0.123801425 0.17415853 0.13923046 0.10185764
0.041119624 -0.04186734 0.015181573 -0.1789488 -0.12899435 -0.15143979 0.077800624 0.084352285
-0.13276927 -0.048058458 0.103425935 0.124134645 0.011679139 -0.030985989 0.18178014 -0.10563615
-0.026587557 -0.061860856 -0.0700763 -0.098089814 0.1627983 0.13342306 -0.11758091 0.05246173
0.026316201 -0.20895441 0.07826394 0.04640941 0.036426567 0.27588627 -0.11572094 -0.14211835
0.036301445 0.05798633 -0.01889189 0.23328578 0.047678694 -0.23554626 0.13428396 -0.06715629
-0.20785877 0.19819686 0.13734192 -0.2870011 0.11477005 0.02167124 -0.051278442 -0.0482026
0.078240275 -0.16284493 0.11199926 0.078150354 -0.005700796 0.19045635 -0.12897646 -0.17830385
0.16999935 0.047613297 -0.24702357 -0.062424142 0.1808236 0.030707175 0.048388798 0.05308689
-0.1705739 0.112860344 -0.063152485 -0.13859093 0.079434425 0.008744753 -0.13630764 0.18385532
-0.14919035 0.14363259 0.18280886 -0.20921063 -0.07778362 0.11457939 0.022710862 0.032013036
0.15458149 -0.013429573 -0.108052745 0.14960712 -0.22291066 -0.12500514 0.06720565 -0.071883075
-0.05797107 -0.058483437 -0.041500747 0.036959477 -0.048997313 -0.016895672 0.15480824 -0.044864245
-0.0016919578 -0.04745221 0.016870633 0.133829 0.16278854 0.07251174 0.19019233 -0.03068992
-0.17469813 -0.04775463 0.12062495 -0.048714038 -0.06477242 -0.18983173 -0.2909697 -0.1475375
-0.081725195 0.14237675 0.18892974 -0.13815254 0.06227098 -0.14660218 -0.071510926 -0.21125634
-0.0666659 -0.11253248 -0.13839066 -0.09427442 0.052242927 -0.0017261278 -0.05589057 0.12404372
-0.18768908 0.01773265 0.2494526 -0.14313294 0.19320096 0.12924218 -0.26312685 0.117708154
0.024717141 -0.16586535 0.1662823 -0.062133886 -0.076403104 -0.055619366 0.16498674 -0.047518805
0.07727403 0.10839387 -0.11757338 -0.018395647 -0.055048354 0.15168694 0.19766487 0.17903295
-0.1342224 -0.0021729786 -0.15130498 -0.10784256 -0.119935915 0.032980517 -0.029138705 0.090317234
0.1199073 0.13814454 -0.13147272 -0.11534678 -0.14492565 0.102342084 -0.100642994 0.1981177
0.110655755 0.08392208 -0.03958383 -0.079232946 -0.00861517 -0.107649766 -0.06528302 -0.031830624
-0.14652425 -0.12173653 0.17032143 -0.13776374 -0.031984888 0.21733004 0.10509743 0.027541392
-0.09844741 0.019697987 -0.21688403 -0.05876807 -0.113233514 -0.07279643 0.0152854975 0.14368568
0.029209193 0.24673745 0.055185568 -0.18607867 0.101256624 -0.18392503 -0.12551403 0.076822005
0.0413427 0.1445091 -0.0032537403 0.06322701 0.11862493 -0.19714318 0.18750468 -0.17019182
0.004685872 0.017032066 -0.103284046 0.0693498 0.18141417 -0.09895985 -0.2303376 -0.057303324
00000000: 1c93 1ebd c2ba 983d 8a24 f4bd b26d 08be
00000010: 0bcb 7abd 00a3 ee3d 7415 a9bc 4fd5 153e
00000020: 7fb1 043d 4665 0d3a b826 99bd 9fbf 393d
00000030: fecc 42be f289 d6bd 6184 da3c 953b cabc
00000040: c30d aa3d 1817 593e d538 66be 7d3d 15be
00000050: c331 d53d 4419 b83d 19e8 a2bd 4013 3d3e
00000060: 2628 02be efc8 13bd b19a 503e 7c62 80be
00000070: b6ce 2bbe fd8f 2dbd 448f 26be 1c9a cd3d
00000080: 8a38 36be d0e1 7bbe 8a6a 9abe 17aa bebe
00000090: 9a8b fdbd 9d56 323e 6e92 0e3e bd9a d03d
000000a0: 0d6d 283d 177d 2bbd 22bc 783c 5b3e 37be
000000b0: 1817 04be 0813 1bbe ef55 9f3d e4c0 ac3d
000000c0: abf4 07be f2d8 44bd fad0 d33d 4e3a fe3d
000000d0: dc59 3f3c 54d6 fdbc 9324 3a3e c457 d8bd
000000e0: 26ce d9bc cf61 7dbd 2a84 8fbd 50e3 c8bd
000000f0: 99b4 263e 0ea0 083e 43ce f0bd 1ce2 563d
00000100: 1395 d73c 25f8 55be d848 a03d cb17 3e3d
00000110: 0634 153d f740 8d3e 1aff ecbd 7987 11be
00000120: d3b0 143d 1383 6d3d 2ac3 9abc 78e2 6e3e
00000130: bc4a 433d 0a33 71be bc81 093e 3d89 89bd
00000140: eed8 54be 1ef4 4a3e 5ca3 0c3e cff1 92be
00000150: 8f0c eb3d e287 b13c 5809 52bd 1770 45bd
00000160: 703c a03d d2c0 26be de5f e53d 4b0d a03d
00000170: becd babb fd06 433e 6812 04be 4995 36be
00000180: 4f14 2e3e 2906 433d bff3 7cbe 75b0 7fbd
00000190: d229 393e 9d8d fb3c 5533 463d a471 593d
000001a0: edaa 2ebe 5323 e73d 1756 81bd c8ea 0dbe
000001b0: 84ae a23d 2746 0f3c 3b94 0bbe 9244 3c3e
000001c0: 5bc5 18be 6c14 133e 3f32 3b3e 503b 56be
000001d0: 054d 9fbd 99a8 ea3d 210c ba3c 1a20 033d
000001e0: 9c4a 1e3e b607 5cbc c24a ddbd 9c32 193e
000001f0: b142 64be 5901 00be 1ea3 893d 6f37 93bd
00000200: 1373 6dbd 548c 6fbd b0fc 29bd d262 173d
00000210: 68b1 48bd cb68 8abc 0d86 1e3e 92c3 37bd
00000220: afc4 ddba 405d 42bd 4834 8a3c 780a 093e
00000230: 0ab2 263e 0981 943d c7c1 423e 6d69 fbbc
00000240: 11e4 32be 5c9a 43bd 370a f73d 5f88 47bd
00000250: 67a7 84bd 4063 42be fbf9 94be 1214 17be
00000260: 8a5f a7bd 36cb 113e cc76 413e dc77 0dbe
00000270: db0f 7f3d e21e 16be 5274 92bd 9553 58be
00000280: 2288 88bd 6e77 e6bd 48b6 0dbe f212 c1bd
00000290: aefc 553d 3d3f e2ba 83ed 64bd a20a fe3d
000002a0: 9131 40be 1044 913c 8170 7f3e 7191 12be
000002b0: 79d6 453e 1058 043e 90b8 86be f910 f13d
000002c0: 9a7b ca3c 9bd8 29be e845 2a3e 1a80 7ebd
000002d0: 3b79 9cbd 22d1 63bd 49f2 283e 14a3 42bd
000002e0: d941 9e3d 9bfd dd3d 50ca f0bd 78b2 96bc
000002f0: 627a 61bd d253 1b3e a968 4a3e 6a54 373e
00000300: 9971 09be 8868 0ebb b1ef 1abe 8fdc dcbd
00000310: f6a0 f5bd 9416 073d 4bb4 eebc 3ef8 b83d
00000320: f591 f53d c375 0d3e c9a0 06be ef3a ecbd
00000330: 6467 14be ba98 d13d ea1d cebd 5edf 4a3e
00000340: 7c9f e23d 57df ab3d a722 22bd e244 a2bd
00000350: a426 0dbc 7b77 dcbd 1bb3 85bd d460 02bd
00000360: 740a 16be 0051 f9bd be68 2e3e f011 0dbe
00000370: 9602 03bd c48b 5e3e 523d d73d 7c9e e13c
00000380: cc9e c9bd ac5d a13c d916 5ebe cab6 70bd
00000390: f9e6 e7bd 4b16 95bd 0670 7a3c 5722 133e
000003a0: 1e48 ef3c bea8 7c3e 430a 623d 688b 3ebe
000003b0: a25f cf3d d856 3cbe c086 00be db54 9d3d
000003c0: f756 293d 32fa 133e b43c 55bb 2a7d 813d
000003d0: a1f1 f23d e7df 49be 3a01 403e c446 2ebe
000003e0: f18b 993b d586 8b3c 9686 d3bd 4507 8e3d
000003f0: a3c4 393e 76ab cabd 9fdd 6bbe e4b6 6abd

cnn.0.bias f4 [16]
0.104144774 -0.0265577 -0.19794106 -0.103258476 0.057669733 -0.07873897 0.093880914 -0.13122423
-0.15136983 -0.202092 -0.05536805 -0.03218437 -0.208989 0.12269163 -0.07447113 0.101911716
00000000: db49 d53d 898f d9bc 10b1 4abe 2e79 d3bd
00000010: 1937 6c3d e641 a1bd a344 c03d a55f 06be
00000020: b100 1bbe 35f1 4ebe 9cc9 62bd c2d3 03bd
00000030: 3601 56be c045 fb3d 5284 98bd 17b7 d03d

cnn.1.weight f4 [16]
1.07238 0.68460584 1.1999979 1.0287203 0.7625672 0.8583343 1.1009591 1.0591103
0.9061963 0.61986923 1.1175818 0.9417562 1.1239389 0.78106123 0.8376027 0.9547854
00000000: bf43 893f 5442 2f3f 8899 993f 1bad 833f
00000010: 9b37 433f ccbb 5b3f 3aec 8c3f ed90 873f
00000020: 7bfc 673f c0af 1e3f ec0c 8f3f ef16 713f
00000030: 3bdd 8f3f a1f3 473f 216d 563f d16c 743f

cnn.1.bias f4 [16]
0.06826229 -0.31986958 0.083054855 0.03465608 -0.084554054 -0.1592851 0.077033825 -0.027893225
0.26927042 -0.086294465 -0.10875275 0.17938113 -0.063777275 0.038239677 0.017717198 0.10940842
00000000: 19cd 8b3d f2c5 a3be aa18 aa3d 89f3 0d3d
00000010: ad2a adbd a21b 23be e9c3 9d3d 5580 e4bc
00000020: d0dd 893e 27bb b0bd c3b9 debd b0af 373e
00000030: a99d 82bd 35a1 1c3d a823 913c 8611 e03d

cnn.1.running_mean f4 [16]
0.1014114 0.062430836 -0.19850008 -0.09931176 0.06097793 -0.063385986 0.08956692 -0.11762809
-0.15510568 -0.1588541 -0.064915165 -0.024029847 -0.20621803 0.13630211 -0.12408286 0.09813739
00000000: c8b0 cf3d 7ab7 7f3d 9b43 4bbe f763 cbbd
00000010: fec3 793d 83d0 81bd dd6e b73d ffe6 f0bd
00000020: 06d4 1ebe a6aa 22be 3ef2 84bd 3eda c4bc
00000030: d22a 53be c892 0b3e 281f febd 42fc c83d

cnn.1.running_var f4 [16]
0.05189067 0.62576425 0.07229524 0.07713078 0.02461508 0.21207248 0.061372153 0.0795214
0.04101188 0.24201587 0.08684188 0.038591255 0.058904465 0.031090036 0.7194122 0.04574297
00000000: 508b 543d 1632 203f 870f 943d bef6 9d3d
00000010: 90a5 c93c 8729 593e 5e61 7b3d 1edc a23d
00000020: 13fc 273d 02d3 773e 28da b13d dd11 1e3d
00000030: cf45 713d 88b0 fe3c 662b 383f fb5c 3b3d

cnn.4.weight f4 [32, 16, 3, 3]
-0.020384358 -0.028071245 0.065124325 0.00057367806 0.07627077 0.072848625 -0.114396214 0.0529148
0.032543086 0.047427 -0.08107392 -0.0064075477 -0.018870724 0.00185488 0.061006956 0.0020963175
0.09343456 0.08328294 0.0309889 0.036052816 -0.033599224 0.010867059 0.056619838 0.117748216
0.040174555 -0.024636246 0.053819746 -0.07864067 0.016722078 0.028637378 -0.041103408 0.06605976
-0.03843347 -0.09705474 -0.08250659 0.058895886 -0.068423696 0.03335255 0.043229617 0.0417164
0.023250744 0.027617862 -0.02388632 0.03448007 0.07061084 -0.06401339 -0.021063166 -0.049892597
-0.042100098 -0.11714823 0.037349917 0.13206783 -0.06844889 0.07729639 0.042381678 0.13282272
0.15706958 -0.024628738 0.09525383 0.11939595 -0.0657878 0.04853865 0.018679526 0.048287716
-0.061797794 -0.0080261 -0.115240745 -0.12730268 -0.10532228 -0.22195797 -0.11762644 -0.15106319
-0.003120056 -0.062713735 -0.018997977 -0.0632619 -0.12977014 -0.05552411 0.017480453 -0.09989197
-0.011946025 -0.051971316 0.06505118 0.033581104 -0.026299529 -0.06948322 -0.06509225 0.024088573
-0.013425708 -0.06844851 -0.08006692 -0.010072982 0.0047776694 -0.16913581 -0.24568015 -0.14628552
-0.12233049 -0.15428552 -0.13816361 0.038040508 0.035647646 0.15157782 -0.008094389 -0.085019045
0.13508885 -0.023102172 -0.0140258465 0.02740014 -0.1017631 -0.17404504 -0.07656631 -0.17189509
-0.23362267 -0.14992829 -0.14515316 -0.07716427 -0.16492042 0.0795618 -0.034580622 0.0015428648
0.09329142 0.033105895 0.07018002 0.07999071 0.013346998 -0.037674084 -0.03316286 0.10944678
-0.026301628 -0.11067269 0.0779974 0.076744296 -0.03437456 -0.027030429 -0.06876466 0.0612076
0.051684197 0.047188103 0.01781198 0.059187394 0.114404045 0.05421526 -0.019919693 -0.0411345
0.026383655 0.16902953 -0.05765763 0.092496455 -0.04004097 -0.020752646 0.040180624 0.019275494
-0.12072991 0.008237381 -0.06319594 0.04585355 -0.096562594 -0.09607023 0.010294018 -0.02776012
-0.0030426062 0.03363659 0.08951955 -0.21741402 0.14306317 0.013970732 -0.040180743 0.09250802
0.023278816 -0.09670286 0.0071597076 0.09454173 -0.073185176 0.16798958 0.034092344 -0.039301127
-0.0042936364 -0.081922084 0.07967935 -0.033567656 -0.047005445 -0.03322684 0.10527511 -0.023316763
0.12945434 0.027889406 -0.021762934 0.0006350123 -0.05366853 -0.035440087 -0.082630776 0.0017625239
-0.06424626 -0.032353546 0.030305397 0.051668737 0.009132009 0.18236148 -0.021503288 0.1260725
-0.1385901 0.030602982 0.06425462 -0.28451985 0.013828164 -0.14004311 -0.26602414 0.004342592
-0.020245837 0.07443454 -0.024084302 0.057534095 -0.04530846 0.015737688 0.040655937 -0.036315307
0.06791241 0.15116562 -0.1169954 0.09665639 -0.020547874 0.015180537 -0.08308106 0.02051594
0.0025869794 0.08220253 -0.014961844 0.022084616 -0.051611833 -0.072306424 0.0031102085 -0.03285433
0.067764804 -0.042718995 0.043085657 -0.06386205 -0.07696055 0.12738128 -0.15621535 -0.19426894
0.083316654 -0.0331033 -0.09267572 0.06163654 -0.1449253 0.10968707 0.02059699 -0.21372093
0.03698686 -0.049586665 -0.074751556 -0.0408595 -0.018020662 -0.08561305 -0.11575714 0.10863008
00000000: 19fd a6bc abf5 e5bc e75f 853d e262 163a
00000010: d933 9c3d a931 953d 9048 eabd 30bd 583d
00000020: e64b 053d d042 423d 150a a6bd 68f6 d1bb
00000030: c796 9abc 721f f33a 6ee2 793d 5f62 093b
00000040: 9e5a bf3d 3f90 aa3d 6fdc fd3c 1eac 133d
00000050: 579f 09bd c00b 323c 34ea 673d fa25 f13d
00000060: 138e 243d f4d1 c9bc 1872 5c3d 5c0e a1bd
00000070: bdfc 883c ef98 ea3c 0c5c 28bd 574a 873d
00000080: 6a6c 1dbd a3c4 c6bd 37f9 a8bd d03c 713d
00000090: b921 8cbd af9c 083d 8a11 313d d1de 2a3d
000000a0: 5878 be3c db3e e23c 3ead c3bc f93a 0d3d
000000b0: 6b9c 903d 7419 83bd a98c acbc 2e5c 4cbd
000000c0: 2771 2cbd 69eb efbd 3afc 183d ca3c 073e
000000d0: ee2e 8cbd 924d 9e3d 6998 2d3d ae02 083e
000000e0: d9d6 203e 35c2 c9bc 7114 c33d dd85 f43d
000000f0: c1bb 86bd 77d0 463d ce05 993c 57c9 453d
00000100: af1f 7dbd e77f 03bc 5703 ecbd a25b 02be
00000110: 35b3 d7bd f348 63be 22e6 f0bd 4fb0 1abe
00000120: da79 4cbb 0f70 80bd a5a1 9bbc 748f 81bd
00000130: 77e2 04be 406d 63bd 2b33 8f3c 2994 ccbd
00000140: 43b9 43bc e0df 54bd 8e39 853d 578c 093d
00000150: 1c72 d7bc 384d 8ebd 164f 85bd 6655 c53c
00000160: 80f7 5bbc bb2e 8cbd 20fa a3bd 2609 25bc
00000170: ff8d 9c3b f031 2dbe 9493 7bbe dfcb 15be
00000180: 6888 fabd 06fd 1dbe c37a 0dbe 5dd0 1b3d
00000190: 4403 123d 3737 1b3e 549e 04bc 771e aebd
000001a0: bb54 0a3e c440 bdbc aacc 65bc 4276 e03c
000001b0: 2c69 d0bd dd38 32be ccce 9cbd 4405 30be
000001c0: c83a 6fbe cd86 19be 08a3 14be 4d08 9ebd
000001d0: e6e0 28be 4cf1 a23d 69a4 0dbd f439 ca3a
000001e0: 920f bf3d 0c9a 073d 8bba 8f3d 2bd2 a33d
000001f0: 5ead 5a3c 2450 1abd c7d5 07bd a225 e03d
00000200: 8376 d7bc 5da8 e2bd 1abd 9f3d 1d2c 9d3d
00000210: 57cc 0cbd eb6e ddbc 7cd4 8cbd d2b4 7a3d
00000220: cfb2 533d 5048 413d 6eea 913c 7b6e 723d
00000230: ab4c ea3d d210 5e3d a02e a3bc a67c 28bd
00000240: 8922 d83c 1416 2d3e 682a 6cbd c86e bd3d
00000250: 0002 24bd 7401 aabc 7094 243d a4e7 9d3c
00000260: 3e41 f7bd 14f6 063c df6c 81bd efd0 3b3d
00000270: 9cc2 c5bd 78c0 c4bd 3ea8 283c 3169 e3bc
00000280: 7666 47bb 85c6 093d 0756 b73d c8a1 5ebe
00000290: 277f 123e 7fe5 643c 9094 24bd d874 bd3d
000002a0: 37b3 be3c 260c c6bd fb9b ea3b 189f c13d
000002b0: 1ce2 95bd 7605 2c3e 6aa4 0b3d 38fa 20bd
000002c0: a2b1 8cbb c4c6 a7bd ed2e a33d 3d7e 09bd
000002d0: c888 40bd de18 08bd 7a9a d73d cc02 bfbc
000002e0: ae8f 043e 5378 e43c 2e48 b2bc f476 263a
000002f0: 88d3 5bbd a029 11bd 533a a9bd 7d04 e73a
00000300: 8b93 83bd 2785 04bd 0643 f83c 99a2 533d
00000310: 6c9e 153c f8bc 3a3e aa27 b0bc 2619 013e
00000320: 90ea 0dbe 1bb3 fa3c ed97 833d 96ac 91be
00000330: 868f 623c 7667 0fbe 5134 88be 4d4c 8e3b
00000340: 99da a5bc 2371 983d 714c c5bc dfa8 6b3d
00000350: 5d95 39bd 53ec 803c d786 263d 5cbf 14bd
00000360: a915 8b3d 29cb 1a3e 499b efbd c9f3 c53d
00000370: 0454 a8bc c9b7 783c 6726 aabd 0b11 a83c
00000380: 508a 293b cd59 a83d 8622 75bc ccea b43c
00000390: ee66 53bd 6415 94bd a4d4 4b3b 4392 06bd
000003a0: 46c8 8a3d 1dfa 2ebd 967a 303d 1bca 82bd
000003b0: 7e9d 9dbd 3d70 023e ebf6 1fbe 70ee 46be
000003c0: eca1 aa3d 5397 07bd c5cc bdbd 9976 7c3d
000003d0: 4c67 14be 9da3 e03d 05bb a83c a9d9 5abe
000003e0: 897f 173d 631b 4bbd 5817 99bd 4b5c 27bd
000003f0: 11a0 93bc e555 afbd 1412 edbd 7379 de3d

cnn.4.bias f4 [32]
0.018329022 0.08643838 0.08289666 0.09574217 0.072192475 0.06453796 0.03509693 -0.028322117
0.008470837 0.03429509 0.04232653 -0.0029054298 -0.0018396152 -0.045150574 0.0434394 0.07991091
-0.027855776 0.022444006 -0.09913722 -0.023068199 0.016223725 0.026071912 0.048190925 -0.036080338
0.06944012 -0.004972356 0.00037640138 -0.041049212 0.011421738 -0.10397049 -0.061577864 -0.052181367
00000000: bf26 963c 9b06 b13d b9c5 a93d 7914 c43d
00000010: a6d9 933d 7a2c 843d ccc1 0f3d c903 e8bc
00000020: 44c9 0a3c 0279 0c3d 955e 2d3d 0669 3ebb
00000030: 3e1f f1ba cfef 38bd 83ed 313d 55a8 a33d
00000040: cc31 e4bc 7edc b73c 7408 cbbd 85f9 bcbc
00000050: 9ee7 843c c394 d53c d963 453d fac8 13bd
00000060: 9f36 8e3d 25ef a2bb bd57 c539 3823 28bd
00000070: 3e22 3b3c 7bee d4bd 1239 7cbd 21bc 55bd

cnn.5.weight f4 [32]
0.9379354 0.94265413 1.0713359 0.90203404 0.9681359 0.93385625 0.7747012 0.9108983
1.0803406 0.96647185 1.0099176 0.97305006 0.95125866 0.995592 0.99663454 0.95360166
1.0521148 0.8525506 0.84454024 1.0143739 0.95056593 0.93026525 1.0062194 0.9228339
0.84815305 1.0453812 0.9859159 1.0100977 0.9950237 1.1026316 1.006621 1.0743996
00000000: 891c 703f c851 713f 8921 893f b4eb 663f
00000010: c1d7 773f 3411 6f3f d152 463f a230 693f
00000020: 9a48 8a3f b36a 773f fb44 813f cf19 793f
00000030: b085 733f 1edf 7e3f 7123 7f3f 3d1f 743f
00000040: b3ab 863f c240 5a3f ca33 583f 01d7 813f
00000050: 4a58 733f dd25 6e3f cccb 803f d83e 6c3f
00000060: 8f20 593f 0dcf 853f fc64 7c3f e24a 813f
00000070: e0b9 7e3f 0823 8d3f f5d8 803f ed85 893f

cnn.5.bias f4 [32]
-0.15418178 -0.14643583 -0.32838437 -0.10731038 -0.05006832 0.017403446 -0.14539452 -0.23055394
-0.21888311 -0.2325087 0.058687538 -0.22083394 -0.069545716 -0.056378566 -0.30742022 -0.034765195
-0.3135521 -0.13826749 -0.1551031 -0.24620217 -0.11887105 -0.23886268 -0.13830017 -0.11748082
-0.055505987 -0.10486858 -0.2524237 -0.22932807 -0.2769601 -0.2585276 -0.28588676 -0.18120095
00000000: d4e1 1dbe 46f3 15be ff21 a8be 8bc5 dbbd
00000010: 7014 4dbd ac91 8e3c 4de2 14be 5516 6cbe
00000020: e522 60be c316 6ebe 5862 703d 4b22 62be
00000030: fc6d 8ebd 36ed 66bd 2f66 9dbe f365 0ebd
00000040: e789 a0be fe95 0dbe 59d3 1ebe 6c1c 7cbe
00000050: aa72 f3bd 6b98 74be 8f9e 0dbe c999 f0bd
00000060: 3f5a 63bd 57c5 d6bd ae3d 81be fad4 6abe
00000070: b7cd 8dbe bb5d 84be c05f 92be be8c 39be

cnn.5.running_mean f4 [32]
-1.0246593 -0.74093044 -0.77232707 -0.70470923 -0.8426078 -0.8319833 -0.35295844 -1.5719899
-1.056394 -0.3635565 -0.06421574 -0.98646533 -0.5404819 -1.085693 -0.77271515 -0.95830387
-1.0540364 -0.0063583297 0.19342677 -0.87251574 -0.8732162 -1.1074111 -1.0905577 -1.2091416
-0.37235975 -0.6424769 -1.6457621 -0.98013496 -1.2376125 -0.52401304 -1.4224527 -0.81153893
00000000: 0928 83bf 9ead 3dbf 3ab7 45bf d367 34bf
00000010: 25b5 57bf dcfc 54bf f8b6 b4be f736 c9bf
00000020: eb37 87bf 1424 babe 8b83 83bd fe88 7cbf
00000030: 065d 0abf fdf7 8abf a9d0 45bf 6753 75bf
00000040: aaea 86bf 8959 d0bb ab11 463e 315d 5fbf
00000050: 198b 5fbf a6bf 8dbf 6597 8bbf 27c5 9abf
00000060: f0a5 bebe 5e79 24bf 55a8 d2bf 20ea 7abf
00000070: 166a 9ebf b825 06bf ee12 b6bf 04c1 4fbf

cnn.5.running_var f4 [32]
2.210875 2.5892527 3.0434055 1.6546352 1.9283482 1.8298264 1.4719602 3.2741046
2.6862125 1.3377686 1.6945138 2.4642632 1.5937283 1.8976247 1.7940081 1.7235677
1.7997698 1.0363166 1.3001485 1.8280538 2.3313513 3.0328047 2.9544263 3.4584115
0.7518287 1.907984 3.348013 1.5546138 2.085752 1.8151538 2.443492 2.9555998
00000000: fa7e 0d40 51b6 2540 28c7 4240 16cb d33f
00000010: 1dd4 f63f c037 ea3f 3169 bc3f ee8a 5140
00000020: e8ea 2b40 003c ab3f d4e5 d83f 7db6 1d40
00000030: 4aff cb3f 5ee5 f23f 0fa2 e53f de9d dc3f
00000040: db5e e63f 06a6 843f 446b a63f abfd e93f
00000050: dc34 1540 7919 4240 5215 3d40 9d56 5d40
00000060: d877 403f d238 f43f d845 5640 96fd c63f
00000070: f67c 0540 f656 e83f 2c62 1c40 8c28 3d40

cnn.8.weight f4 [48, 32, 3, 3]
-0.093091846 -0.025207624 0.1210024 -0.15931255 0.044388726 0.1666667 -0.06337154 0.06937932
0.11052851 -0.100714445 0.029164355 0.15790404 -0.091368966 -0.023073602 0.044699784 -0.038959574
0.014907848 0.12572764 -0.013812681 0.038914893 0.045273747 0.08076285 0.07141636 0.038511276
-0.06479631 -0.022793204 0.061274193 -0.079083644 0.124304794 0.11621555 -0.05650234 0.035348263
0.037947904 -0.18652385 0.032173105 0.120406024 -0.09108674 -0.0047673616 0.13089977 -0.16605084
-0.05985105 0.15075798 -0.0686876 0.045408316 0.16017711 0.030298363 0.14501165 0.06130769
0.011011421 0.06947793 0.0944719 0.044470403 0.06522311 0.0778286 -0.0056374716 -0.032952733
0.086793825 -0.093331344 -0.02185251 0.027512845 -0.04584651 -0.031897455 0.07223718 -0.008248066
0.06748659 -0.05958159 0.029249838 -0.031939134 -0.12243386 0.006330265 -0.049279988 -0.045073375
-0.08075505 -0.08375458 -0.046207316 -0.06556239 -0.15911976 -0.14055927 0.020761555 0.07525432
0.09136856 -0.09787481 -0.098580316 -0.013767386 -0.014213644 0.022364784 0.0006056481 -0.03980571
0.059861228 -0.02321892 -0.050968066 0.009132782 0.001472751 -0.026665151 0.0004089654 0.015947433
0.0038301928 0.0050805593 -0.047689732 -0.115823016 0.0019779229 0.094127834 -0.13905703 0.07751132
0.10505936 -0.1245555 0.05256275 -0.05446819 -0.016036598 -0.032897547 0.012489932 -0.06005455
-0.015386255 0.11957902 -0.03945537 0.00089929026 0.07257632 -0.055156473 0.03463705 0.04484391
-0.05364185 -0.051530555 0.0318342 -0.07493406 -0.015685527 0.08605981 -0.009605754 -0.02481978
-0.03793958 0.035893295 -0.025568645 0.020189853 -0.08169046 0.03669147 0.04762314 -0.09063095
-0.052422613 0.10094589 -0.105187036 -0.056705844 0.08803394 -0.07913391 -0.031607214 0.036753308
-0.075074665 0.019848738 0.1301861 -0.08569899 0.014738215 0.14024967 -0.15766326 -0.039284457
0.057098668 -0.12706707 -0.059811313 0.029844197 -0.034676757 -0.064497575 -0.037171453 -0.07250893
-0.03693145 0.044307142 -0.036609333 0.012101489 0.020173026 -0.047503725 0.018165383 -0.025895255
-0.05824492 -0.022690678 -0.01725932 0.027619751 -0.008493144 -0.13641812 0.009777046 0.06492023
-0.038796034 -0.06875813 -0.028510453 0.02426696 -0.10741135 0.0065387427 0.1623306 -0.15436086
-0.09483736 0.16533116 -0.120690234 -0.02762309 0.10964561 -0.10500136 -0.01283285 0.06651012
-0.0742048 0.08219109 0.048931457 -0.050827626 0.04385487 0.049765345 0.0072147944 -0.03816503
0.001031646 -0.033135343 0.039289825 0.024899509 -0.035428137 0.05881747 0.074378155 0.0277792
-0.01307328 0.026052855 0.0002753907 -0.010360766 0.034040842 0.060871746 0.061223514 0.09013664
-0.014567312 0.0770188 0.087920174 -0.011078292 0.0040896554 0.07113741 -0.02832736 -0.024747243
-0.02707979 0.002998406 0.003920738 -0.016016759 -0.10271533 0.010230378 0.029291201 -0.11156356
-0.10430172 0.10733088 -0.08205128 0.062462978 0.11454573 -0.15226498 -0.09292803 -0.0035770976
-0.05843968 -0.046956517 -0.09711267 0.09384358 0.045504436 0.0225864 0.118842766 0.008347552
-0.054533426 0.121482186 -0.018940862 -0.031138746 -0.009921241 0.039280236 -0.012968486 0.0072601708
00000000: f0a6 bebd 3880 cebc 1bd0 f73d d422 23be
00000010: f4d0 353d adaa 2a3e f0c8 81bd bf16 8e3d
00000020: c55c e23d 6043 cebd 16ea ee3c 99b1 213e
00000030: a71f bbbd da04 bdbc 1f17 373d 1394 1fbd
00000040: 0c40 743c bfbe 003e 954e 62bc 3965 1f3d
00000050: f770 393d fe66 a53d be42 923d 00be 1d3d
00000060: eeb3 84bd d0b8 babc a6fa 7a3d 9bf6 a1bd
00000070: 8393 fe3d 6b02 ee3d ff6e 67bd 57c9 103d
00000080: 436f 1b3d 1c00 3fbe f2c7 033d 6f97 f63d
00000090: af8b babd 8737 9cbb 970a 063e 3b09 2abe
000000a0: 6026 75bd 4d60 1a3e 16ac 8cbd 12fe 393d
000000b0: 7805 243e 4634 f83c ef7d 143e c61d 7b3d
000000c0: 3f69 343c 724a 8e3d 7c7a c13d 9926 363d
000000d0: b293 853d 9a64 9f3d 8aba b8bb 72f9 06bd
000000e0: f6c0 b13d 8124 bfbd 0904 b3bc 9e62 e13c
000000f0: 8dc9 3bbd e8a6 02bd 16f1 933d e522 07bc
00000100: 6936 8a3d d30b 74bd 5b9d ef3c 9cd2 02bd
00000110: 9bbe fabd 1d6e cf3b d0d9 49bd dc9e 38bd
00000120: e762 a5bd 8587 abbd e243 3dbd 9345 86bd
00000130: 4af0 22be c5ee 0fbe 2314 aa3c f01e 9a3d
00000140: 711f bb3d 9772 c8bd 7ae4 c9bd 9a90 61bc
00000150: 58e0 68bc 5a36 b73c 5bc4 1e3a 500b 23bd
00000160: 0c31 753d 9b35 bebc e4c3 50bd aaa1 153c
00000170: 5309 c13a e070 dabc 686a d639 31a4 823c
00000180: f903 7b3b d27a a63b 4f56 43bd 9e34 edbd
00000190: 0aa0 013b 18c6 c03d f764 0ebe 41be 9e3d
000001a0: 5d29 d73d f416 ffbd 0a4c 573d 091a 5fbd
000001b0: 2f5f 83bc 94bf 06bd 92a2 4c3c c3fb 75bd
000001c0: a216 7cbc d8e5 f43d f49b 21bd 59be 6b3a
000001d0: e5a2 943d c1eb 61bd 94df 0d3d 3fae 373d
000001e0: 8eb7 5bbd b411 53bd 9464 023d 0777 99bd
000001f0: ef7e 80bc 2040 b03d 7461 1dbc da52 cbbc
00000200: 8866 1bbd d904 133d 5675 d1bc 3165 a53c
00000210: 544d a7bd cb49 163d 7b10 433d b89c b9bd
00000220: 18b9 56bd b8bc ce3d 4d6c d7bd 6344 68bd
00000230: 234b b43d f610 a2bd 9176 01bd a38a 163d
00000240: bfc0 99bd d299 a23c 814f 053e f482 afbd
00000250: 8e78 713c 9c9d 0f3e 7a72 21be bde8 20bd
00000260: 4be0 693d df1d 02be b5fc 74bd d17b f43c
00000270: 3709 0ebd 4e17 84bd 1841 18bd 907f 94bd
00000280: 6f45 17bd 687b 353d abf3 15bd 5345 463c
00000290: e741 a53c 4493 42bd 92cf 943c 4922 d4bc
000002a0: 3a92 6ebd cde1 b9bc 6b63 8dbc d142 e23c
000002b0: d426 0bbc 31b1 0bbe e72f 203c e6f4 843d
000002c0: 97e8 1ebd 10d1 8cbd c18e e9bc 81cb c63c
000002d0: 7bfa dbbd f342 d63b fe39 263e c610 1ebe
000002e0: 173a c2bd 924c 293e 712c f7bd d249 e2bc
000002f0: e18d e03d f40a d7bd e040 52bc 7536 883d
00000300: b0f8 97bd cd53 a83d 5a6c 483d a130 50bd
00000310: 2aa1 333d bfd6 4b3d 156a ec3b ef52 1cbd
00000320: 4c38 873a edb8 07bd 5eee 203d 0efa cb3c
00000330: 181d 11bd 96ea 703d 9353 983d 3491 e33c
00000340: 5031 56bc cc6c d53c 5062 9039 34c0 29bc
00000350: 696e 0b3d a754 793d 82c5 7a3d 8f99 b83d
00000360: bcab 6ebc 08bc 9d3d 7e0f b43d b981 35bc
00000370: 8402 863b 7eb0 913d c80e e8bc bbba cabc
00000380: 70d6 ddbc e880 443b 8979 803b 9435 83bc
00000390: 6a5c d2bd 519d 273c 1af4 ef3c 707b e4bd
000003a0: 249c d5bd 4bd0 db3d 800a a8bd 2ed9 7f3d
000003b0: f496 ea3d 5aeb 1bbe 0d51 bebd bd6d 6abb
000003c0: 725e 6fbd 7a55 40bd 02e3 c6bd 1031 c03d
000003d0: dc62 3a3d 1d07 b93c d663 f33d 2cc4 083c
000003e0: 715e 5fbd a7cb f83d de29 9bbc af16 ffbc
000003f0: b38c 22bc 50e4 203d c679 54bc bae6 ed3b

cnn.8.bias f4 [48]
-0.09153439 0.05006741 -0.018255528 0.012944565 0.04314191 0.0029878772 -0.018941723 -0.023781454
-0.05893474 -0.012537366 -0.047471102 -0.05385936 0.061469592 -0.04721115 -0.006078081 0.031037182
-0.051151782 -0.06684168 -0.059285767 0.021850675 0.05135573 0.020833097 -0.073672734 -0.03755945
-0.028981768 -0.06665375 0.042542398 0.03378768 0.013101689 -0.048489623 0.039081354 -0.0022135437
-0.05516912 0.02762897 0.028008798 0.012211788 -0.0027235118 -0.053940706 0.030345732 -0.032093227
-0.010060541 0.04199488 -0.03186799 0.059850093 0.043533135 -0.029747788 -0.04112451 -0.062796056
00000000: 6276 bbbd 7c13 4d3d 9e8c 95bc 7115 543c
00000010: 92b5 303d 43d0 433b ac2b 9bbc 53d1 c2bc
00000020: 8e65 71bd 8669 4dbc 0f71 42bd a29b 5cbd
00000030: 8ac7 7b3d 7b60 41bd a42a c7bb b041 fe3c
00000040: 8884 51bd 4ae4 88bd a2d5 72bd 3000 b33c
00000050: 635a 523d 2caa aa3c bbe1 96bd f0d7 19bd
00000060: 2c6b edbc c381 88bd f040 2e3d f364 0a3d
00000070: 77a8 563c 0e9d 46bd c513 203d 1a11 11bb
00000080: 04f9 61bd 2656 e23c b572 e53c f413 483c
00000090: f27c 32bb eef0 5cbd 9d97 f83c 3074 03bd
000000a0: f8d4 24bc d302 2c3d 0288 02bd 5f25 753d
000000b0: cd4f 323d a2b1 f3bc 2d72 28bd 389b 80bd

cnn.9.weight f4 [48]
1.0801806 1.0089657 0.99625564 1.0416532 0.96606076 1.0531303 1.0132184 0.9787952
1.040648 0.92329955 0.93690497 0.9658463 1.0500422 0.99049586 0.9239413 0.85587716
0.9767159 0.9591883 0.99579287 0.94741994 1.0042518 0.9751612 0.91991615 1.017142
1.0778062 1.1016743 0.9386146 0.91721785 0.93591356 1.0599403 0.97917616 0.9766058
0.90358657 0.9717358 1.0515035 1.0580615 1.0185164 0.9909704 0.98127216 0.9113393
0.8003003 0.96229285 1.037553 1.0030994 1.0022194 0.977387 0.85105133 0.93453485
00000000: 5c43 8a3f ca25 813f 9c0a 7f3f e454 853f
00000010: c24f 773f f9cc 863f 24b1 813f 5292 7a3f
00000020: f433 853f 5c5d 6c3f 01d9 6f3f b441 773f
00000030: c867 863f 2391 7d3f 6b87 6c3f c41a 5b3f
00000040: 0e0a 7a3f 5d8d 753f 48ec 7e3f 1d8a 723f
00000050: 538b 803f 2aa4 793f a07f 6b3f b631 823f
00000060: 8ef5 893f aa03 8d3f 0c49 703f cace 6a3f
00000070: 0898 6f3f 20ac 873f 4aab 7a3f d602 7a3f
00000080: 7351 673f adc3 783f ab97 863f 8f6e 873f
00000090: bf5e 823f 3cb0 7d3f a734 7b3f 884d 693f
000000a0: 7be0 4c3f d358 763f 89ce 843f 9065 803f
000000b0: ba48 803f 0936 7a3f 80de 593f ad3d 6f3f

cnn.9.bias f4 [48]
-0.2686701 -0.064225435 -0.22382095 -0.1344422 -0.13828355 -0.14496353 -0.041784924 -0.21161494
-0.12843812 -0.2979133 -0.12515393 -0.17289944 -0.15458961 -0.13499431 -0.22051889 -0.25674024
-0.20468041 -0.2002288 -0.12474608 -0.22357643 -0.117220104 -0.26987547 -0.23754232 -0.091407016
-0.2046477 -0.1676347 -0.21780877 -0.18895558 -0.23780033 -0.12802887 -0.25603712 -0.27841696
-0.12923852 -0.10191521 -0.19090627 -0.029070344 -0.23022944 -0.15240686 -0.16173187 -0.22321296
-0.21683252 -0.19570626 -0.21873587 -0.11014657 -0.2491223 -0.1337413 -0.33228832 -0.18726452
00000000: 218f 89be a088 83bd 5231 65be 37ab 09be
00000010: 349a 0dbe 5271 14be ab26 2bbd 96b1 58be
00000020: 4885 03be 1888 98be 5a28 00be 8d0c 31be
00000030: bd4c 1ebe f33b 0abe b4cf 61be 7573 83be
00000040: be97 51be c708 4dbe df7a ffbd 38f1 64be
00000050: 1811 f0bd 1e2d 8abe 4b3e 73be 9a33 bbbd
00000060: 2b8f 51be 6ea8 2bbe 4309 5fbe 927d 41be
00000070: ee81 73be 001a 03be 4c17 83be ab8c 8ebe
00000080: 1a57 04be ecb8 d0bd ef7c 43be ee24 eebc
00000090: 44c1 6bbe 8b10 1cbe 0a9d 25be f091 64be
000000a0: 5809 5ebe 3967 48be 4cfc 5fbe 8694 e1bd
000000b0: eb19 7fbe 7bf3 08be b221 aabe 45c2 3fbe

cnn.9.running_mean f4 [48]
-0.16199954 -0.33289564 -0.6743405 0.8388964 -0.3080899 0.57716995 -0.57718515 -0.87518215
-1.556027 -0.20418102 -1.5239317 -0.44830728 0.15868072 -1.1006316 -0.90346706 -0.8964501
-1.0151807 -1.5588527 -0.3237386 -0.8963523 -0.59520924 -0.43122718 -0.48143357 -0.55236304
-1.3433169 -1.1946434 -0.30296046 -1.0212171 -0.7055474 0.3349635 -1.0448261 -0.3794573
-0.24493808 -0.5353927 -1.2517984 -0.75238454 0.20001915 -1.047931 -1.8127354 0.070786595
0.067999594 -0.0063763596 -0.62577754 -0.095739864 -0.6465989 -0.8943671 -1.3227985 -0.20402557
00000000: 35e3 25be 4c71 aabe 94a1 2cbf eac1 563f
00000010: f6bd 9dbe 69c1 133f 68c2 13bf f00b 60bf
00000020: e52b c7bf d414 51be 3210 c3bf 8888 e5be
00000030: 337d 223e 7fe1 8cbf 9e49 67bf c17d 65bf
00000040: 71f1 81bf 7c88 c7bf 11c1 a5be 5877 65bf
00000050: a25f 18bf cfc9 dcbe 767e f6be aa67 0dbf
00000060: cff1 abbf 13ea 98bf a21d 9bbe 3eb7 82bf
00000070: c19e 34bf 5680 ab3e ddbc 85bf 3a48 c2be
00000080: 0cd1 7abe 7f0f 09bf ee3a a0bf 469c 40bf
00000090: d2d1 4c3e 9a22 86bf b707 e8bf 90f8 903d
000000a0: 5f43 8b3d c8f0 d0bb f532 20bf 4313 c4bd
000000b0: 8187 25bf 3ef5 64bf 7651 a9bf 14ec 50be

cnn.9.running_var f4 [48]
0.81767607 0.76016253 1.1519811 1.0224935 0.8199572 0.7933795 1.2642943 0.75251865
0.78697777 1.1415975 0.83311474 1.1633211 0.74355364 0.6911801 1.0401074 0.7170649
1.0065203 0.7953779 0.7963204 1.3140664 0.9741538 0.92303395 0.67378306 1.0182121
0.8384639 0.57448596 0.63739413 0.8043155 0.69287664 0.74610835 0.9654329 0.5966404
0.7769232 1.2185959 0.88143855 0.6158877 0.7393001 1.0362229 0.98091054 0.63294
0.9883121 0.6339946 0.7112321 0.94908434 1.1859034 0.70339584 1.3746988 0.7578177
00000000: 3853 513f 039a 423f 1e74 933f 11e1 823f
00000010: b7e8 513f eb1a 4b3f 65d4 a13f 10a5 403f
00000020: 6077 493f de1f 923f 0247 553f b5e7 943f
00000030: 8859 3e3f 2ef1 303f 3d22 853f 9191 373f
00000040: a8d5 803f e39d 4b3f a7db 4b3f 5433 a83f
00000050: 2562 793f f44b 6c3f 0c7d 2c3f c654 823f
00000060: 92a5 563f 8311 133f 432c 233f 9fe7 4d3f
00000070: 5d60 313f f500 3f3f 9c26 773f 6dbd 183f
00000080: 70e4 463f f3fa 9b3f f5a5 613f d1aa 1d3f
00000090: c542 3d3f f4a2 843f f41c 7b3f 5b08 223f
000000a0: 0602 7d3f 784d 223f 4f13 363f 31f7 723f
000000b0: afcb 973f c011 343f 21f6 af3f 5700 423f

cnn.12.weight f4 [64, 48, 3, 3]
0.07849885 0.051848345 0.004041155 0.12172918 0.051353723 0.03995374 -0.011082384 0.067566425
-0.0071148016 -0.053333562 -0.00039055606 0.10948758 0.048312765 -0.10710876 -0.051074177 -0.021620648
-0.09695459 0.10200816 0.05356812 0.024028525 0.035448305 0.031462185 0.004036754 0.0678048
-0.10151078 0.081649214 -0.11417692 0.013615449 -0.032697 -0.0020198915 -0.094733976 -0.0038638064
-0.005359913 0.049176984 0.11345093 -0.025025725 -0.027530465 -0.0981666 -0.053083837 -0.109005794
-0.06789687 -0.09107795 0.021184199 0.12711017 0.028430648 0.044408314 0.007500519 0.005895482
-0.007960748 -0.09192397 0.08744651 -0.03465191 -0.0028572893 -0.065455824 0.0015808342 -0.03882227
0.052098997 -0.0024191313 -0.04509094 -0.0099340845 -0.047194786 -0.017678795 -0.0038048583 -0.022492772
-0.040566366 -0.011234915 -0.09948905 -0.13681872 0.07703607 0.037754655 -0.069545545 0.09980064
0.05514189 -0.006481357 0.022151263 -0.08370022 -0.112713076 -0.076764174 -0.048836444 -0.06989669
-0.068512574 -0.05474171 -0.046011478 -0.03744861 0.0826106 0.054673932 0.0780133 -0.050153997
0.0044273185 0.14569058 -0.0031289347 -0.0063556186 0.07923418 0.007839235 -0.07541321 -0.057749767
0.03365076 0.059147146 -0.009674572 0.09992368 0.02818609 0.17375332 -0.099416316 0.046147976
-0.03533463 -0.034787185 0.14487667 -0.028766217 -0.029274108 -0.038327582 -0.019051827 0.0006697837
0.051067546 0.04917706 0.065823965 0.053961083 0.23125193 0.046308927 0.008230507 0.050457362
-0.04157979 0.042755425 0.035832345 0.063421816 0.11850448 0.14978792 -0.11006156 0.025876198
-0.014303283 0.007056183 0.025358336 0.11844421 0.019391848 0.08684707 0.14952463 -0.02679145
-0.03291949 -0.026869273 -0.09142547 -0.010775638 0.021956539 -0.05215485 0.0026767997 -0.051726688
-0.032207113 -0.058240864 -0.06223678 -0.06628883 0.043480016 -0.16231714 -0.0056221923 0.15654352
-0.06748135 0.01628232 0.032416493 0.047509857 0.05398447 0.0337924 0.007646637 -0.045903157
-0.029205566 -0.08542323 -0.08396546 -0.08680837 -0.05461503 -0.052439075 -0.10529761 0.018631503
0.008096041 0.02348923 0.09532527 0.014611318 0.0016763711 0.043428555 0.06161841 0.04752705
0.07730621 0.08528264 0.07653772 0.14560108 -0.04351639 -0.082924925 0.04381635 0.058892872
0.057047207 0.01421061 0.06413077 0.029112222 -0.027089281 0.0604403 -0.03671728 -0.06298704
-0.042318426 0.011068266 0.08070652 0.0147929685 -0.13009527 -0.04248814 0.0024316981 0.014486428
-0.014054792 -0.0139393015 0.03223574 -0.054518506 -0.06615868 -0.14974493 -0.03399268 -0.0010432435
0.012767707 0.023776777 -0.002786913 -0.08973278 0.028674722 0.14170249 -0.056014795 0.10341952
-0.083313845 -0.016310869 0.11086704 -0.09875789 0.0006634825 -0.034767684 -0.0551382 0.033466086
0.0822758 -0.02546319 0.054384895 0.00676896 -0.03079246 0.09000045 0.086382486 0.13624252
0.0590343 0.1900877 0.100278154 0.06447685 0.10662799 -0.04190124 -0.049214713 -0.0057830485
0.064882606 0.048932415 -0.0023560438 0.0066587115 0.08572351 0.072908275 -0.07590844 -0.103224106
-0.13176532 -0.05292263 0.0077646514 0.027467266 0.07120279 0.0844833 0.05890987 0.008510417
00000000: 01c4 a03d ee5e 543d aa6b 843b 264d f93d
00000010: 4858 523d 88a6 233d e392 35bc 4460 8a3d
00000020: 4823 e9bb 4b74 5abd 8cc3 ccb9 063b e03d
00000030: 9be3 453d d65b dbbd 2833 51bd c91d b1bc
00000040: 2190 c6bd a7e9 d03d 3f6a 5b3d 78d7 c43c
00000050: 3e32 113d 7ede 003d bf46 843b 3edd 8a3d
00000060: e2e4 cfbd b437 a73d 97d5 e9bd 5513 5f3c
00000070: 4aed 05bd 2860 04bb e303 c2bd ea37 7dbb
00000080: 36a2 afbb ce6d 493d f658 e83d c002 cdbc
00000090: 9287 e1bc 920b c9bd 706e 59bd 6e3e dfbd
000000a0: 840d 8bbd 1487 babd 7c8a ad3c 2b29 023e
000000b0: 64e7 e83c 7ee5 353d eac6 f53b e32e c13b
000000c0: cc6d 02bc a242 bcbd 2817 b33d 29ef 0dbd
000000d0: 5c41 3bbb b40d 86bd fe33 cf3a 1a04 1fbd
000000e0: c265 553d 4a8a 1ebb 47b1 38bd 92c2 22bc
000000f0: 524f 41bd 1fd3 90bc ee5a 79bb c342 b8bc
00000100: eb28 26bd a612 38bc eac0 cbbd 351a 0cbe
00000110: 16c5 9d3d a0a4 1a3d e56d 8ebd 4764 cc3d
00000120: 76dc 613d 9061 d4bb 9176 b53c 056b abbd
00000130: 1dd6 e6bd 8936 9dbd b908 48bd ff25 8fbd
00000140: 5250 8cbd d838 60bd 8876 3cbd b763 19bd
00000150: bf2f a93d c6f1 5f3d 70c5 9f3d 476e 4dbd
00000160: 0a13 913b e92f 153e d00e 4dbb cb42 d0bb
00000170: 8845 a23d 2270 003c 3e72 9abd 058b 6cbd
00000180: 61d5 093d 4744 723d 1982 1ebc c9a4 cc3d
00000190: 84e6 e63c 64ec 313e c89a cbbd a905 3d3d
000001a0: 0cbb 10bd 027d 0ebd 8d5a 143e 21a7 ebbc
000001b0: 41d0 efbc 62fd 1cbd 9412 9cbc 6c94 2f3a
000001c0: 342c 513d e36d 493d b7ce 863d 4c06 5d3d
000001d0: 4ecd 6c3e 6eae 3d3d 40d9 063c 61ac 4e3d
000001e0: 924f 2abd 5020 2f3d f0c4 123d 4ce3 813d
000001f0: 7ab2 f23d 0162 193e f567 e1bd 52fa d33c
00000200: 5158 6abc 8e37 e73b 49bc cf3c e192 f23d
00000210: a7db 9e3c e0dc b13d fc1c 193e be79 dbbc
00000220: 96d6 06bd f31c dcbc 473d bbbd 4d8c 30bc
00000230: 33de b33c 53a0 55bd 3f6d 2f3b 5ddf 53bd
00000240: 9beb 03bd f98d 6ebd feeb 7ebd 70c2 87bd
00000250: 1a18 323d 7736 26be 5e3a b8bb f24c 203e
00000260: a933 8abd 8062 853c 28c7 043d b299 423d
00000270: d21e 5d3d e669 0a3d a490 fa3b f304 3cbd
00000280: 8340 efbc 60f2 aebd 15f6 abbd 96c8 b1bd
00000290: 02b4 5fbd 5bca 56bd 46a6 d7bd 18a1 983c
000002a0: 42a5 043c 7c6c c03c e539 c33d 4f64 6f3c
000002b0: aeb9 db3a 24e2 313d 9663 7c3d b9ab 423d
000002c0: b852 9e3d aaa8 ae3d cfbf 9c3d 7318 153e
000002d0: 3e3e 32bd 8bd4 a9bd c678 333d a739 713d
000002e0: 55aa 693d 9ed3 683c fe56 833d c17c ee3c
000002f0: 57ea ddbc 3f90 773d dc64 16bd 59ff 80bd
00000300: 1656 2dbd ac57 353c 7649 a53d 355e 723c
00000310: b237 05be 0b08 2ebd 205d 1f3b 7c58 6d3c
00000320: 1246 66bc ab61 64bc a009 043d cc4e 5fbd
00000330: 347e 87bd bc56 19be e93b 0bbd 71bd 88ba
00000340: a52f 513c 84c7 c23c a4a4 36bb d2c5 b7bd
00000350: 40e7 ea3c 751a 113e c56f 65bd 9dcd d33d
00000360: 73a0 aabd 5f9e 85bc 420e e33d 9441 cabd
00000370: 8fed 2d3a 8f68 0ebd 98d8 61bd bc13 093d
00000380: 3780 a83d 2e98 d0bc b2c2 5e3d 27ce dd3b
00000390: 7840 fcbc 2852 b83d 4de9 b03d 2983 0b3e
000003a0: f3cd 713d 5aa6 423e a25e cd3d 700c 843d
000003b0: c75f da3d a2a0 2bbd 5e95 49bd ba7f bdbb
000003c0: 2ce1 843d 5b6d 483d db67 1abb 5231 da3b
000003d0: cf8f af3d ef50 953d e275 9bbd 2967 d3bd
000003e0: 7ded 06be 66c5 58bd 9e6e fe3b 0803 e13c
000003f0: c5d2 913d 9505 ad3d 7a4b 713d 476f 0b3c

cnn.12.bias f4 [64]
0.005210261 -0.028491445 -0.035877638 0.0116593 -0.029715901 -0.033002265 -0.0064360234 -0.02111626
0.032628525 -0.009333993 0.013046608 0.0405541 0.008039466 0.009614858 -0.02725413 0.02000417
-0.047856443 -0.014461648 0.0052259616 0.01666747 -0.02555477 0.044489756 0.0054603675 -0.023876948
0.007590575 -0.058588598 -0.033297 0.02180586 0.04816295 0.033817224 0.023178743 0.02698099
-0.0497716 0.015056997 -0.00328612 0.04281734 -0.0005811923 -0.034041118 -0.027931737 -0.009938871
0.0171177 0.045300215 -0.029427655 -0.043529466 -0.0138194375 0.024539256 0.023388619 -0.031744752
-0.0039367746 0.00158307 -0.012201438 0.038337488 -0.0403588 -0.008718262 0.046962433 -0.021299474
-0.05326369 0.0036651802 0.036787808 0.048081752 0.03170605 -0.04212396 -0.021374572 -0.04563584
00000000: d6ba aa3b e466 e9bc 6ef4 12bd a606 3f3c
00000010: c36e f3bc 622d 07bd 47e5 d2bb 02fc acbc
00000020: 7da5 053d 9bed 18bc 71c1 553c 0e1c 263d
00000030: f7b7 033c a387 1d3c 0e44 dfbc c9df a33c
00000040: 1e05 44bd 8cf0 6cbc 8b3e ab3b 388a 883c
00000050: 3d58 d1bc e43a 363d e2ec b23b 9799 c3bc
00000060: 5cba f83b 99fa 6fbd 6f62 08bd 34a2 b23c
00000070: 8346 453d ee83 0a3d 59e1 bd3c 3d07 dd3c
00000080: 4edd 4bbd 9fb1 763c f25b 57bb 3c61 2f3d
00000090: 285b 18ba b36e 0bbd 19d1 e4bc a5d6 22bc
000000a0: 6b3a 8c3c b88c 393d 4412 f1bc f44b 32bd
000000b0: ec6a 62bc 8d06 c93c 7d99 bf3c c906 02bd
000000c0: 0f00 81bb 047f cf3a 8ae8 47bc c507 1d3d
000000d0: 454f 25bd 0bd7 0ebc ae5b 403d 3c7c aebc
000000e0: 072b 5abd 8533 703b d0ae 163d 5ff1 443d
000000f0: 34de 013d 2c8a 2cbd ba19 afbc a6ec 3abd

cnn.13.weight f4 [64]
0.89961463 0.9429625 0.96532166 0.95653147 0.9126302 0.93444884 0.8618446 0.9405802
0.90941906 0.92009455 0.9322125 0.96341175 0.9254884 1.0483732 0.94903 0.9358474
0.9896258 0.96192086 0.97115797 1.0420319 0.94300556 0.9372455 0.9030686 0.94715434
0.8792138 0.9641764 0.958641 0.97722185 0.9445631 0.97190344 0.97735435 0.9096409
0.97971416 0.96000963 0.9022205 0.9408683 0.95181894 0.9239609 1.0047878 0.98282206
0.91381955 0.91445464 0.9364062 0.9515953 0.9841017 0.9771669 0.97060525 0.9116646
0.97211975 0.9468533 0.94322807 0.95604 0.97121704 0.9682498 1.0124172 0.9712461
0.9891106 0.97066736 0.98856896 0.97887766 0.9586956 0.9853654 0.96258587 0.9598913
00000000: 254d 663f fe65 713f 521f 773f 3fdf 743f
00000010: 22a2 693f 0a38 6f3f d9a1 5c3f ddc9 703f
00000020: b0cf 683f 518b 6b3f 7aa5 6e3f 27a2 763f
00000030: cfec 6c3f 1831 863f a1f3 723f b293 6f3f
00000040: 1e58 7d3f 7240 763f cf9d 783f 4d61 853f
00000050: d068 713f 52ef 6f3f 812f 673f b578 723f
00000060: 2814 613f 44d4 763f 7f69 753f 362b 7a3f
00000070: e3ce 713f aace 783f e533 7a3f 3ade 683f
00000080: 8cce 7a3f 31c3 753f ecf7 663f bfdc 703f
00000090: 68aa 733f b488 6c3f e39c 803f 3a9a 7b3f
000000a0: 14f0 693f b319 6a3f 51b8 6f3f c09b 733f
000000b0: 17ee 7b3f 9c27 7a3f 9679 783f da62 693f
000000c0: d7dc 783f fa64 723f 6577 713f 0abf 743f
000000d0: aea1 783f 38df 773f e396 813f 96a3 783f
000000e0: 5a36 7d3f a87d 783f db12 7d3f ba97 7a3f
000000f0: 136d 753f e840 7c3f 076c 763f 70bb 753f

cnn.13.bias f4 [64]
-0.12739325 -0.08975874 -0.06788721 -0.08300587 -0.17476453 -0.11841656 -0.117356226 -0.07314745
-0.18176459 -0.12868261 -0.17014532 -0.10569209 -0.10365007 -0.09255317 -0.078991756 -0.08080659
-0.106245235 -0.08901887 -0.073094755 -0.0831895 -0.12552798 -0.07697958 -0.12670891 -0.104321115
-0.1340701 -0.03851737 -0.055438265 -0.075385906 -0.09627901 -0.084974766 -0.067263685 -0.11859698
-0.07414369 -0.0961984 -0.1410867 -0.10312289 -0.07309348 -0.11905136 -0.046823617 -0.119762465
-0.14313425 -0.121285215 -0.127788 -0.11772402 -0.12356477 -0.08811561 -0.04863803 -0.059868455
-0.061624493 -0.07767985 -0.09946441 -0.10241809 -0.05984741 -0.06624404 -0.06970327 -0.093333244
-0.08496554 -0.12855956 -0.15489012 -0.061718423 -0.07019008 -0.089224316 -0.0895905 -0.081194386
00000000: 6073 02be 6ed3 b7bd 7308 8bbd fbfe a9bd
00000010: 79f5 32be 6284 f2bd 7658 f0bd 55ce 95bd
00000020: 7f20 3abe 60c5 03be 933a 2ebe 1875 d8bd
00000030: 7d46 d4bd 848c bdbd 6ec6 a1bd ed7d a5bd
00000040: 1a97 d9bd 864f b6bd b4b2 95bd 425f aabd
00000050: 688a 00be 78a7 9dbd fbbf 01be 4fa6 d5bd
00000060: ac49 09be 64c4 1dbd 3c13 63bd ed63 9abd
00000070: ee2d c5bd 4007 aebd 8bc1 89bd f9e2 f2bd
00000080: a6d8 97bd ab03 c5bd 0879 10be 1832 d3bd
00000090: 09b2 95bd 33d1 f3bd 1fca 3fbd 0646 f5bd
000000a0: c991 12be 6264 f8bd dcda 02be 4a19 f1bd
000000b0: 870f fdbd f575 b4bd ac38 47bd a038 75bd
000000c0: f769 7cbd 9d16 9fbd ffb3 cbbd 93c0 d1bd
000000d0: 8f22 75bd f5aa 87bd 97c0 8ebd 8025 bfbd
000000e0: 6a02 aebd 1ea5 03be 849b 1ebe 75cc 7cbd
000000f0: d1bf 8fbd 3dbb b6bd 397b b7bd 3e49 a6bd

cnn.13.running_mean f4 [64]
-0.35041773 -2.055931 -2.1975954 -0.57382375 1.466733 -2.1450882 -0.3022887 -2.3254745
-2.5135612 -2.052399 -2.0545492 1.4906348 -1.2247971 0.10651431 -1.3831998 -0.5178299
-0.3582035 -0.50580156 -0.6386122 0.3383126 2.73688 -1.7131242 1.2052743 0.40712315
-0.3001872 -1.7575059 -1.0931147 -1.4719874 -0.92134047 -0.43658233 -1.9558194 -2.2249117
-1.5445281 -0.6973766 -1.0313177 -1.8377182 -2.426663 -1.9292705 -0.021972623 -0.3798948
0.16293159 -1.4165297 -2.1419866 -0.36095038 0.39406124 1.0330477 -2.4259403 -2.764366
-0.15671141 -1.1114912 -0.39590347 -1.5417455 -0.19658355 -0.68284935 -0.5172988 -1.5443215
-0.692856 -1.3304042 -1.6412147 -2.3542137 -0.8091037 0.17620969 -1.2912278 -1.7484622
00000000: f469 b3be 6094 03c0 67a5 0cc0 1de6 12bf
00000010: e8bd bb3f 2049 09c0 96c5 9abe 93d4 14c0
00000020: 30de 20c0 815a 03c0 bc7d 03c0 1fcd be3f
00000030: 27c6 9cbf 2d24 da3d b10c b1bf 8090 04bf
00000040: 7366 b7be 367c 01bf 177c 23bf 4f37 ad3e
00000050: 0b29 2f40 a747 dbbf 6e46 9a3f 7272 d03e
00000060: 23b2 99be f4f5 e0bf 2feb 8bbf 156a bcbf
00000070: f8dc 6bbf b887 dfbe 4a58 fabf f464 0ec0
00000080: 19b3 c5bf 4687 32bf 3802 84bf 5a3a ebbf
00000090: 724e 1bc0 56f2 f6bf eeff b3bc 9281 c2be
000000a0: 8ad7 263e d850 b5bf 4f16 09c0 7dce b8be
000000b0: 65c2 c93e e83a 843f 9b42 1bc0 5feb 30c0
000000c0: f578 20be 5845 8ebf dcb3 cabe eb57 c5bf
000000d0: 334d 49be 37cf 2ebf b26d 04bf 54ac c5bf
000000e0: 035f 31bf af4a aabf 5313 d2bf 70ab 16c0
000000f0: 6c21 4fbf 5070 343e f446 a5bf 9ccd dfbf

cnn.13.running_var f4 [64]
2.4688945 3.05845 2.2878377 1.5352963 2.5657437 1.7624887 1.9622458 2.392966
1.6184005 2.3004465 2.2309213 2.3022718 1.8199947 1.3887738 2.4496064 1.5406728
2.9163196 2.1602423 2.6113503 1.09804 3.0075104 2.320909 1.5622333 1.3336204
2.5598454 2.1678114 1.6382529 2.2470982 2.0397775 2.6723487 2.6218452 3.2982056
2.0664206 1.7055751 2.9258966 2.1344478 1.8230458 2.4114115 2.3815396 1.1656741
1.6249439 2.7463336 1.5243822 2.1071265 1.9239161 1.3711779 3.2665946 6.6780343
1.3001348 1.7169158 1.8195226 2.0541577 1.8234534 1.5978262 1.1176969 1.749269
1.5006078 1.7906688 1.4057009 2.4104767 1.4970771 1.4275532 1.0440335 2.145586
00000000: 5e02 1e40 a5bd 4340 ef6b 1240 9784 c43f
00000010: 2535 2440 3b99 e13f df2a fb3f 5b26 1940
00000020: bf27 cf3f 843a 1340 6ac7 0e40 6c58 1340
00000030: 96f5 e83f 57c3 b13f 5ac6 1c40 c434 c53f
00000040: fba4 3a40 6941 0a40 5d20 2740 938c 8c3f
00000050: 0d7b 4040 c689 1440 43f7 c73f 13b4 aa3f
00000060: 82d4 2340 6cbd 0a40 45b2 d13f 75d0 0f40
00000070: b78b 0240 c307 2b40 50cc 2740 cd15 5340
00000080: 3c40 0440 4950 da3f e441 3b40 cb9a 0840
00000090: 9159 e93f 9154 1a40 256b 1840 cf34 953f
000000a0: 29fe cf3f eec3 2f40 f51e c33f 29db 0640
000000b0: e242 f63f c282 af3f e30f 5140 75b2 d540
000000c0: d16a a63f e6c3 db3f 1ee6 e83f 5277 0340
000000d0: ec66 e93f 9285 cc3f b110 8f3f 0ce8 df3f
000000e0: eb13 c03f a334 e53f 02ee b33f 4045 1a40
000000f0: 39a0 bf3f 10ba b63f e4a2 853f 4851 0940
